model_G_EX6.pth (torch, 12335 bytes, 15 tensors)

weight f4 [20, 2]
00000000: 6dbf 243f ebb0 243f 1b2a 6e3f 0891 a53d
00000010: 349a 81bf f06a d5be 1007 fb3f 64ca 923e
00000020: f048 6bbf bdc5 a6be 3542 a23f 6acb 06bf
00000030: 4402 a1bf a811 973d 954b 12c0 c698 fdbe
00000040: 3c41 0240 dc35 323e 73d2 66bf ff3c 03bf
00000050: 612a 1abf c696 13bf c84c 1ec0 9e5a d63e
00000060: 5d7a 593f e75b 053f 4382 4f3f 7e97 b73e
00000070: 593a a93f eb7c 80be effc 71bf b1f0 143f
00000080: f1c0 10c0 f076 44bd babf d83f 40a6 83bc
00000090: 6a89 cbbf ee29 bbbe fa87 0940 8106 323f
0.6435459 0.64332455 0.93033 0.08084303 -1.0125184 -0.4168315 1.961153 0.28670037
-0.9190817 -0.32572737 1.2676455 -0.52654135 -1.2578816 0.073764145 -2.2858632 -0.4953062
2.0352316 0.17403358 -0.9016487 -0.5126495 -0.60220915 -0.57651937 -2.4734364 0.4186601
0.84952337 0.52093357 0.8105814 0.35857767 1.3220931 -0.25095305 -0.9452657 0.58179766
-2.2617762 -0.04796499 1.693351 -0.016070485 -1.590131 -0.36555427 2.1489244 0.69541174

bias f4 [20]
00000000: 725f 5c3f 4b5c 92bf e686 4f3f 40d4 a8be
00000010: 2962 893f e508 20be 3a81 0640 dbf9 373d
00000020: 3f50 84be 1310 8b3f 3600 c73e 681e 303f
00000030: 877d 4dbf b28f 32bf 25bc 27bf ec39 943f
00000040: 68fa f93e f056 0cbd 1684 4d3f a262 16bf
0.8608314 -1.1434416 0.81065214 -0.32974434 1.0733081 -0.15628393 2.1016374 0.044916015
-0.25842473 1.086428 0.38867348 0.68796396 -0.80269665 -0.6975051 -0.6552146 1.1580176
0.48823857 -0.034262598 0.8027967 -0.5874425

weight f4 [20, 20]
00000000: 3bc1 5fb9 b60a 2a3f 514a 1ec0 f470 943f
00000010: 3632 bfbf 938b 0e3f d5c4 2dc0 f36f 06c0
00000020: ab40 823f 40eb 7fbf 0766 8abf 1dc5 f5bf
00000030: 679b 9a3e 6099 c33e 6eab 823f 53ce c3bf
00000040: 80da d9bf 0639 253f 6da4 fabf 19b6 8e3f
00000050: a30d 62bc 72fd 3f3d bd09 dbbe 00d0 093f
00000060: 845d 90bd 7296 9b3e 86a4 58bd 8ea0 10bf
00000070: 74d2 2c3f 2925 163e b731 643e 317f 27bf
00000080: 5ef6 9f3e 81b1 a43e 0d2a 173f 3173 39be
00000090: 27a2 a7be 25f6 ee3e 1384 20bf 3d04 2f3f
000000a0: e4cf 863d 6152 9cbd 61a5 1bbe 4e59 443e
000000b0: 1606 c63d 3e74 9e3e 2032 463e 3b26 efbe
000000c0: f33e 753d a830 b43c 4dcb 2bbd e01d 25be
000000d0: 9b6c d4bd ce1b 703d 106e 573d 1e20 fd3d
000000e0: 1bfa b2be 401b 2e3e 7154 bc3d db47 323e
000000f0: 2ebd 06bd 2ce1 41bd bf8f d23e 1ad5 fdbe
00000100: 8195 e3bc 0c5f b5be c3b2 453e bf1b 4c3f
00000110: eff8 14bf cfcc adbb 487c 9fbe 840b 173f
00000120: a547 8bbe 9906 7dbe 9cf9 9abe 0dc4 3bbe
00000130: b2a4 b13e d3fe 74be 81bf be3e ec36 1fbf
00000140: efca 213e 0195 413e a6bf 113e 1422 d33e
00000150: 2a90 703c abf2 bc3e 0039 843d 21bd dabe
00000160: dc1f d63d cfe2 f43c be76 56bd e34e 06bf
00000170: 8da2 c6bd a387 f6bc 6969 9b3e 1b9e 59bc
00000180: ade5 76be 91ba f63c 2c0c a7be 7c7e 013e
00000190: 2fd2 2d3e b43d b53d fa22 d9bd c6bb e53e
000001a0: f581 833e 05e2 b73e fe69 de3d b509 8bbe
000001b0: 3ee5 903e 17c6 553b c383 1cbd d60d 24bf
000001c0: 9964 613d 4035 78bd 12b5 c53d c167 513e
000001d0: e2b3 65be c51b 213e 2627 dbbe ef38 e63e
000001e0: d1db d7bd a2dc 8f3e c3ac b4be 5cd0 d7bd
000001f0: ca31 b5be 9a8e a53c 071c b7be 28d7 0f3f
00000200: 06b4 93bd 3671 a0be 07bd 07be 4160 543e
00000210: ea97 b93e a775 c23e a3f1 193e 5235 e9be
00000220: c49e 7f3e 7b20 39be 5384 5f3d 6155 d93c
00000230: c1c7 c2bd 1efc 9e3e 7b04 57bf 17da e33d
00000240: 39ff a2bf 0e4c 833e 93ec adbf 8d23 cdbe
00000250: c7d9 f43d 68d1 43bf 0245 f8be d437 0bbf
00000260: 612f 0a3f 49d7 ac3e 796d b33e c333 84bf
00000270: 6023 20bf cdd2 4e3e 4bdf 47bf ab98 ecbd
00000280: e82d 8439 431b 83be 536c 8f3e 8c5d f9be
00000290: 1db3 993c d19e 09bf 186a aa3e 2a9a 153f
000002a0: d824 1bbf d83f 0fbe dab5 f33c 8eb8 443f
000002b0: a851 68be 9277 adbe 456a 06bf 18d4 dcbd
000002c0: b675 c43e 2fda 10be 67f1 003f d771 2dbf
000002d0: c485 98bd 261a cdbd 3448 08be 4714 a43e
000002e0: 8233 d43e 7082 e4bd 80f3 2e3e 4e8a 81be
000002f0: 50a5 293e 12c7 a53e 3533 123e bee6 d0be
00000300: 9319 adbe 3d18 9a3c da80 a2bd 0ec2 f33e
00000310: ba64 0dbf 7fa4 89bd bd30 1d3d edac 793e
00000320: 8ce6 fbbc 40c6 523e 5d1d 9cbe 2373 4fbe
00000330: 6f4a 0dbf 2f6d 843e a7ec 30bf 1501 fc3e
00000340: 2a6b 78be 0af0 83be 8987 dcbd 7277 a43e
00000350: f76c d03e 7763 c13e 5986 cc3d ef22 22bf
00000360: 2670 3e3e cfcc 3f3d 623e 8fbe 7387 c8bc
00000370: cc91 593e 48f1 3e3e 5963 25bf dd9c 4f3f
00000380: 8e2d 88bd c75a 4c3f f18c 10bf 6d13 58bf
00000390: 60b2 123f 79dd f23d 067f 683d 58ec 56bf
000003a0: aafc ac3e efea 283e 318a 573f 8f6f e0bd
000003b0: 842e 07bf c8a4 c03e 7646 08bf 3fff 2b3f
000003c0: ed7a 163e 6516 fd3c ad93 513e 4e50 273d
000003d0: 228b c93e 94b0 c23c 70f3 363e 4195 08bf
000003e0: 5539 523d e3e1 983d ba49 1fbd 6b58 1cbf
000003f0: 87f4 44bd cef4 77be c0b7 bc3d cddb 1c3e
-0.00021338921 0.66422594 -2.473286 1.159697 -1.4937198 0.55681723 -2.7151387 -2.1005828
1.0175985 -0.9996834 -1.0812386 -1.9200779 0.30196688 0.38202953 1.0208566 -1.529734
-1.7019806 0.64540136 -1.9581429 1.1149322 -0.013797197 0.046872564 -0.42780867 0.5383301
-0.07049087 0.30388218 -0.052891277 -0.56494987 0.67508626 0.14662613 0.2228459 -0.65428454
0.3124265 0.32166675 0.5904854 -0.18110348 -0.327409 0.46672168 -0.6270153 0.6836584
0.06582621 -0.076329 -0.15199806 0.19174692 0.096691296 0.3094806 0.19355059 -0.46708855
0.059874486 0.021995857 -0.04194193 -0.16124678 -0.10372277 0.058620267 0.0525952 0.123596415
-0.3495644 0.17002583 0.091957934 0.17410223 -0.03289526 -0.04733388 0.41125295 -0.49576646
-0.02778125 -0.35424078 0.19306473 0.7972984 -0.5819234 -0.005303956 -0.31149507 0.59001946
-0.27203098 -0.24709548 -0.30268562 -0.18336506 0.34695965 -0.23925333 0.3725548 -0.6219318
0.1580007 0.18904497 0.14233264 0.41236937 0.014682809 0.3690389 0.064561844 -0.4272242
0.104552954 0.029893307 -0.052359335 -0.5246412 -0.09698973 -0.030093974 0.3035386 -0.013282324
-0.24111052 0.030118259 -0.32626474 0.12645906 0.1697471 0.088496596 -0.106023744 0.44869822
0.25685087 0.35914627 0.1086006 -0.27155843 0.28299898 0.0032619291 -0.038211595 -0.6408361
0.055027578 -0.06059766 0.09653677 0.20449735 -0.22431901 0.1573325 -0.42803305 0.44965312
-0.105399735 0.28098017 -0.35288057 -0.10537788 -0.3538955 0.0202096 -0.3576357 0.5618768
-0.07212071 -0.31336373 -0.13255702 0.20739843 0.36248714 0.37980387 0.15033583 -0.45548493
0.24962908 -0.18078797 0.054569554 0.02652997 -0.09510756 0.31051725 -0.8399121 0.11125582
-1.2734138 0.25643963 -1.3587822 -0.40066186 0.119556 -0.76491404 -0.4849015 -0.5438206
0.53978544 0.33758 0.35044459 -1.0328296 -0.6255398 0.20197602 -0.78075093 -0.115525566
0.00025211205 -0.25606737 0.28012332 -0.48704183 0.018762166 -0.5375796 0.33284068 0.5843836
-0.60603094 -0.13989198 0.0297498 0.7684411 -0.226874 -0.33880287 -0.52505904 -0.10782641
0.38371056 -0.1414573 0.5036835 -0.6775183 -0.07447389 -0.10014753 -0.13308793 0.3204672
0.41445547 -0.111576915 0.17085075 -0.2530083 0.16566968 0.3237844 0.14277346 -0.40801042
-0.33808574 0.018810386 -0.07934733 0.4760899 -0.5523182 -0.06720828 0.03837656 0.24382372
-0.030749582 0.20583439 -0.30491152 -0.20258765 -0.551917 0.2586455 -0.691111 0.49219576
-0.2425963 -0.25769073 -0.10768039 0.3212238 0.40708134 0.37771198 0.09986562 -0.63334554
0.18597469 0.04682618 -0.27977282 -0.02447865 0.21247023 0.18646729 -0.6460472 0.8109873
-0.06649314 0.79826015 -0.5646506 -0.8440464 0.5730343 0.11858649 0.056761764 -0.8395438
0.33786517 0.1649587 0.8419524 -0.10958778 -0.5280535 0.37625718 -0.53232515 0.6718635
0.1469533 0.030894468 0.2046649 0.04084807 0.39363962 0.02376584 0.17866302 -0.53352743
0.051324207 0.074649595 -0.03888867 -0.61072415 -0.048084762 -0.2421448 0.09214735 0.15318222

bias f4 [20]
00000000: 8ab0 1bbf e0be 9fbd ead4 d4bd 4ae6 c9bd
00000010: ee42 773e eccd 9ebd 508b f3bd 6178 35be
00000020: ac64 65be 4e57 8dbd d46f 08bd bef1 1e3e
00000030: 8217 4a3e af05 273e b5f0 e2be 0f7b 9b3d
00000040: 01bf 683d 8111 be3d 44ab a1be 7d3e 98bd
-0.6081625 -0.078000784 -0.10392173 -0.09858377 0.24146625 -0.0775412 -0.11891806 -0.17721702
-0.22401685 -0.06901418 -0.033309773 0.15521905 0.1973553 0.16310762 -0.4432427 0.07591831
0.05682278 0.09280682 -0.31575978 -0.07433794

weight f4 [1, 20]
00000000: 4a65 8f3e 0eab df3d 041d 983d d8f6 93be
00000010: 8254 543d df04 733e 5eef b2be 3b41 edbe
00000020: e2f7 9cbe 26de 753e 0e37 babe 6a0a dc3d
00000030: 184e 6b3e e80b c0be 8a6b 933e e949 743e
00000040: ae61 293e 343b babe a43b 4e3e e3a5 85be
0.28006965 0.10921298 0.07427409 -0.28899264 0.051838405 0.23732327 -0.34948248 -0.4633883
-0.3065787 0.24010524 -0.36370128 0.10744174 0.22979009 -0.37509084 0.28792983 0.2385632
0.16541168 -0.36373293 0.20139939 -0.26103124

exp_avg f4 [20, 2]
00000000: a019 ac34 0000 0000 f2c6 a3b5 0000 0000
00000010: 5afa bcb5 0000 0000 17a5 8635 0000 0000
00000020: e265 6436 0000 0000 fd2e 0b35 0000 0000
00000030: e875 e735 0000 0000 be35 b9b5 0000 0000
00000040: 8c32 8d35 0000 0000 605c 0936 0000 0000
00000050: e6f7 8db4 0000 0000 c69e e8b5 0000 0000
00000060: e8a4 ebb5 0000 0000 40b2 8eb5 0000 0000
00000070: 950f 8b35 0000 0000 aa0b 5036 0000 0000
00000080: d6db b6b5 0000 0000 88b5 4035 0000 0000
00000090: a3a2 ceb5 0000 0000 ba0b 9235 0000 0000
3.205614e-07 0.0 -1.2202347e-06 0.0 -1.4079953e-06 0.0 1.0031825e-06 0.0
3.403395e-06 0.0 5.184991e-07 0.0 1.7245156e-06 0.0 -1.3799215e-06 0.0
1.052003e-06 0.0 2.046836e-06 0.0 -2.6443666e-07 0.0 -1.7331556e-06 0.0
-1.7556858e-06 0.0 -1.0631702e-06 0.0 1.0360842e-06 0.0 3.1001205e-06 0.0
-1.3624037e-06 0.0 7.1789736e-07 0.0 -1.539553e-06 0.0 1.088126e-06 0.0

exp_avg_sq f4 [20, 2]
00000000: 8008 662e 0000 0000 2253 5a30 0000 0000
00000010: d138 962f 0000 0000 068d 1b30 0000 0000
00000020: 7faa cf31 0000 0000 1485 ff2e 0000 0000
00000030: ac39 2e31 0000 0000 455c be30 0000 0000
00000040: c4c5 3930 0000 0000 dc44 1b31 0000 0000
00000050: 34f1 4b2c 0000 0000 5521 0231 0000 0000
00000060: d7ef b730 0000 0000 69ae 0f30 0000 0000
00000070: cc47 bf2f 0000 0000 3e86 b531 0000 0000
00000080: 9af0 9c30 0000 0000 1245 a22f 0000 0000
00000090: 59ad 5130 0000 0000 2976 3030 0000 0000
5.2303495e-11 0.0 7.9426077e-10 0.0 2.7325212e-10 0.0 5.658908e-10 0.0
6.043876e-09 0.0 1.1619697e-10 0.0 2.5353115e-09 0.0 1.3850544e-09 0.0
6.758365e-10 0.0 2.259461e-09 0.0 2.898193e-12 0.0 1.8936437e-09 0.0
1.3383169e-09 0.0 5.227095e-10 0.0 3.4793712e-10 0.0 5.283055e-09 0.0
1.1418877e-09 0.0 2.9516706e-10 0.0 7.62801e-10 0.0 6.419634e-10 0.0

exp_avg f4 [20]
00000000: 7c1c 0034 e2d2 25b5 b2d8 82b5 4009 b733
00000010: c0ee dc35 8069 cf32 442b 4d35 b0f2 f434
00000020: 80ad 05b3 78c2 8335 f968 d5b4 a023 27b4
00000030: 888f 83b5 b6a8 1cb5 14a8 f134 7c5e c735
00000040: 20d8 36b4 c040 3a34 3c38 47b5 2050 e833
1.1931292e-07 -6.1774165e-07 -9.748821e-07 8.523284e-08 1.6460763e-06 2.4145947e-08 7.643141e-07 4.562512e-07
-3.1124273e-08 9.816858e-07 -3.975072e-07 -1.5566047e-07 -9.802034e-07 -5.8360035e-07 4.501204e-07 1.4854154e-06
-1.7028697e-07 1.7346156e-07 -7.421511e-07 1.08179165e-07

exp_avg_sq f4 [20]
00000000: 8330 922e dc63 1430 aaf5 9e2f b5f6 a730
00000010: a34d a131 1bef 992f e8d6 c330 ac1b 8131
00000020: fb0e d630 1499 0031 802b b22c f5aa 9d31
00000030: 5694 6530 9434 a22f 9a22 1c30 b4a2 9231
00000040: 8e45 2c31 5644 1d30 a630 9730 b26c bc30
6.647929e-11 5.3983995e-10 2.8914587e-10 1.2220968e-09 4.694543e-09 2.8000433e-10 1.4249197e-09 3.75754e-09
1.5574807e-09 1.8713466e-09 5.0638937e-12 4.588737e-09 8.352051e-10 2.9504987e-10 5.680164e-10 4.2676565e-09
2.5068831e-09 5.721338e-10 1.1000523e-09 1.3709693e-09

exp_avg f4 [20, 20]
00000000: 99cf 1236 052b c335 1d62 5535 bebb 1f36
00000010: de3e 8b35 e856 1236 f8f4 b535 01ca 8d33
00000020: c457 2136 f499 8e35 8c89 7735 76ad c333
00000030: 22b3 d435 0933 d835 d5bf 0836 72e2 8e35
00000040: 6c2e e133 b05a 1e36 1bb7 cd34 112f 2036
00000050: 0030 3bb2 e0dc 9433 0c3c 2bb4 4486 0c34
00000060: 4058 21b4 f045 aa33 a8f4 2db4 fe25 5ab4
00000070: 44f8 0a34 745c 1fb4 78d1 efb3 ad7c 8db4
00000080: 78b7 8233 e02b 7033 888e dd33 30c1 23b4
00000090: ea6b 80b4 c0d0 ce33 a4f7 61b4 9044 2934
000000a0: 9858 fa34 7c78 b934 1017 d733 aed9 1835
000000b0: a812 2634 58eb 0635 d805 6734 ec37 acb3
000000c0: 3e61 1a35 d07c 2c34 20c8 1d34 44c5 d3b3
000000d0: c442 c634 3e18 c834 3e0c 0135 3828 2b34
000000e0: c075 b5b3 3299 1335 809b b6b1 4a37 1c35
000000f0: 0061 e0b3 5853 8eb4 58bc be34 b8df fbb4
00000100: 08e5 aa34 6028 b1b4 c00a b234 399a 0635
00000110: 806a fab4 389c a734 c087 7334 c854 2f35
00000120: b8af 86b4 88b9 80b4 4877 cdb4 a02a ad34
00000130: fcac 1e35 48c3 ccb4 68d1 0735 a027 10b5
00000140: 3c2e 5734 56c5 2a34 80d3 b332 b2da 8e34
00000150: 70ac 4533 2c19 7634 6888 9833 08e8 8ab3
00000160: 361a 9034 f0f2 5133 c813 4e33 1424 afb3
00000170: 64b1 3434 c28e 3534 486d 6f34 b03f 4d33
00000180: 3620 9ab3 9088 8734 90c8 0bb3 c6e7 9334
00000190: e4bb 3135 2646 1935 8076 afb2 dc72 8035
000001a0: 80bb 9133 20d2 5835 e037 1934 78db adb4
000001b0: e250 8135 6065 a833 a01d d033 d863 deb4
000001c0: 3220 2035 fc0f 2035 d01d 5735 2058 9b33
000001d0: f0ca c5b4 54ae 6f35 984d 72b4 9ca4 8635
000001e0: 280d 26b6 3afb f0b5 cc59 26b5 5017 44b6
000001f0: b8a4 71b5 b420 2fb6 549e a3b5 1851 9834
00000200: 880f 46b6 d0d0 79b5 448c 61b5 f0d9 b834
00000210: 5c22 01b6 f880 02b6 38a5 26b6 3090 78b5
00000220: a0d6 9934 3abd 3eb6 4065 d5b3 0a5f 47b6
00000230: 7516 22b6 629f e0b5 08f6 59b5 e2e9 2db6
00000240: d21c 8eb5 9326 21b6 d258 b5b5 8aad b6b3
00000250: 9dac 2fb6 52a4 91b5 78bb 80b5 6208 06b4
00000260: 10ce f1b5 b21e f5b5 0952 17b6 8595 91b5
00000270: b4bb 11b4 91f5 2cb6 96d3 dfb4 18f5 2db6
00000280: c05c f433 7879 1eb4 b475 0335 e812 96b4
00000290: 20e8 fd34 80f9 1ab4 a40d 0c35 9cca 1935
000002a0: 1899 92b4 188a fb34 5413 bf34 8e39 4935
000002b0: f031 fcb3 50e5 dab3 3036 6db4 9c07 0135
000002c0: 2ece 3635 20a7 43b4 963c 2635 a840 bfb4
000002d0: 2cbd da35 489c a135 e007 c334 3610 0436
000002e0: 50fd 1335 3847 ea35 18c9 4b35 a67e 85b4
000002f0: c859 0536 3087 1935 5443 0c35 8872 a4b4
00000300: fab8 ac35 a858 ae35 d0f4 df35 2466 1835
00000310: 94ff 8bb4 48a9 ff35 0078 9531 46c3 0636
00000320: 60a8 29b6 2278 f2b5 ec2a 3ab5 163c 44b6
00000330: 06db 82b5 3870 30b6 00c3 aeb5 08dd 5a34
00000340: 0643 46b6 0eeb 86b5 247f 71b5 e8f3 8034
00000350: f139 02b6 42be 03b6 c833 27b6 747a 86b5
00000360: f017 4e34 0cc7 3fb6 e0d0 47b4 b4cf 46b6
00000370: ec5d 00b4 2091 1b32 dc6a 70b4 f060 1833
00000380: c86f 71b4 408a 74b2 0e1c 88b4 8420 80b4
00000390: c0a8 0b33 4469 70b4 d861 3bb4 9500 a6b4
000003a0: 80b5 f0b1 40ad 70b2 e04f b032 38a0 75b4
000003b0: c278 97b4 009e 64b1 1c80 8db4 2897 8d33
000003c0: a04f a135 78d0 7635 1015 5b34 f0a7 ca35
000003d0: 784d ba34 92bd b135 ec29 0535 3a0c 8fb4
000003e0: f279 cc35 68e8 c234 8850 b734 a065 b3b4
000003f0: 502b 8335 a419 8435 646b ab35 4056 c034
2.1876533e-06 1.4541152e-06 7.9491457e-07 2.3802127e-06 1.0374604e-06 2.1806281e-06 1.3556846e-06 6.6025684e-08
2.4041956e-06 1.0624631e-06 9.221483e-07 9.1119475e-08 1.5847365e-06 1.6108107e-06 2.037724e-06 1.0645729e-06
1.0485823e-07 2.3596622e-06 3.8317452e-07 2.3869254e-06 -1.08957465e-08 6.931964e-08 -1.5947461e-07 1.3087362e-07
-1.5026399e-07 7.9289634e-08 -1.6200886e-07 -2.0316654e-07 1.294257e-07 -1.4841663e-07 -1.1167407e-07 -2.635401e-07
6.0869695e-08 5.591926e-08 1.0317041e-07 -1.5250839e-07 -2.3920376e-07 9.630594e-08 -2.1044849e-07 1.5764294e-07
4.663059e-07 3.45466e-07 1.0015913e-07 5.694118e-07 1.5466742e-07 5.026136e-07 2.1515677e-07 -8.019546e-08
5.7510977e-07 1.6064155e-07 1.469457e-07 -9.8613356e-08 3.6928952e-07 3.7270541e-07 4.807406e-07 1.5940248e-07
-8.449888e-08 5.4984696e-07 -5.3145754e-09 5.8194985e-07 -1.0448457e-07 -2.6510202e-07 3.5527296e-07 -4.691517e-07
3.183161e-07 -3.2998196e-07 3.3162905e-07 5.0143314e-07 -4.6643618e-07 3.1219838e-07 2.2680524e-07 6.5315953e-07
-2.5087297e-07 -2.397685e-07 -3.8271014e-07 3.2254775e-07 5.911131e-07 -3.8140047e-07 5.0596145e-07 -5.370184e-07
2.0040255e-07 1.5904274e-07 2.0934522e-08 2.6608683e-07 4.6024468e-08 2.2919693e-07 7.102864e-08 -6.468332e-08
2.684116e-07 4.8882555e-08 4.7981104e-08 -8.155635e-08 1.682834e-07 1.6908874e-07 2.2298366e-07 4.7788205e-08
-7.177043e-08 2.5245072e-07 -3.254587e-08 2.754952e-07 6.6211055e-07 5.709902e-07 -2.0426569e-08 9.570172e-07
6.786195e-08 8.077204e-07 1.4269563e-07 -3.2383446e-07 9.634789e-07 7.8415496e-08 9.6911435e-08 -4.1423368e-07
5.9651495e-07 5.9627905e-07 8.0137124e-07 7.23378e-08 -3.6841766e-07 8.928812e-07 -2.2566235e-07 1.0031686e-06
-2.4743586e-06 -1.795451e-06 -6.197049e-07 -2.9219846e-06 -9.0019194e-07 -2.6096068e-06 -1.2190526e-06 2.837121e-07
-2.951334e-06 -9.306359e-07 -8.4023145e-07 3.443124e-07 -1.9242498e-06 -1.944658e-06 -2.4832098e-06 -9.259702e-07
2.865463e-07 -2.842235e-06 -9.937003e-08 -2.970863e-06 -2.4152953e-06 -1.6735687e-06 -8.119682e-07 -2.5915147e-06
-1.0588212e-06 -2.4013323e-06 -1.3511401e-06 -8.506602e-08 -2.6177506e-06 -1.0851165e-06 -9.591304e-07 -1.2482772e-07
-1.8015871e-06 -1.8262856e-06 -2.2548504e-06 -1.0846858e-06 -1.3572463e-07 -2.5772936e-06 -4.1690936e-07 -2.5921672e-06
1.13790065e-07 -1.4759087e-07 4.8972583e-07 -2.7953433e-07 4.7293815e-07 -1.4433135e-07 5.2173914e-07 5.7291777e-07
-2.730601e-07 4.685287e-07 3.5590585e-07 7.496209e-07 -1.1743748e-07 -1.0193128e-07 -2.2092058e-07 4.806732e-07
6.8100314e-07 -1.822159e-07 6.1927983e-07 -3.5623566e-07 1.6297322e-06 1.2040919e-06 3.632731e-07 1.9678969e-06
5.5130386e-07 1.7455086e-06 7.5916023e-07 -2.486533e-07 1.9870804e-06 5.7193665e-07 5.225204e-07 -3.0630713e-07
1.2868834e-06 1.2989813e-06 1.6686045e-06 5.6773047e-07 -2.6076725e-07 1.9048248e-06 4.350113e-09 2.008122e-06
-2.528097e-06 -1.8065368e-06 -6.935286e-07 -2.924125e-06 -9.749499e-07 -2.6291364e-06 -1.3020763e-06 2.0383243e-07
-2.9543312e-06 -1.0052188e-06 -8.996451e-07 2.4019323e-07 -1.9405236e-06 -1.9631266e-06 -2.491508e-06 -1.0019417e-06
1.9193953e-07 -2.8577078e-06 -1.8609308e-07 -2.9625198e-06 -1.1955098e-07 9.055185e-09 -2.2390617e-07 3.5478422e-08
-2.248554e-07 -1.4234104e-08 -2.5352387e-07 -2.3865516e-07 3.2516937e-08 -2.2390037e-07 -1.7451327e-07 -3.0920333e-07
-7.0055535e-09 -1.4009231e-08 2.052542e-08 -2.287569e-07 -2.8213805e-07 -3.326818e-09 -2.6356508e-07 6.593319e-08
1.2018609e-06 9.1945503e-07 2.0403627e-07 1.5099049e-06 3.4701566e-07 1.32427e-06 4.9607365e-07 -2.6644722e-07
1.5234675e-06 3.6304414e-07 3.4145e-07 -3.341529e-07 9.772866e-07 9.842229e-07 1.2771748e-06 3.5825542e-07

exp_avg_sq f4 [20, 20]
00000000: 28bb 8730 b78d e72f 6914 212f 6b3a 9c30
00000010: 139a 862f b571 8330 3356 e12f 39f4 1f2c
00000020: af18 a030 c0b6 8c2f 003e 4f2f ed5a a52c
00000030: 1d6d 0a30 f4b8 0f30 84fd 6130 338e 8d2f
00000040: feaa bf2c 2b7e 9a30 63da 422e 172b 9c30
00000050: 1081 1a2f f322 102e de41 932e 0ea0 ec2e
00000060: 7179 c02e 9291 d52e 19e2 152f eeb8 7f2d
00000070: 8d64 fa2e ac14 c42e ebd1 7d2e 4353 f92d
00000080: 238d 462e 5c3d 582e 0232 972e b2e2 c92e
00000090: 69da dd2d ceb7 012f 63e9 572e 44b0 d62e
000000a0: 2de6 9e2f 9f17 c72e 029d c22e 07e7 942f
000000b0: 12bf 092f 2825 812f 5171 5c2f e0bd 412d
000000c0: 6829 9b2f 1d8f 0d2f 4d57 bf2e 99d4 c02d
000000d0: b8f3 fe2e 5385 072f 538a 492f 48a5 102f
000000e0: 1049 b12d dece 9a2f de68 612e 5e17 8e2f
000000f0: c2c7 9c30 81b4 9a2f e617 0b30 4175 7930
00000100: 56fc 3730 115d 5f30 76e3 8f30 5ea6 e02e
00000110: 9b96 8330 9fae 3b30 cc93 f42f 996b 5b2f
00000120: 5809 d22f f6aa e32f 202f 2130 4a04 4130
00000130: f803 442f c955 8730 d945 c52f a9a3 6430
00000140: 6f3a c02e daaa e02d 419c 042e d21b ac2e
00000150: dc83 372e 016c 962e aada 912e 1f33 9c2c
00000160: 9cfd b32e 3322 3c2e f523 fb2d f391 1a2d
00000170: b243 122e ff5b 1c2e 3893 652e 91a8 402e
00000180: aa9e 0c2d b704 b52e 10af a42d 9c75 a22e
00000190: 9775 c730 5bed e12f f0e2 1030 dc8b ae30
000001a0: 058f 4630 b04b 9930 7b3c 9d30 192f b82e
000001b0: 89d4 b630 2156 4b30 7e09 0730 2892 352f
000001c0: a830 1430 b2d1 1e30 0f97 6730 db6a 5030
000001d0: f369 242f 63ac b830 5072 b92f d6db a330
000001e0: 814e dd31 6472 1231 961a f530 0a78 d631
000001f0: 92e9 3031 0a2a b931 0e43 8e31 f69d 522f
00000200: 46d7 de31 da30 3631 3610 f930 fa4d d22f
00000210: c31e 3931 41f4 4331 0f00 9331 17cd 3931
00000220: 323b c32f 471d dd31 f369 8530 2749 ce31
00000230: cd91 1931 4bc5 8530 68c6 b12f 310f 2e31
00000240: d5f0 1330 b329 1431 492b 7430 0af7 ff2c
00000250: ed3e 3231 89b1 1a30 d6fa e52f 6593 832d
00000260: 4fd8 9e30 46a5 a430 6bc0 ff30 9b6a 1b30
00000270: 2705 8e2d bedb 2c31 6091 e12e 2d67 2d31
00000280: 1d84 8a30 9032 802f 9d79 0530 f798 5230
00000290: 571c 2e30 fb7d 3e30 296e 8730 50c9 eb2e
000002a0: 81ed 5e30 1356 3130 e063 e52f f271 652f
000002b0: a6ef b02f 58d3 c02f 377f 0630 9c9c 3630
000002c0: 13ff 4b2f e25a 6730 8bd8 c42f 55bb 3e30
000002d0: 511c 5e31 8689 8e30 1564 8230 05ff 5231
000002e0: 700b ba30 b8bc 3631 061e 1531 c437 f62e
000002f0: 0c95 5b31 f55a bf30 46f5 8130 5123 752f
00000300: d678 b530 1a8e c030 24ad 0f31 a65e c330
00000310: 361e 622f 919e 5a31 6969 1330 5501 4a31
00000320: 223a c331 adb3 0531 e31c ca30 f43a c131
00000330: 30e0 1331 bf5b a631 7f9d 6e31 6680 1b2f
00000340: fb69 c831 c982 1831 751d d230 b2bd 9b2f
00000350: cda8 2731 fcfe 3031 0d7e 8531 e351 1b31
00000360: b9b1 912f 112f c631 a272 5230 c9c3 ba31
00000370: 9c8b d32e 98fb b02d 4b71 652e acba 952e
00000380: 4ace 922e d3b0 892e 9da4 e22e e03a 632d
00000390: 995f 9f2e 0a35 952e 8cff 3e2e b48a dc2d
000003a0: 6be3 fa2d 58e6 092e e0ac 3b2e 69eb 992e
000003b0: eedc c22d 1dd2 a72e 2755 322e b3f2 842e
000003c0: 81fe 1a31 5fbd 3f30 1498 4230 66ae 0f31
000003d0: 4604 8930 8fe7 f930 9ac8 da30 f7a9 cb2e
000003e0: dccf 1531 dfba 8c30 30c9 3d30 2b0a 4a2f
000003f0: 313c 7630 9004 8330 9a33 c230 fcdc 8f30
9.875736e-10 4.211935e-10 1.4650116e-10 1.1367097e-09 2.4483934e-10 9.563822e-10 4.098851e-10 2.273083e-12
1.1648548e-09 2.5595703e-10 1.8848567e-10 4.699677e-12 5.0359167e-10 5.228593e-10 8.221479e-10 2.574879e-10
5.4475304e-12 1.1240834e-09 4.430446e-11 1.1362741e-09 1.405207e-10 3.277285e-11 6.6964864e-11 1.0760469e-10
8.7527215e-11 9.711977e-11 1.3631797e-10 1.45361344e-11 1.1386545e-10 8.91672e-11 5.7711984e-11 2.8344998e-11
4.5145342e-11 4.9167212e-11 6.875568e-11 9.180691e-11 2.5221785e-11 1.1797782e-10 4.909263e-11 9.7629044e-11
2.8903582e-10 9.053668e-11 8.849989e-11 2.7085198e-10 1.2527959e-10 2.3491364e-10 2.0049142e-10 1.10129406e-11
2.8223757e-10 1.287472e-10 8.701182e-11 2.1922285e-11 1.1593876e-10 1.2325545e-10 1.8329986e-10 1.3155443e-10
2.0155017e-11 2.8159425e-10 5.1252218e-11 2.5846253e-10 1.1407268e-09 2.8140693e-10 5.0601867e-10 9.07523e-10
6.6933603e-10 8.125918e-10 1.0469268e-09 1.02158934e-10 9.574309e-10 6.8278355e-10 4.4488357e-10 1.995616e-10
3.8205417e-10 4.1412535e-10 5.863843e-10 7.0219086e-10 1.7827506e-10 9.846924e-10 3.588372e-10 8.317849e-10
8.741529e-11 2.5541725e-11 3.0152107e-11 7.826596e-11 4.1726497e-11 6.8403956e-11 6.632679e-11 4.4394623e-12
8.185028e-11 4.2776626e-11 2.8551364e-11 8.786294e-12 3.3256682e-11 3.5552002e-11 5.2199328e-11 4.3805463e-11
7.993309e-12 8.2317646e-11 1.8722385e-11 7.387799e-11 1.4512577e-09 4.1095913e-10 5.270939e-10 1.2699917e-09
7.2235223e-10 1.1153727e-09 1.1440443e-09 8.3757175e-11 1.3302649e-09 7.3973366e-10 4.9126203e-10 1.6513779e-10
5.391123e-10 5.777806e-10 8.425198e-10 7.582181e-10 1.4953354e-10 1.3436757e-09 3.3732528e-10 1.1922292e-09
6.4408714e-09 2.131082e-09 1.7833652e-09 6.2418666e-09 2.574414e-09 5.388988e-09 4.140367e-09 1.9155508e-10
6.485524e-09 2.6512255e-09 1.8121742e-09 3.8254183e-10 2.693853e-09 2.8515077e-09 4.2782697e-09 2.7037623e-09
3.5512354e-10 6.435275e-09 9.707136e-10 6.0037055e-09 2.2347308e-09 9.733098e-10 3.2337089e-10 2.5328968e-09
5.382053e-10 2.1560538e-09 8.8828195e-10 7.2749628e-12 2.5938178e-09 5.6277166e-10 4.1833087e-10 1.4958432e-11
1.1557492e-09 1.1979544e-09 1.860838e-09 5.6540167e-10 1.6145819e-11 2.5154203e-09 1.0257639e-10 2.5233462e-09
1.007837e-09 2.331899e-10 4.855794e-10 7.661493e-10 6.3341105e-10 6.9300626e-10 9.853852e-10 1.0722323e-10
8.1100643e-10 6.4514544e-10 4.1725823e-10 2.086791e-10 3.2184494e-10 3.5074765e-10 4.89297e-10 6.643377e-10
1.8553363e-10 8.416646e-10 3.5806055e-10 6.938781e-10 3.2321348e-09 1.0370946e-09 9.48719e-10 3.0703984e-09
1.3536532e-09 2.659176e-09 2.169942e-09 1.1196691e-10 3.1953418e-09 1.3922931e-09 9.455696e-10 2.2295167e-10
1.3203827e-09 1.4010226e-09 2.0907658e-09 1.4215018e-09 2.0565313e-10 3.181331e-09 5.3628085e-10 2.9395626e-09
5.681856e-09 1.9456181e-09 1.4705644e-09 5.6237415e-09 2.1518751e-09 4.841666e-09 3.4723084e-09 1.4142784e-10
5.8328147e-09 2.2193254e-09 1.5287883e-09 2.8329122e-10 2.439765e-09 2.5756313e-09 3.8851398e-09 2.2602016e-09
2.6501626e-10 5.7679093e-09 7.656046e-10 5.4355707e-09 9.619969e-11 2.0120614e-11 5.2169196e-11 6.808895e-11
6.6759556e-11 6.261449e-11 1.0306531e-10 1.2916529e-11 7.2474644e-11 6.785157e-11 4.342797e-11 2.50727e-11
2.8522703e-11 3.135478e-11 4.267242e-11 6.999452e-11 2.2153359e-11 7.6316044e-11 4.0548145e-11 6.045777e-11
2.2554618e-09 6.975451e-10 7.0792905e-10 2.0908373e-09 9.969277e-10 1.8182947e-09 1.5918602e-09 9.261563e-11
2.1800508e-09 1.0239453e-09 6.9043704e-10 1.8375405e-10 8.9579816e-10 9.532801e-10 1.4130024e-09 1.0467427e-09

exp_avg f4 [20]
00000000: 3365 2936 e090 afb3 3afd 0735 80a2 6533
00000010: 281a 5f34 10c4 2d35 7a32 37b6 2689 39b6
00000020: 08ac b034 489c ee35 a403 3db6 6064 6ab4
00000030: b429 ac35 825b 45b6 1e7e e135 a8d7 6b35
00000040: 6474 a135 a4b1 44b6 36cb 8535 68c3 e7b5
2.5241868e-06 -8.175425e-08 5.065991e-07 5.346601e-08 2.0778009e-07 6.473283e-07 -2.7298506e-06 -2.764698e-06
3.2907724e-07 1.7777866e-06 -2.8165314e-06 -2.1829464e-07 1.2827136e-06 -2.9408552e-06 1.6800511e-06 8.7858143e-07
1.2029309e-06 -2.9309676e-06 9.968414e-07 -1.7267712e-06

exp_avg_sq f4 [20]
00000000: 0c3b b830 e419 802f 2a07 f12f e4f1 ff30
00000010: aa0e 152f b93c 1c31 89e8 2432 6906 5031
00000020: 3147 e630 3734 a731 ced3 0f32 64ac 342f
00000030: 9232 6c31 84e9 2532 4733 d130 2f0a 3c31
00000040: c988 1931 7416 2732 76a4 8b30 c702 a131
1.3404544e-09 2.330146e-10 4.3842735e-10 1.8622441e-09 1.3556681e-10 2.2735505e-09 9.598929e-09 3.0271627e-09
1.6754936e-09 4.866276e-09 8.371854e-09 1.643215e-10 3.4371266e-09 9.657359e-09 1.5221325e-09 2.736339e-09
2.2342184e-09 9.725785e-09 1.0160324e-09 4.6860325e-09

exp_avg f4 [1, 20]
00000000: 1389 b137 e6e6 2038 6c7c d937 b8c3 4cb6
00000010: 1afc 0238 8a9d 0938 6089 5737 4545 1437
00000020: ec9b 8db6 6cc3 c337 e8e3 5037 105f 2c38
00000030: d09c ea37 82a1 5837 4303 1138 bca9 0338
00000040: f4a2 c637 e2c4 6537 938c 1e38 a0a8 1837
2.1163874e-05 3.8362014e-05 2.5926354e-05 -3.0512292e-06 3.1229203e-05 3.2810065e-05 1.2846984e-05 8.8376155e-06
-4.220279e-06 2.3336812e-05 1.245083e-05 4.109653e-05 2.7967995e-05 1.2912207e-05 3.457373e-05 3.139091e-05
2.367932e-05 1.3695304e-05 3.7801055e-05 9.099167e-06

exp_avg_sq f4 [1, 20]
00000000: 43b1 1534 597d 9d35 87f6 3d35 46eb 3133
00000010: 5adb 7935 970c 8835 680f 4434 6785 d532
00000020: 0811 1233 a1d5 3535 42f1 0c34 36a5 a235
00000030: 8e8e 5f35 ec2d 2034 d164 f034 3f43 8035
00000040: c444 3c35 af1c 3534 4085 3e35 b289 1534
1.3941194e-07 1.1733893e-06 7.076673e-07 4.1425004e-08 9.3078927e-07 1.0136454e-06 1.8259527e-07 2.4857128e-08
3.4008764e-08 6.7738625e-07 1.3126285e-07 1.2118023e-06 8.328142e-07 1.4917867e-07 4.4776837e-07 9.556314e-07
7.0135525e-07 1.6867374e-07 7.097442e-07 1.39268e-07
