model_G_save2.pth (torch, 12335 bytes, 15 tensors)

weight f4 [20, 2]
000000 1e 7d de bd eb 44 16 be f3 91 2c bf 18 e1 33 3c
       -0.10863708 -0.14674728 -0.674102 0.0109789595
000010 55 a1 2f be 51 14 f8 3e 31 34 2b 3f 62 18 c3 be
       -0.17151387 0.48453 0.6687651 -0.3810454
000020 d6 d4 0a 3d 21 50 2a 3f d2 6b 8d be 01 66 05 bf
       0.033894382 0.66528517 -0.27621323 -0.5210877
000030 af 8a 3f 3c 31 01 7b 3e be 25 84 3e db 90 c5 be
       0.01169078 0.24512173 0.25810045 -0.38587078
000040 54 0c 05 3f 9b c0 ec 3b 00 3b 88 be f9 0d a7 be
       0.51971936 0.007225109 -0.26607513 -0.32627848
000050 08 14 62 be 8f b2 08 bf c3 b8 84 be c1 49 c5 be
       -0.22077954 -0.5339746 -0.25922212 -0.38532832
000060 c4 41 15 be 20 c5 71 3e 51 99 ac 3e f8 7b 09 bf
       -0.14575869 0.23610353 0.3371072 -0.53704786
000070 a1 97 11 bf 05 2a 47 3f df a6 27 3f ed 82 2d 3f
       -0.5687199 0.7779849 0.65489 0.677779
000080 de d8 2a 3f 2b 6f 6f bf bc 00 4e 3e 23 2f ea 3d
       0.66737163 -0.93529004 0.20117468 0.11434772
000090 18 45 27 be 30 ec 90 3c 15 d7 af 3e d9 45 72 3e
       -0.16334951 0.017690748 0.34343782 0.23659457

bias f4 [20]
000000 d0 01 0e bf a1 3b fb bd 3e 4c 8d 3e 52 69 29 be
       -0.55471516 -0.12267233 0.2759723 -0.16544083
000010 11 b0 c2 3e d1 44 02 3d 08 19 28 3f 07 6e 88 be
       0.38024953 0.03180391 0.65663195 -0.26646444
000020 eb 7d 59 3e c6 18 89 3e 3d 9c 2b bf 40 92 ec 3e
       0.2123944 0.26776713 -0.67035276 0.4620533
000030 07 8c 06 be 72 2e c3 be b6 40 94 3d e0 e6 e7 be
       -0.13139354 -0.38121372 0.07238905 -0.4529333
000040 9a 4b 05 bf 53 13 19 3f 4e e7 f2 be 4e e9 1f 3e
       -0.52068484 0.5979511 -0.47442096 0.15616342

weight f4 [20, 20]
000000 13 b7 c6 3b 5e 42 e7 3d 3c 4b a8 bc ef 8a 17 bd
       0.0060643046 0.112919554 -0.020543687 -0.03699773
000010 ea 77 99 3d 65 5f 23 3d 8a 91 16 bd 5b 80 c3 3d
       0.07493575 0.039885897 -0.03675989 0.09545966
000020 b2 5c 85 bd 71 a2 26 3d 77 7f 26 bd 34 f5 58 be
       -0.06511821 0.04068226 -0.040648904 -0.21187288
000030 91 50 4a be 59 cd 37 bd 14 84 17 3e 73 74 99 3d
       -0.19757296 -0.04487357 0.14796478 0.07492914
000040 e3 a1 04 be d5 4b 1a bd 45 2e 4c 3d a7 d5 29 3e
       -0.1295238 -0.037669975 0.049848814 0.16585408
000050 d7 1a 5c be be da 02 3d 2d d6 18 be 5b 3b d4 bd
       -0.21494614 0.03194689 -0.14925452 -0.10362884
000060 99 3f 2e be b3 6a c3 3d 5d f5 49 bd 0b b7 47 bc
       -0.17016448 0.09541836 -0.049306262 -0.012189637
000070 99 d5 21 3e 5d 18 c1 3d ba 45 a7 bb 55 86 35 3a
       0.15804137 0.09428475 -0.0051047476 0.0006924619
000080 98 48 2d be b5 a9 bf 3d 37 4e 0c be f1 2d 4a 3e
       -0.16922224 0.09358541 -0.13701712 0.19744088
000090 fb a4 e6 3d 07 5e 4b 3d e1 19 ca 3c 3d d2 d0 3d
       0.11261936 0.04965022 0.024670543 0.1019635
0000a0 3e 35 1e 3e cd 03 d3 3a 20 84 ba 3d 58 af 58 3e
       0.15449998 0.0016099155 0.09107232 0.21160638
0000b0 51 e8 39 3e bb e9 5e 3e f9 bc e8 3d e9 95 51 bd
       0.18155028 0.21768849 0.11364169 -0.051168356
0000c0 aa 7c 15 3e 6f a3 be 3d 94 82 f5 bc 12 95 c7 bd
       0.14598337 0.09308516 -0.029969491 -0.0974523
0000d0 0b 91 99 3c 4c d4 c8 3d e2 95 46 3e 41 32 ef 3c
       0.01874592 0.098061174 0.19393113 0.029198768
0000e0 4d db 18 3e 1d ef 0d 3c 50 5f 04 3e 0c ad 3b 3c
       0.14927407 0.008662966 0.12926984 0.011454832
0000f0 41 2a 8b 3d e8 07 61 3d c0 8c 2a 3e c5 17 62 3c
       0.06795169 0.05493918 0.16655254 0.013799612
000100 8e 25 09 be 24 0f c2 3a f9 5c fa 3d 2b fb d9 3d
       -0.13393232 0.0014805538 0.122247644 0.106436096
000110 d9 7b 1d 3e bf f6 3f be 28 66 5f bd 0c 92 4f be
       0.15379275 -0.1874647 -0.054540783 -0.20270556
000120 7c 30 52 be bc e4 c4 3d c1 4a fe 3d dd e3 bf 3c
       -0.20526308 0.0961394 0.12416602 0.023424083
000130 bb 51 24 3e 29 e2 e8 3d 5d 1e 28 3e 90 b3 63 3d
       0.16046803 0.113712616 0.16417833 0.055591166
000140 df a4 4d bd f0 7e e8 bd ee d5 73 bd 62 7a 26 be
       -0.05020606 -0.113523364 -0.05953019 -0.16257623
000150 9b b8 bf 3c b9 7e 27 be b6 2e 9e bd 03 a9 88 bd
       0.023403456 -0.16356935 -0.07723753 -0.066728614
000160 63 4e 56 3d 17 a5 04 3e 96 dd 67 bc a8 cb 63 be
       0.05232085 0.12953602 -0.014151951 -0.22245657
000170 31 e5 14 be 0a 24 8f bd e4 c0 42 3e 42 01 75 3b
       -0.14540555 -0.06989296 0.19018894 0.0037384783
000180 8c 4a 2c bd dc be 12 3d 9d 3c e8 bd cc 04 9f bc
       -0.04206328 0.03582655 -0.11339686 -0.019411467
000190 5b f1 e2 bb f1 c6 0b be fa 42 51 3e f7 cf 89 bd
       -0.0069257445 -0.13650109 0.20435706 -0.06729119
0001a0 08 a8 d9 bd 5f 94 f8 bd ac 6b 04 3e eb 1a af bd
       -0.106277525 -0.121376745 0.12931699 -0.08550056
0001b0 0f f9 1c 3e 82 73 8a 3c 64 d5 64 3e a2 9f 19 bd
       0.15329383 0.016900782 0.22347027 -0.037505753
0001c0 c2 49 1e be 24 70 2d bd b4 1c b4 3d 12 a9 fe bd
       -0.15457824 -0.042343274 0.08794537 -0.12434591
0001d0 35 48 ca bd 11 d8 2b be 6f 7b 43 bd 2d 1d 25 bd
       -0.09877054 -0.16781642 -0.047725137 -0.040311027
0001e0 94 6b 1c bc db 96 a9 3c 61 d3 20 3d 14 c4 2f 3e
       -0.009547133 0.020701816 0.039264087 0.17164642
0001f0 36 2e 34 bd 97 1e 58 3e 51 13 4a 3e 63 e6 ea bd
       -0.043989383 0.21105419 0.19733931 -0.11469724
000200 23 9b 1f be 60 e6 e2 3d cd 07 35 be 45 fd 4d 3e
       -0.15586524 0.11079097 -0.17678757 0.20116146
000210 e7 bf 73 bd 46 4c f6 3d 10 82 4f bc 9a bc a7 3d
       -0.059509184 0.12026267 -0.012665287 0.0819027
000220 f9 8e 3e 3e 8b 87 80 bd 7f d5 07 bd a6 31 40 3c
       0.18609227 -0.06275853 -0.03316259 0.011730587
000230 5b 80 0d be 5e 7c 35 be cd 02 28 3e 6c 26 04 3e
       -0.13818495 -0.17723224 0.16407318 0.12905282
000240 0a 95 3d be 5b 28 4c be 43 0d 5d 3e a5 b8 0f be
       -0.18513885 -0.1993727 0.2158709 -0.1403528
000250 a7 1a 74 bd 60 4e fa bd e4 21 99 bd 77 72 12 be
       -0.05959573 -0.1222198 -0.07477167 -0.14301477
000260 55 a5 19 be 8b 64 6c 3e 78 8b 55 bd ae 9c 48 3e
       -0.15004475 0.23085229 -0.05213496 0.19591019
000270 5b ce 21 be 0f d4 31 3e 5f be 21 3d fe aa 89 bd
       -0.15801375 0.1736605 0.039488193 -0.06722067
000280 6e ff 40 bd eb 0b 8e 3d 98 3c 3d be de 3f 42 3d
       -0.047118597 0.06935867 -0.18480146 0.04742419
000290 a0 e0 0c 3e c6 32 88 3d 53 c0 57 be 94 ee 3f be
       0.13757563 0.06650309 -0.2106946 -0.18743354
0002a0 d4 cc 1e 3e 3f 32 54 3e 8d 4a 31 be 6e 8e cd bd
       0.15507823 0.20722292 -0.17313595 -0.10036932
0002b0 9f df 20 be 9e d1 52 be b3 64 a6 3d bc a2 35 be
       -0.15710305 -0.20587775 0.081246756 -0.1773786
0002c0 b0 51 73 3d cb 92 51 be ea 37 17 bd 52 f2 27 be
       0.059404075 -0.20466153 -0.03691856 -0.16401032
0002d0 40 c3 21 be b9 8e 18 3d 00 85 56 be b0 dc 16 3e
       -0.15797138 0.037245486 -0.20949173 0.14732623
0002e0 2e d3 0c be b5 6b 83 3d 35 31 2b 3e a6 e4 1f be
       -0.13752434 0.06417028 0.1671799 -0.15614566
0002f0 dc 8f 13 3d ec 7d 16 3e f8 e8 d5 3d f4 54 58 3d
       0.036025867 0.14696473 0.10444826 0.052815393
000300 57 df 1c 3e 53 76 bd 3d c1 a5 61 be 7d a5 8a 3c
       0.15319572 0.09251084 -0.22035886 0.016924614
000310 5b ac 29 be 0e 5e ad bd 0c 0b 4a 3e e8 f6 63 bd
       -0.16569655 -0.08465205 0.19730777 -0.05565539
000320 41 1b 22 3e 53 1e 80 bd 53 98 50 be 4b 6a 33 3e
       0.15830709 -0.06255784 -0.20370607 0.17521016
000330 8e 4d 46 be d4 6c e1 bd 38 55 4a be 6d 59 2f 3e
       -0.19365522 -0.110070854 -0.19759071 0.17123957
000340 1e 22 9a bd 37 0e cb bd 84 16 2a 3e 69 ec 0b be
       -0.075260386 -0.09914821 0.16610152 -0.13664402
000350 40 8c 4b 3c 0d 04 1f be bd 7b d1 3d b5 80 36 3d
       0.012423575 -0.15528889 0.10228679 0.04455634
000360 c5 ef 9c bd fb 6f 23 be 1d 9f 97 bd 9e cc 37 bd
       -0.0766292 -0.15960686 -0.07403395 -0.044872873
000370 52 60 27 3d 2c 26 76 bd 4f e3 5e bd af df 6b 3e
       0.040863343 -0.060094997 -0.054415997 0.23034547
000380 d0 98 5d 3e 80 8e e5 bd 6b 81 4e bd fb 4d 58 be
       0.21640325 -0.1120882 -0.05041639 -0.21123497
000390 79 e6 5d be 85 9c 1d 3d 30 bc 9c bd 54 30 44 be
       -0.2166995 0.038479347 -0.076530814 -0.1915906
0003a0 57 b5 cf bc b5 fb 54 be 5a 0d 2e bd ad 63 4b 3e
       -0.025355024 -0.20799144 -0.0424932 0.19862242
0003b0 84 2b 63 3d f6 09 e3 bd 6a f5 b5 3d 3a fb b9 bd
       0.05546142 -0.11085884 0.088847 -0.09081121
0003c0 23 c8 d9 bd 75 20 e3 bd 70 44 ad 3c b7 72 03 be
       -0.10633876 -0.11090175 0.021150798 -0.12836729
0003d0 20 14 20 3d 8e 6f 2e 3e f3 5a ce 3d c3 b7 47 3e
       0.039081693 0.17034742 0.10075941 0.19503693
0003e0 94 83 01 3e ee cf db bc 63 e5 bf 3d 62 af ad bd
       0.1264785 -0.026832547 0.09369924 -0.08480717
0003f0 d2 96 11 3e 34 b1 6b 3d db 92 29 3e 72 81 d4 3d
       0.1421769 0.05754204 0.16559927 0.10376252

bias f4 [20]
000000 f8 f9 36 bd 2d 39 5a be cb f0 32 3e d1 35 aa bd
       -0.044671983 -0.21310873 0.17474668 -0.08311046
000010 de 0d 59 bd 78 2a 1a be 59 15 b8 bd 79 27 3b be
       -0.05299174 -0.15055263 -0.08988447 -0.18276776
000020 2b 36 cb 3d 47 dd 95 bd e9 53 23 3b 85 d0 eb bd
       0.09922441 -0.07317596 0.002492184 -0.11514381
000030 4a 65 0e be e0 d6 89 3d b6 d7 2e 3e 58 a8 34 3c
       -0.13905826 0.06730437 0.17074475 0.011026464
000040 50 7e d7 bd 35 e5 2a be 07 8f 54 3e c4 25 67 bd
       -0.10522139 -0.16688998 0.20757686 -0.0564325

weight f4 [1, 20]
000000 0f 7c 83 3d 33 fd 22 be 99 52 ed 3d 9e a4 05 3e
       0.06420147 -0.159169 0.1158802 0.13051078
000010 8e 07 fc bc 1c 6d 6f bd b7 3a 07 3e 5b 62 f0 3c
       -0.030765321 -0.058453664 0.13205992 0.029343775
000020 6c d2 5a 3c 4c 74 9b 3d b5 b1 07 3e 10 3c 81 3c
       0.013355833 0.07590541 0.13251384 0.01577571
000030 f5 1a 32 be 12 50 1d be a3 fa 10 3e ef 71 30 be
       -0.17393096 -0.15362576 0.1415811 -0.17230962
000040 41 1f 14 be e3 54 ba 3c 95 f3 53 bd bc 9f 14 3e
       -0.14465047 0.022745555 -0.05174597 0.14514059

exp_avg f4 [20, 2]
000000 14 83 db 32 82 9d 30 34 a4 c1 6f 31 40 42 d7 35
       2.5554563e-08 1.6448578e-07 3.488915e-09 1.603803e-06
000010 7a a0 f8 32 b4 46 7d 31 95 f3 58 b2 8b 50 d3 b3
       2.8943976e-08 3.6856536e-09 -1.2628239e-08 -9.840104e-08
000020 ff 34 98 b0 82 be ae b0 3c 90 6c 31 56 0d 16 31
       -1.1074518e-09 -1.2714312e-09 3.4424508e-09 2.1835453e-09
000030 9f ed c6 31 e7 10 d7 b1 94 d6 e5 31 01 9f 54 b2
       5.789573e-09 -6.259245e-09 6.689172e-09 -1.2376177e-08
000040 a0 28 4b 30 88 10 65 b3 de a2 a3 31 61 a9 1b b2
       7.39087e-10 -5.3333252e-08 4.76244e-09 -9.0607e-09
000050 9f cc 36 b2 a8 8d 9f b2 c8 59 4f b2 c6 7f 10 32
       -1.064032e-08 -1.8574454e-08 -1.20694e-08 8.4109555e-09
000060 8c 9f 35 31 b4 4e 9c b2 ac d3 e1 b1 f6 34 2f b1
       2.6429658e-09 -1.819658e-08 -6.572426e-09 -2.5495956e-09
000070 0d d4 98 b2 73 ae 50 b2 db aa 42 b0 61 74 3e b1
       -1.7791558e-08 -1.2146859e-08 -7.081959e-10 -2.7714793e-09
000080 c6 93 aa 32 e7 a3 ad 32 9e 47 ce 31 e2 cc 55 33
       1.9857804e-08 2.0214385e-08 6.003531e-09 4.9779267e-08
000090 08 51 8b 31 c0 1a f4 31 b2 8e ac 30 0d e6 f2 b0
       4.0546446e-09 7.1043758e-09 1.2555204e-09 -1.7673202e-09

exp_avg_sq f4 [20, 2]
000000 72 e9 e1 2f 37 d0 20 2f 80 2e a4 30 bd f8 cd 34
       4.1093134e-10 1.4625888e-10 1.1945787e-09 3.8365206e-07
000010 38 d9 fa 2e 54 5d 86 2b 2f 8a 74 2e 94 15 84 2d
       1.14072696e-10 9.547176e-13 5.560191e-11 1.5016245e-11
000020 3b 7c f4 2b 9e c7 7d 27 e6 cd 96 2d 9d 00 2e 2a
       1.7371724e-12 3.5219016e-15 1.7144463e-11 1.5454517e-13
000030 6c bf b0 2d 7d f7 3c 2b f0 7f 51 2d 40 0b 93 2b
       2.0093892e-11 6.7134476e-13 1.1908682e-11 1.0448101e-12
000040 95 f4 e0 2e 20 42 d4 2e 84 75 1e 2e 7b 0d 2e 2c
       1.0229787e-10 9.65239e-11 3.6029416e-11 2.473437e-12
000050 b7 de ca 2e 3f 6a e2 29 53 2d 93 2d 21 5e 56 2a
       9.2254586e-11 1.0054847e-13 1.6732093e-11 1.9039676e-13
000060 53 84 6e 2f d6 ec 55 2e 40 be a8 2d c0 07 39 2a
       2.1692985e-10 4.8640945e-11 1.9183877e-11 1.643399e-13
000070 d3 8d ab 2d 34 81 a8 2a 1d 94 95 2d 98 d5 aa 28
       1.9503432e-11 2.9932448e-13 1.7005114e-11 1.8966423e-14
000080 bd 18 31 2c c0 a7 47 29 8a 9a c3 2c b0 b8 d1 2b
       2.5166945e-12 4.4332376e-14 5.5593906e-12 1.4901604e-12
000090 7d 5f 87 2c 10 75 89 2f 11 ca ab 2b 10 7e 53 28
       3.847532e-12 2.5003333e-10 1.2206365e-12 1.1740188e-14

exp_avg f4 [20]
000000 e4 bc c5 32 74 ea 23 32 e8 82 a9 32 90 f9 2e af
       2.3019716e-08 9.541157e-09 1.9733719e-08 -1.591387e-10
000010 5f 50 5d b0 d8 49 4c 31 ba 1c cb 31 42 e8 ad 31
       -8.0513546e-10 2.9727882e-09 5.9113434e-09 5.0613673e-09
000020 91 cf de b1 0e 90 91 31 c8 bc 65 b2 ec 9e 14 b2
       -6.484648e-09 4.2364325e-09 -1.3372478e-08 -8.6508685e-09
000030 8e a7 1a 32 b3 8c 89 b1 92 4f 4a b2 9a 21 46 b0
       9.002077e-09 -4.0032204e-09 -1.177604e-08 -7.207973e-10
000040 14 8e 52 32 a1 52 b5 31 9c 70 ac 2f 8f 63 1e 31
       1.2255914e-08 5.277187e-09 3.1366632e-10 2.3048619e-09

exp_avg_sq f4 [20]
000000 30 e9 c6 2f a4 65 11 30 b4 4c e4 2e 76 67 64 2e
       3.618168e-10 5.289513e-10 1.0381865e-10 5.193309e-11
000010 34 8c df 2b db d0 93 2d 03 0e a5 2d eb 93 39 2d
       1.5884017e-12 1.6804716e-11 1.876455e-11 1.0548877e-11
000020 86 5a d3 2e b5 2b 11 2e 1a c5 c3 2e e7 66 81 2d
       9.611249e-11 3.3008003e-11 8.9025856e-11 1.47113e-11
000030 b3 f6 4c 2f 65 b1 94 2d ac a1 a2 2d df 20 8d 2d
       1.8641337e-10 1.6904431e-11 1.8489064e-11 1.6044442e-11
000040 7b 75 31 2c bf 04 b4 2c 4c db 1c 2c d4 01 b3 2b
       2.5218428e-12 5.1164346e-12 2.2290668e-12 1.2719222e-12

exp_avg f4 [20, 20]
000000 a2 73 8d 32 a9 cd 09 33 0e 83 ef 32 ae 08 ef 32
       1.6467144e-08 3.2084845e-08 2.7882859e-08 2.7827209e-08
000010 91 73 21 33 a9 6a a4 32 c6 0b 24 33 3e 28 da 32
       3.759084e-08 1.9140616e-08 3.8194933e-08 2.539684e-08
000020 70 3b 22 33 ca 82 c0 32 3a be 44 32 d7 0d df 32
       3.7772622e-08 2.2411218e-08 1.1451954e-08 2.596691e-08
000030 ba 5a 02 33 d0 23 e7 32 4a 97 81 32 15 c8 1a 33
       3.03505e-08 2.6908225e-08 1.5086375e-08 3.6037893e-08
000040 86 31 d4 32 c2 af 13 33 d1 4a 16 33 c7 63 1b 33
       2.4702569e-08 3.4385955e-08 3.499264e-08 3.6179497e-08
000050 f4 a1 2c b3 44 83 a7 b3 cc 20 96 b3 77 c0 93 b3
       -4.0194166e-08 -7.8004206e-08 -6.990885e-08 -6.88023e-08
000060 d5 cd c9 b3 ca fe 44 b3 92 31 cb b3 a6 14 85 b3
       -9.3972325e-08 -4.5866535e-08 -9.461941e-08 -6.197051e-08
000070 f6 50 c9 b3 12 2e 69 b3 74 d0 ea b2 9b e0 86 b3
       -9.3745186e-08 -5.429144e-08 -2.7335979e-08 -6.280717e-08
000080 ac b5 a0 b3 f2 1e 8c b3 38 6f 27 b3 d5 83 c2 b3
       -7.4836265e-08 -6.524887e-08 -3.898387e-08 -9.057809e-08
000090 7c 71 7f b3 c0 a6 b7 b3 c4 60 b8 b3 78 3d c1 b3
       -5.9475028e-08 -8.551933e-08 -8.585769e-08 -8.998444e-08
0000a0 1d b1 c5 32 f8 db 3f 33 a9 ea 23 33 34 ee 20 33
       2.301436e-08 4.4670713e-08 3.8164817e-08 3.7469547e-08
0000b0 3e 3e 5c 33 01 f4 e7 32 e5 20 61 33 90 b2 15 33
       5.127935e-08 2.70029e-08 5.2416812e-08 3.4854168e-08
0000c0 37 54 5b 33 74 9f 06 33 c7 42 8b 32 54 f2 1b 33
       5.1066504e-08 3.1344328e-08 1.6212097e-08 3.6309146e-08
0000d0 d4 0b 34 33 60 1a 1f 33 9d bf b1 32 8e fb 4f 33
       4.1920273e-08 3.704406e-08 2.0692648e-08 4.842473e-08
0000e0 ea 4b 11 33 04 64 48 33 69 e2 4b 33 8d 6d 53 33
       3.3829487e-08 4.6657092e-08 4.747054e-08 4.92269e-08
0000f0 e3 2e 0c 33 31 b3 86 33 9c 6a 67 33 a2 20 6a 33
       3.2638933e-08 6.272456e-08 5.388084e-08 5.451205e-08
000100 a4 93 9c 33 11 91 23 33 b4 18 9f 33 b0 cb 56 33
       7.291172e-08 3.8083332e-08 7.408508e-08 5.001101e-08
000110 b6 4b 9c 33 3d 70 3f 33 a0 e4 c3 32 7c 8e 5d 33
       7.278088e-08 4.4572733e-08 2.2804954e-08 5.158516e-08
000120 06 01 7c 33 95 33 63 33 c0 b4 f8 32 ee c9 94 33
       5.8674253e-08 5.289947e-08 2.8953195e-08 6.928518e-08
000130 73 17 4f 33 62 ba 8e 33 82 4a 90 33 6f ec 95 33
       4.821727e-08 6.646293e-08 6.7190754e-08 6.98136e-08
000140 94 45 01 b2 d6 98 7f b2 86 ee 51 b2 13 e1 59 b2
       -7.5246085e-09 -1.4877704e-08 -1.2219635e-08 -1.2682238e-08
000150 5a 2b 8f b2 10 af 19 b2 c8 67 93 b2 40 be 49 b2
       -1.6667105e-08 -8.945577e-09 -1.7160247e-08 -1.1742998e-08
000160 84 c4 92 b2 ad 66 31 b2 6b 64 b8 b1 87 71 4e b2
       -1.7086002e-08 -1.0326102e-08 -5.366521e-09 -1.2016591e-08
000170 a3 d0 6b b2 dc 3e 58 b2 f6 23 d2 b1 f8 81 89 b2
       -1.3726239e-08 -1.2587147e-08 -6.1158927e-09 -1.6008002e-08
000180 24 a9 49 b2 43 17 84 b2 eb 3d 8b b2 3e 79 8b b2
       -1.1738198e-08 -1.53774e-08 -1.6209887e-08 -1.6236864e-08
000190 44 e9 75 b2 80 32 f4 b2 be a0 ca b2 c4 ed cc b2
       -1.4313915e-08 -2.8428303e-08 -2.3588992e-08 -2.3856849e-08
0001a0 8a 61 09 b3 a8 e4 91 b2 5d eb 0c b3 c8 43 be b2
       -3.198651e-08 -1.6984202e-08 -3.281035e-08 -2.2149734e-08
0001b0 b9 2f 0b b3 38 e9 a8 b2 e4 f6 2e b2 6b 37 c4 b2
       -3.2406863e-08 -1.966383e-08 -1.0184269e-08 -2.2842604e-08
0001c0 a5 d0 e1 b2 2f 30 cb b2 41 59 52 b2 64 ec 02 b3
       -2.6288328e-08 -2.3654222e-08 -1.2243903e-08 -3.048298e-08
0001d0 ea 68 bb b2 8b 64 fc b2 c6 31 04 b3 fd de 04 b3
       -2.1817375e-08 -2.9382383e-08 -3.0778914e-08 -3.093645e-08
0001e0 5e ea 0e 33 70 aa 8c 33 b5 a3 6d 33 cb 1c 71 33
       3.3275107e-08 6.5502604e-08 5.5329753e-08 5.6138372e-08
0001f0 17 ea a0 33 9a 72 28 33 58 a8 a4 33 c4 d0 5d 33
       7.493161e-08 3.9219778e-08 7.667467e-08 5.1645443e-08
000200 91 58 a3 33 76 b7 43 33 6f f1 c9 32 b0 39 63 33
       7.606389e-08 4.5568832e-08 2.3509271e-08 5.2905023e-08
000210 4a 5e 83 33 02 5f 6c 33 c4 95 f8 32 1e 3d 9a 33
       6.117314e-08 5.503444e-08 2.8939105e-08 7.182301e-08
000220 37 b5 5a 33 69 0b 94 33 a6 78 99 33 41 ce 9b 33
       5.0921894e-08 6.8938625e-08 7.1465635e-08 7.255267e-08
000230 a2 dd f9 31 cc d2 75 32 19 59 53 32 48 8a 57 32
       7.2720505e-09 1.4308807e-08 1.2302075e-08 1.2546089e-08
000240 a5 d7 8f 32 63 d7 10 32 ac 54 92 32 21 02 44 32
       1.6745455e-08 8.430876e-09 1.7035141e-08 1.1409186e-08
000250 83 3d 92 32 55 70 29 32 b3 aa ac 31 a6 19 45 32
       1.702461e-08 9.862636e-09 5.025265e-09 1.1472741e-08
000260 d2 26 69 32 70 f1 50 32 0f ea da 31 f9 e4 8b 32
       1.3571212e-08 1.216209e-08 6.3712444e-09 1.6285854e-08
000270 e3 db 41 32 1f d1 83 32 9d e3 87 32 61 90 8b 32
       1.1284075e-08 1.5345504e-08 1.5819575e-08 1.6247386e-08
000280 12 4b 5c 31 8e 50 d7 31 c0 68 b8 31 00 b2 b9 31
       3.2056886e-09 6.2664816e-09 5.3670135e-09 5.404445e-09
000290 13 06 f9 31 ff ee 81 31 aa e3 fc 31 ff 38 aa 31
       7.2475443e-09 3.781565e-09 7.3600477e-09 4.954131e-09
0002a0 8e e5 f8 31 2a 42 98 31 36 ad 1b 31 35 11 b0 31
       7.2438473e-09 4.431304e-09 2.2653928e-09 5.1242304e-09
0002b0 63 94 c8 31 ba a8 b3 31 f9 a2 48 31 25 fb eb 31
       5.8376357e-09 5.2287676e-09 2.919647e-09 6.867952e-09
0002c0 b1 33 a3 31 9c b5 e4 31 7a a1 e8 31 43 0a ee 31
       4.749801e-09 6.65632e-09 6.7704464e-09 6.9278783e-09
0002d0 32 25 a7 32 b5 d9 23 33 6d 22 12 33 c5 74 0d 33
       1.9458273e-08 3.81494e-08 3.4024584e-08 3.2935322e-08
0002e0 c9 54 43 33 46 23 c0 32 62 44 45 33 72 2c 00 33
       4.5479087e-08 2.2367782e-08 4.592983e-08 2.9842745e-08
0002f0 7b dc 42 33 53 85 e2 32 a2 a0 65 32 af f4 02 33
       4.536967e-08 2.6370492e-08 1.3366078e-08 3.0490522e-08
000300 0b a2 1c 33 13 0b 07 33 10 06 a5 32 39 3f 3b 33
       3.6468958e-08 3.144221e-08 1.9211285e-08 4.359683e-08
000310 91 27 f6 32 1c 2f 32 33 f1 39 34 33 1e 16 3b 33
       2.8656162e-08 4.14867e-08 4.1962213e-08 4.3559446e-08
000320 b7 4c 06 33 92 d9 7b 33 ad 64 59 33 4b d7 68 33
       3.1269078e-08 5.863837e-08 5.0615814e-08 5.4212517e-08
000330 aa 43 95 33 73 8e 1c 33 29 cd 96 33 69 3f 52 33
       6.950661e-08 3.6451137e-08 7.022238e-08 4.8952106e-08
000340 8d a2 95 33 66 dd 38 33 60 e1 ba 32 da e0 55 33
       6.967921e-08 4.30422e-08 2.1755739e-08 4.979743e-08
000350 e6 a5 6b 33 eb 71 5d 33 ee 85 e1 32 90 1f 8f 33
       5.4866085e-08 5.155918e-08 2.6254352e-08 6.6646976e-08
000360 96 f4 49 33 50 cd 88 33 a6 67 87 33 42 bb 8e 33
       4.702141e-08 6.3703396e-08 6.305281e-08 6.646452e-08
000370 3d d2 85 31 6a 3e 03 32 04 4b df 31 e6 5e e6 31
       3.8947108e-09 7.639395e-09 6.4986825e-09 6.7046697e-09
000380 aa 17 18 32 76 ac 9c 31 5e 51 1b 32 e2 28 d2 31
       8.852945e-09 4.559804e-09 9.040688e-09 6.1164522e-09
000390 23 42 1b 32 89 96 b6 31 dc 46 3b 31 f6 56 d4 31
       9.037225e-09 5.314011e-09 2.725236e-09 6.1798984e-09
0003a0 e4 4c f7 31 54 3b e0 31 fe b4 64 31 16 74 13 32
       7.1973876e-09 6.526003e-09 3.3281249e-09 8.582921e-09
0003b0 12 b0 d0 31 02 0e 0c 32 af a3 10 32 3a d6 13 32
       6.0736136e-09 8.1522575e-09 8.4191205e-09 8.605236e-09
0003c0 ae d0 3a b3 09 10 b0 b3 80 73 98 b3 f4 9f 9f b3
       -4.3496293e-08 -8.1985554e-08 -7.099061e-08 -7.43311e-08
0003d0 43 fd cf b3 a9 c1 58 b3 90 47 d2 b3 f3 9f 90 b3
       -9.685257e-08 -5.0467552e-08 -9.791904e-08 -6.734617e-08
0003e0 c4 f2 cf b3 02 87 7f b3 4c 83 01 b3 28 c1 93 b3
       -9.6833475e-08 -5.9494603e-08 -3.0154567e-08 -6.880356e-08
0003f0 dc cb a4 b3 b6 5d 98 b3 dd 5d 21 b3 5b dd c6 b3
       -7.673927e-08 -7.0950975e-08 -3.7571102e-08 -9.260358e-08

exp_avg_sq f4 [20, 20]
000000 fa 50 25 2f 7e ac 72 30 23 e7 3a 31 9b c1 0c 30
       1.5035431e-10 8.8284213e-10 2.7197948e-09 5.1206833e-10
000010 df f1 4f 31 3d 2a 83 2f 92 a8 58 31 a2 8c ad 2f
       3.0259952e-09 2.3858773e-10 3.1527958e-09 3.1568442e-10
000020 23 cf 5c 31 eb 89 ad 2f ce 08 f7 2e 64 cf db 2f
       3.2131957e-09 3.1566513e-10 1.12338236e-10 3.9983228e-10
000030 1e ad 23 31 b7 9d ad 2f d8 a0 1f 31 64 6e 45 31
       2.3818028e-09 3.158058e-10 2.3228974e-09 2.8730023e-09
000040 68 49 c5 2f 87 eb 5d 31 c0 d8 ce 30 f6 c5 50 31
       3.588625e-10 3.2293614e-09 1.5050077e-09 3.0380511e-09
000050 ba 3d 8b 30 ca 26 c3 31 46 f1 98 32 9d d5 6e 31
       1.0131125e-09 5.6796567e-09 1.7804847e-08 3.4754983e-09
000060 b0 03 ab 32 35 63 dc 30 4a 5c b2 32 fa ca 12 31
       1.9908697e-08 1.6035303e-09 2.0763895e-08 2.1361175e-09
000070 c1 4e b6 32 d6 f0 11 31 e2 34 50 30 a9 5c 39 31
       2.1223402e-08 2.1237176e-09 7.574511e-10 2.6973714e-09
000080 87 5c 85 32 48 4b 13 31 8b ba 81 32 34 46 a2 32
       1.5525314e-08 2.1434108e-09 1.5102406e-08 1.8891207e-08
000090 f5 65 27 31 2b f8 b6 32 58 cf 29 32 49 be ab 32
       2.4359654e-09 2.1300442e-08 9.884239e-09 1.9993552e-08
0000a0 2d 46 a7 2f de 25 ed 30 88 1b b9 31 d6 84 8e 30
       3.0426986e-10 1.7254782e-09 5.3873386e-09 1.0369614e-09
0000b0 2b 7c ce 31 f3 9c 04 30 be 4d d7 31 f0 a2 2f 30
       6.0095053e-09 4.824436e-10 6.266162e-09 6.389618e-10
0000c0 f1 9f db 31 cf 80 2f 30 4a 1f 7a 2f 93 86 5e 30
       6.391922e-09 6.3847677e-10 2.2748484e-10 8.095437e-10
0000d0 a7 ac a1 31 93 e5 2f 30 1b 84 9d 31 45 d3 c3 31
       4.705345e-09 6.3990874e-10 4.58432e-09 5.6992655e-09
0000e0 6d b5 47 30 54 ab dc 31 84 68 4c 31 59 4b cf 31
       7.26536e-10 6.4223205e-09 2.9745317e-09 6.033059e-09
0000f0 f6 17 28 30 98 9e 67 31 37 63 34 32 83 48 0f 31
       6.1152094e-10 3.3705074e-09 1.0499938e-08 2.0850457e-09
000100 52 93 49 32 bb 66 85 30 ca 59 52 32 51 9f b0 30
       1.1733237e-08 9.706221e-10 1.22440245e-08 1.2850966e-09
000110 c5 b4 56 32 f6 7f b0 30 2f 8d fb 2f 53 cb df 30
       1.2497542e-08 1.2842054e-09 4.575695e-10 1.6283174e-09
000120 1e 3a 1d 32 f6 e5 b0 30 cc 0d 19 32 d8 00 3f 32
       9.151817e-09 1.2871044e-09 8.908909e-09 1.1117855e-08
000130 69 e5 c8 30 0f b9 57 32 0a 06 c7 31 32 64 4a 32
       1.4617118e-09 1.25567245e-08 5.792349e-09 1.1780729e-08
000140 56 69 3e 2e 1c f1 8b 2f 0f 5d 60 30 03 a4 23 2f
       4.3294555e-11 2.545527e-10 8.162297e-10 1.4883032e-10
000150 64 6a 7a 30 49 ba 95 2e 7d 58 82 30 1c 8a c8 2e
       9.110066e-10 6.8088264e-11 9.483895e-10 9.11948e-11
000160 99 2c 85 30 43 bf c6 2e ef bc 0d 2e 2a 9a fc 2e
       9.689699e-10 9.0379725e-11 3.2227495e-11 1.1487018e-10
000170 e5 04 44 30 f7 41 c9 2e 47 09 3f 30 2e 06 6e 30
       7.131134e-10 9.1521395e-11 6.949858e-10 8.659268e-10
000180 c8 70 e4 2e 61 91 85 30 3f d2 f9 2f 08 5f 7b 30
       1.03882736e-10 9.718343e-10 4.5442225e-10 9.1448316e-10
000190 c9 8e 19 2f 96 7b 5d 30 ce a9 2f 31 63 88 03 30
       1.3965996e-10 8.057496e-10 2.5562374e-09 4.785134e-10
0001a0 3e 19 44 31 fd 51 72 2f 4e 4d 4c 31 0e 8d a1 2f
       2.8536102e-09 2.20389e-10 2.972985e-09 2.9385955e-10
0001b0 2b a4 50 31 e2 a1 a0 2f 46 11 e5 2e 5e fc cb 2f
       3.0361302e-09 2.9218855e-10 1.0416783e-10 3.7104803e-10
0001c0 60 62 19 31 2c 03 a2 2f 6c 71 15 31 8a 30 3a 31
       2.232035e-09 2.9469882e-10 2.1746827e-09 2.7094154e-09
0001d0 5e e6 b7 2f 1f 65 51 31 2e 11 c3 30 15 da 44 31
       3.3451192e-10 3.0470984e-09 1.4193e-09 2.864572e-09
0001e0 cb 62 2b 30 67 a1 80 31 4c 39 47 32 8c 3e 12 31
       6.234983e-10 3.7436396e-09 1.1596352e-08 2.128135e-09
0001f0 8c 84 5d 32 27 a2 87 30 a7 9e 66 32 54 04 b4 30
       1.2894031e-08 9.868629e-10 1.3423835e-08 1.3097954e-09
000200 d0 11 6b 32 ef 9d b3 30 a9 ba ff 2f cb a5 e3 30
       1.368285e-08 1.3068852e-09 4.651686e-10 1.6563545e-09
000210 51 9e 2e 32 7e 2d b4 30 cb 64 2a 32 c5 84 52 32
       1.016413e-08 1.3109653e-09 9.91822e-09 1.2253797e-08
000220 cd b3 cc 30 34 25 6c 32 c7 f7 dc 31 05 61 5e 32
       1.4894056e-09 1.3745467e-08 6.4310117e-09 1.294416e-08
000230 9f 55 cd 2d 00 d0 20 2f fc 83 f2 2f 77 7e ae 2e
       2.3343825e-11 1.4625812e-10 4.4113324e-10 7.9350686e-11
000240 50 30 06 30 e4 21 23 2e d9 97 0b 30 30 5e 57 2e
       4.881757e-10 3.709201e-11 5.0783694e-10 4.8968996e-11
000250 7c f9 0d 30 e4 b1 57 2e 50 34 99 2d ce 53 88 2e
       5.165004e-10 4.904334e-11 1.7417318e-11 6.199451e-11
000260 d3 8b d5 2f b3 03 57 2e f3 b3 d0 2f 60 6a ff 2f
       3.8843825e-10 4.8888626e-11 3.796284e-10 4.6459814e-10
000270 d5 c2 74 2e 05 c9 0e 30 3c 1e 86 2f 0d bf 06 30
       5.5652222e-11 5.1944965e-10 2.439594e-10 4.9020416e-10
000280 07 5b cd 2c 22 fd 19 2e 02 8a df 2e c8 0c ac 2d
       5.8365565e-12 3.5013e-11 1.0165381e-10 1.9559812e-11
000290 18 2c f7 2e 4f e4 24 2d 64 db 00 2f 7a 28 56 2d
       1.1240092e-10 9.373015e-12 1.1719475e-10 1.2173479e-11
0002a0 cf b6 02 2f eb 3a 59 2d 0b 1e 9a 2c 06 d9 88 2d
       1.1888378e-10 1.2348104e-11 4.3802787e-12 1.5557788e-11
0002b0 9f ad c4 2e 94 10 55 2d 28 3a c0 2e 6f 3c ea 2e
       8.9438894e-11 1.2111329e-11 8.74148e-11 1.0651823e-10
0002c0 e9 2d 72 2d 5e d2 03 2f f5 3f 76 2e 69 1f f8 2e
       1.37663015e-11 1.1989118e-10 5.599073e-11 1.1283314e-10
0002d0 33 e7 6a 2f 7c ce aa 30 c8 f9 82 31 f0 3b 48 30
       2.1364314e-10 1.2427814e-09 3.811895e-09 7.284475e-10
0002e0 35 e1 91 31 2d 92 ba 2f a7 11 98 31 4f e9 f6 2f
       4.2456585e-09 3.3937067e-10 4.425789e-09 4.4912915e-10
0002f0 ed 16 9b 31 3b c3 f6 2f 4a cc 2f 2f a2 65 1c 30
       4.5137e-09 4.488586e-10 1.5988735e-10 5.68969e-10
000300 6b 3e 65 31 51 3e f7 2f 40 5d 5f 31 bc 71 8a 31
       3.3359366e-09 4.4973317e-10 3.2503777e-09 4.0292587e-09
000310 74 7b 0c 30 ed d7 9b 31 9d 60 11 31 55 79 92 31
       5.110714e-10 4.5356416e-09 2.1155195e-09 4.262953e-09
000320 fe d1 1b 30 5e 67 49 31 6f 19 1c 32 3c 17 05 31
       5.668709e-10 2.9308107e-09 9.086178e-09 1.9367254e-09
000330 88 25 2f 32 88 c7 77 30 10 18 37 32 88 14 a4 30
       1.0194874e-08 9.014163e-10 1.0657473e-08 1.1938406e-09
000340 39 2c 3b 32 95 d5 a3 30 b9 9a e9 2f ef d2 cf 30
       1.0894888e-08 1.1920515e-09 4.249239e-10 1.5121183e-09
000350 2a 6f 07 32 cc 70 a4 30 1e 92 03 32 9f ac 25 32
       7.88331e-09 1.1964629e-09 7.658427e-09 9.6435135e-09
000360 34 e3 ba 30 b3 08 3c 32 d4 a2 ab 31 1b ec 2f 32
       1.3597856e-09 1.0945018e-08 4.9952664e-09 1.0240025e-08
000370 72 9a dd 2c 85 95 34 2e 9f ef 03 2f 06 7f ba 2d
       6.2983447e-12 4.106006e-11 1.1999511e-10 2.1202162e-11
000380 c2 3e 11 2f c8 13 31 2d f2 04 17 2f fd 5d 67 2d
       1.3209969e-10 1.00656775e-11 1.3735127e-10 1.3151699e-11
000390 f3 16 19 2f c3 a3 69 2d 5d 8d a5 2c 90 29 93 2d
       1.3923422e-10 1.3280879e-11 4.7052765e-12 1.6730423e-11
0003a0 01 5e e9 2e 61 22 66 2d e4 95 e4 2e c2 38 0a 2f
       1.0612312e-10 1.308162e-11 1.03948655e-10 1.2571191e-10
0003b0 03 00 83 2d ff 42 1a 2f 7f 85 91 2e be d1 11 2f
       1.4892981e-11 1.403002e-10 6.61755e-11 1.3262189e-10
0003c0 5e a4 9f 30 93 8e d2 31 50 75 a4 32 b4 9d 88 31
       1.1615489e-09 6.128013e-09 1.914546e-08 3.9760497e-09
0003d0 99 7e b8 32 eb 53 fd 30 b9 bf c0 32 5e 33 28 31
       2.147799e-08 1.8432024e-09 2.2438927e-08 2.4476416e-09
0003e0 04 1f c5 32 78 a0 27 31 57 37 6f 30 3f dd 54 31
       2.2947923e-08 2.4392914e-09 8.7026336e-10 3.0975824e-09
0003f0 1a cd 8e 32 72 bf 28 31 36 bd 8a 32 17 a1 ae 32
       1.6624245e-08 2.4556042e-09 1.6151358e-08 2.0329521e-08

exp_avg f4 [20]
000000 c0 2a 61 33 cf e6 0a b4 76 cf 9a 33 47 97 db 33
       5.2425776e-08 -1.2936219e-07 7.208921e-08 1.02254994e-07
000010 28 5a cb b2 0e 01 42 b3 63 89 e2 33 5c 66 c8 32
       -2.3673309e-08 -4.5170104e-08 1.05489356e-07 2.3329612e-08
000020 e7 74 2e 32 45 b8 86 33 f3 af d1 33 da 6e 55 32
       1.01547135e-08 6.27338e-08 9.764326e-08 1.24234365e-08
000030 8d c9 11 b4 ac c2 01 b4 56 23 e9 33 ee f4 12 b4
       -1.3577501e-07 -1.2084882e-07 1.08563356e-07 -1.3686414e-07
000040 14 91 f7 b3 20 73 9c 32 c2 81 2d b3 7b d6 f5 33
       -1.1528223e-07 1.8213143e-08 -4.0397715e-08 1.1447715e-07

exp_avg_sq f4 [20]
000000 a0 0a 9b 31 78 e1 00 33 15 ff 1a 32 7c 3b 98 32
       4.5123016e-09 3.0007385e-08 9.021979e-09 1.772218e-08
000010 37 c2 ba 30 af cb 92 31 79 77 a4 32 ea 50 45 30
       1.358848e-09 4.2723154e-09 1.9146443e-08 7.178317e-10
000020 3c 6e 37 2f a0 42 da 31 16 18 86 32 cc a7 53 2f
       1.6682916e-10 6.3522094e-09 1.5610606e-08 1.9249952e-10
000030 1c c8 0c 33 4f ab f2 32 9e 8e a5 32 8a 8b 13 33
       3.277829e-08 2.825041e-08 1.9273383e-08 3.4353015e-08
000040 78 60 d4 32 f1 da e2 2f e8 50 67 31 36 1e c4 32
       2.4723917e-08 4.1264728e-10 3.3660914e-09 2.2831141e-08

exp_avg f4 [1, 20]
000000 24 2a d5 35 3c fa c8 35 54 24 21 36 2d 01 fb 35
       1.5882001e-06 1.4973989e-06 2.4012015e-06 1.87013e-06
000010 a5 71 9d 35 64 e9 a6 35 56 7a f7 35 f6 8b b8 35
       1.1730486e-06 1.2435889e-06 1.8438539e-06 1.3749802e-06
000020 4d 1e a5 35 12 b8 db 35 20 47 9a 35 2e c7 b1 35
       1.2302277e-06 1.6370343e-06 1.1494594e-06 1.3245497e-06
000030 d0 cf fd 35 d4 e8 b2 35 d6 da 04 36 23 a4 c7 35
       1.891045e-06 1.3329795e-06 1.9796912e-06 1.4874425e-06
000040 c0 85 be 35 e3 be c6 35 75 1d b3 35 51 71 bd 35
       1.419503e-06 1.4807705e-06 1.3345112e-06 1.4114577e-06

exp_avg_sq f4 [1, 20]
000000 36 bf a0 36 87 d4 74 36 3a aa 29 37 77 55 d9 36
       4.7906315e-06 3.648254e-06 1.0112819e-05 6.4770534e-06
000010 e3 4e 64 36 e8 69 63 36 39 54 a9 36 e5 fe 84 36
       3.4020566e-06 3.3887281e-06 5.0463973e-06 3.96358e-06
000020 59 cd 30 36 51 10 83 36 80 17 0f 36 50 9e 5f 36
       2.6345572e-06 3.9060037e-06 2.132234e-06 3.332174e-06
000030 a4 f6 e7 36 10 b9 7f 36 41 e4 f6 36 8d 23 77 36
       6.913049e-06 3.8105682e-06 7.3579436e-06 3.6826561e-06
000040 29 a4 6c 36 69 6a 84 36 d0 d7 4d 36 dc 21 62 36
       3.5262294e-06 3.9462943e-06 3.0673e-06 3.3696333e-06
