model_D_EX6_norm.pth (torch, 12335 bytes, 15 tensors)

weight f4 [20, 2]
0	0xbf079f39	-0.5297733
1	0x3e638e8b	0.22222345
2	0x3dc63203	0.09677508
3	0xbe37f035	-0.17962725
4	0xbed24b5c	-0.4107312
5	0x3e6c23ae	0.23060486
6	0xbdbc9418	-0.09207934
7	0x3e2a76ee	0.1664693
8	0xbe8755d4	-0.2643267
9	0x3e42f35d	0.19038148
10	0xbecc60cb	-0.39917597
11	0xbd964da7	-0.0733903
12	0xbef20e96	-0.47276753
13	0x3e62010a	0.22070709
14	0x3ec39953	0.38202915
15	0x3e1c4fa9	0.15264763
16	0xbed8fc3a	-0.42379934
17	0xbe016da7	-0.12639485
18	0x3e75b6c9	0.23995508
19	0x3dfd1684	0.1235781
20	0xbf07f446	-0.53107107
21	0x3e86dcc6	0.26340312
22	0xbcfc321f	-0.030785618
23	0xbe511503	-0.20418172
24	0xbec35c5b	-0.381564
25	0x3e4e8d99	0.20171203
26	0x3e94cdcf	0.2906327
27	0xbe800035	-0.25000158
28	0xbe69a603	-0.22817235
29	0x3dd09ffe	0.10186766
30	0xbe5ce555	-0.21571858
31	0xbdfdaa15	-0.12385956
32	0x3c17ed20	0.009272844
33	0x3e26ebd6	0.16300902
34	0xbe3a17c8	-0.18173134
35	0xbe2326c1	-0.15932752
36	0x3e84fc73	0.25973853
37	0x3e09eda3	0.13469557
38	0xbd475621	-0.048666123
39	0xbe473e7d	-0.19457431

bias f4 [20]
0	0x3d879c48	0.06621605
1	0x3ee873e8	0.4540093
2	0xbf97d09b	-1.1860536
3	0x3e333aa6	0.17502841
4	0x3d27bbc1	0.04095054
5	0xbeaccf4c	-0.33751905
6	0x3e82a67c	0.25517642
7	0xbf76fa1a	-0.96475375
8	0x3f15716c	0.58376193
9	0xbdc406b4	-0.09571591
10	0xbf221cb9	-0.6332508
11	0x3f9aae7a	1.2084496
12	0xbef19b84	-0.47188962
13	0x3f95c2e8	1.1700106
14	0x3eb12bea	0.34603816
15	0x3df6da26	0.12053327
16	0x3bd27549	0.006422673
17	0x3f2446ad	0.6417034
18	0xbf052c90	-0.5202112
19	0x3f7af73e	0.9803351

weight f4 [20, 20]
0	0xbe758a6d	-0.23978586
1	0x3e5b013e	0.21387193
2	0x3dc77cf5	0.097406305
3	0x3ca6511f	0.020302353
4	0x3e0575bf	0.13033198
5	0x3e3d58d3	0.18490915
6	0xbd54ee93	-0.051985335
7	0xbe0cab67	-0.1373726
8	0x3d95d094	0.07315174
9	0x3da41419	0.08011646
10	0x3da96e20	0.08272958
11	0x3d11ed43	0.03562666
12	0xbe6d8b46	-0.2319766
13	0x3dda4998	0.10658568
14	0xbe313df3	-0.17308788
15	0x3e828f9d	0.25500193
16	0xbc177ece	-0.009246541
17	0x3ecb5689	0.3971446
18	0x3dfcaa21	0.12337137
19	0x3e1a3918	0.15060842
20	0xbce57876	-0.028011542
21	0xbdd181d3	-0.1022984
22	0x3ade851b	0.0016976924
23	0x3e4e80e3	0.20166354
24	0xbd403358	-0.046923965
25	0xbe6b893c	-0.2300157
26	0x3e2f4f02	0.17119983
27	0x3e5cd655	0.21566136
28	0xbe7e7620	-0.24849749
29	0x3dad4606	0.084606215
30	0x3ea6935b	0.32534298
31	0xbe1806c3	-0.1484633
32	0x3e1f2b05	0.15543754
33	0x3d231b74	0.039821103
34	0x3e29da0d	0.16587086
35	0xbeb219a2	-0.3478518
36	0x3de1e357	0.1102969
37	0xbd80908e	-0.062775716
38	0xbd9d5667	-0.076824956
39	0xbeca6671	-0.39531282
40	0x3ea1833c	0.31545436
41	0xbe42b355	-0.19013722
42	0x3ddd439c	0.10803911
43	0xbdc1cc24	-0.09462765
44	0x3db27f8c	0.08715734
45	0xbeabc4f1	-0.33548692
46	0x3e84ab64	0.2591201
47	0x3cc9f5c6	0.024653327
48	0xbe929f29	-0.28637055
49	0xbcaa5abc	-0.020795219
50	0x3e5bc9e9	0.21463741
51	0xbe8e3929	-0.27777985
52	0x3e179704	0.14803702
53	0xbeb40690	-0.35161257
54	0xbda72a85	-0.08162407
55	0xbe981a87	-0.2970774
56	0x3d21e729	0.039527092
57	0xbea8a172	-0.32935673
58	0xbd83221b	-0.064029895
59	0xbe221f13	-0.15832166
60	0x3e86e05f	0.26343057
61	0xbd8c9e2a	-0.06866105
62	0x3e2fb8bf	0.17160319
63	0x3e8b1ff2	0.2717281
64	0x3e476103	0.19470601
65	0xbebede4f	-0.37278983
66	0x3e5466b3	0.20742302
67	0xbc93516c	-0.01798316
68	0xbeae964d	-0.34099045
69	0x3e548702	0.20754626
70	0x3dcdca0a	0.100483015
71	0xbca238c0	-0.019802451
72	0x3c3b9a28	0.011450328
73	0xbe8b1c3e	-0.27169985
74	0x3d80e3ba	0.062934354
75	0xbe82215f	-0.25416085
76	0x3ccc5ef7	0.024947627
77	0xbea91046	-0.33020228
78	0x3dad91fd	0.08475111
79	0xbeac8c62	-0.33700854
80	0xbccf8c39	-0.025335418
81	0x3eba2806	0.3635866
82	0xbe8eefcb	-0.27917323
83	0x3c9bded0	0.019027144
84	0xbe989e1d	-0.2980813
85	0x3ea08783	0.31353387
86	0x3d4c2ca6	0.049847268
87	0x3d26a7a2	0.04068721
88	0x3eb8e773	0.36114082
89	0xbda00ba2	-0.07814719
90	0xbdffac55	-0.124840416
91	0x3d64921e	0.05580341
92	0xbea619e9	-0.32441643
93	0x3e602768	0.21890032
94	0x3d34280d	0.043983508
95	0x3df9e538	0.12201923
96	0xbe747a8b	-0.23874871
97	0x3d4178f6	0.047234498
98	0xbe3bac49	-0.1832744
99	0x3e42f634	0.19039232
100	0xbe3ff8e9	-0.18747295
101	0x3e4048f0	0.18777823
102	0x3c8cef8f	0.017204074
103	0x3e22cfcb	0.15899579
104	0xbdd7240d	-0.10504923
105	0x3e74d254	0.23908359
106	0xbe978d57	-0.2960002
107	0xbe460363	-0.1933723
108	0x3e9d1aeb	0.306846
109	0xbe0a400a	-0.13500991
110	0xbe4c758e	-0.19966719
111	0x3b02c638	0.0019954573
112	0xbe870c92	-0.26376778
113	0x3e5a34e9	0.21309246
114	0x3ddb9256	0.10721271
115	0x3e485f92	0.19567707
116	0xbe01e75d	-0.12685914
117	0x3e0f42b2	0.13990286
118	0xbd449591	-0.0479942
119	0x3ca59ea6	0.020217251
120	0x3ea5c991	0.32380345
121	0xbe9ad5a4	-0.3024112
122	0x3e600a6b	0.21878974
123	0x3d11cfb7	0.035598483
124	0x3e49d838	0.19711387
125	0xbe32452b	-0.17409198
126	0x3c9837ac	0.018581234
127	0x3d94173a	0.072309926
128	0xbd957444	-0.072975665
129	0x3cfa40d1	0.030548485
130	0xbd544041	-0.05181909
131	0x3c82e45c	0.01597803
132	0x3ca1c18d	0.019745613
133	0x3db7cd31	0.08974684
134	0xbdc77704	-0.09739497
135	0xbd8f0a3f	-0.06984376
136	0x3e663c60	0.22483969
137	0xbce200af	-0.027588217
138	0xbc2b72c2	-0.010464372
139	0xbe5e8435	-0.2173012
140	0x3cfdadb4	0.030966617
141	0x3d2f306f	0.0427708
142	0xbe2b5d11	-0.16734721
143	0xbe34051c	-0.17580074
144	0xbe8f88c1	-0.28034022
145	0x3e77d36a	0.24201742
146	0x3caad64c	0.020854138
147	0xbe13c0b7	-0.14428984
148	0x3e8283ba	0.25491124
149	0xbdfe89d8	-0.12428635
150	0xbe3c295b	-0.18375151
151	0x3d92ef29	0.071745224
152	0xbd91a907	-0.071123175
153	0x3d410529	0.04712406
154	0xbe497c54	-0.19676334
155	0x3e7e647e	0.24843022
156	0xbe5b3ab9	-0.2140912
157	0x3deaa793	0.114577435
158	0xbe8a3836	-0.2699601
159	0x3e6512e1	0.22370483
160	0x3e7af65d	0.24508043
161	0xbe7c5fb7	-0.24645887
162	0x3dee0c92	0.11623491
163	0xbd8cf092	-0.06881823
164	0x3d341c29	0.043972168
165	0xbe8b6aec	-0.27230012
166	0xbdae375b	-0.08506652
167	0x3d382ba7	0.044963505
168	0xbea1c7c7	-0.3159773
169	0x3d74717d	0.059678543
170	0x3e5938ec	0.2121312
171	0xbe9180fa	-0.28418714
172	0x3e45cbe0	0.19316053
173	0xbd423dda	-0.047422267
174	0x3cdb8e47	0.026801242
175	0xbccf84ab	-0.025331816
176	0x3e6388ff	0.22220229
177	0xbe8e5fbb	-0.27807412
178	0x3bda5be5	0.0066637867
179	0xbe2db660	-0.16964102
180	0x3ddbb121	0.10727144
181	0xbe981dea	-0.29710323
182	0x3e2435b5	0.16036113
183	0x3e8ab6e4	0.2709266
184	0x3de89777	0.113570146
185	0xbe7ad3fa	-0.24494925
186	0x3e94a50d	0.29032174
187	0x3de08724	0.10963276
188	0xbe975d0c	-0.29563177
189	0x3e30e244	0.17273813
190	0x3d0e2cb3	0.034710597
191	0xbea2bd01	-0.31784824
192	0xbd968f57	-0.07351559
193	0x3d933d32	0.071894065
194	0xbdd5fb08	-0.10448271
195	0xbe36d837	-0.17855917
196	0x3e12d8b9	0.14340486
197	0xbcee3c11	-0.029081376
198	0x3e568a5c	0.20951217
199	0xbe359ab6	-0.17734799
200	0xbb0d25d6	-0.0021537445
201	0x3e0bba73	0.13645343
202	0xbebca82c	-0.36847055
203	0xbd068dc5	-0.032850046
204	0xbdff9c43	-0.124809764
205	0x3e92c637	0.2866685
206	0xbdcb429c	-0.09924814
207	0xbe00c0c3	-0.12573533
208	0x3ea223f6	0.3166806
209	0xbad8a36a	-0.0016528193
210	0xbe52f085	-0.20599563
211	0x3e9a7058	0.30163836
212	0xbe09f98b	-0.134741
213	0x3ea812c3	0.32826814
214	0xbc72cc73	-0.014819252
215	0x3bd29368	0.0064262636
216	0x3d98f6f8	0.074689806
217	0x3e958878	0.2920568
218	0x3cf39975	0.02973626
219	0x3e838a0e	0.25691265
220	0x3dcccd47	0.10000091
221	0x3dfac1f5	0.122440256
222	0x3d4461c5	0.047944803
223	0x3b18c44b	0.002331036
224	0xbd70102c	-0.058609173
225	0x3e8a2a6e	0.26985496
226	0xbda2e922	-0.07954623
227	0xbe95934b	-0.29213938
228	0x3e7f609e	0.249392
229	0xbd1569dc	-0.03647791
230	0xbe4bfb03	-0.19919972
231	0x3e3f0ab5	0.18656428
232	0xbe99c1d1	-0.30030683
233	0xbd818d49	-0.06325776
234	0xbe8d1d6b	-0.27561507
235	0x3c62abf2	0.01383494
236	0xbe47debc	-0.1951856
237	0x3e3bc099	0.18335189
238	0x3d9f73a6	0.0778573
239	0x3dcbb8de	0.0994737
240	0xbe5f4681	-0.21804239
241	0x3e842f40	0.258173
242	0xbe65a27e	-0.22425267
243	0xbe2a0524	-0.16603523
244	0x3dac6b3a	0.08418889
245	0x3e93298d	0.28742638
246	0xbe09dec9	-0.13463892
247	0xbe8dffb7	-0.27734157
248	0x3e2392e2	0.15974
249	0x3e0a9d31	0.13536526
250	0xbe438763	-0.19094615
251	0x3da2b5b0	0.079448104
252	0xbda87976	-0.08226292
253	0xbda35376	-0.07974903
254	0x3deb166b	0.11478885
255	0x3e11556d	0.14192744

bias f4 [20]
0	0x3d74ab19	0.059733484
1	0xbc8861d1	-0.016648205
2	0x3e193650	0.14962125
3	0xbd988b1f	-0.0744841
4	0x3da5fa5e	0.081043944
5	0xbdf10c51	-0.11769927
6	0xbca68772	-0.020328257
7	0xbdbec218	-0.09314364
8	0x3c4fb4a4	0.012677345
9	0xbe073e01	-0.13207246
10	0x3e09cedf	0.13457821
11	0x3e10e5c2	0.14150146
12	0xbbacd343	-0.005274208
13	0x3d35c3df	0.04437625
14	0x3e6459ae	0.22299835
15	0xbdd73483	-0.10508063
16	0x3cfb03fb	0.030641546
17	0x3e49c503	0.1970406
18	0x3cabce28	0.020972326
19	0xbdba6801	-0.091018684

weight f4 [1, 20]
0	0xbc6d1aea	-0.014471749
1	0x3e195c7e	0.14976689
2	0x3eaec715	0.34136263
3	0x3e2f267d	0.17104526
4	0xbdac482a	-0.08412202
5	0xbe5779f5	-0.21042617
6	0x3e6855d2	0.22688988
7	0xbd9fdc80	-0.07805729
8	0x3e6313ca	0.22175518
9	0x3e824f06	0.25450915
10	0xbda5a4c0	-0.08088064
11	0xbe49db38	-0.19712532
12	0xbdd7cb98	-0.10536879
13	0xbe11e88f	-0.1424887
14	0xbe74ba18	-0.23899114
15	0x3dd1a840	0.10237169
16	0xbd8ec1db	-0.06970569
17	0x3e2d3922	0.16916326
18	0x3ea51041	0.32238963
19	0x3ea9227f	0.3303413

exp_avg f4 [20, 2]
0	0xb7b169a9	-2.1149246e-05
1	0xb7afa5c8	-2.0938824e-05
2	0x374dd70e	1.22690235e-05
3	0x37da6d5a	2.6038546e-05
4	0xb7b87df3	-2.1993159e-05
5	0xb6c9a2b4	-6.009208e-06
6	0x35b9b44b	1.3836046e-06
7	0xb75958a5	-1.2954847e-05
8	0xb6ba7d58	-5.557824e-06
9	0xb78fc638	-1.7139231e-05
10	0xb6cb5467	-6.059697e-06
11	0x3844c280	4.6911184e-05
12	0xb73437dc	-1.0741842e-05
13	0xb7d5705c	-2.54439e-05
14	0x354e9524	7.695801e-07
15	0xb7da03b0	-2.5989342e-05
16	0xb7033295	-7.8199855e-06
17	0x385253d8	5.0145987e-05
18	0x362d77d8	2.5848767e-06
19	0xb7585fe0	-1.2896926e-05
20	0xb7f55942	-2.924784e-05
21	0x384c7662	4.8747643e-05
22	0x37d1f080	2.5026733e-05
23	0x37f7516c	2.948261e-05
24	0xb78b899c	-1.663417e-05
25	0xb7471c92	-1.1867976e-05
26	0x37de2f7e	2.6486578e-05
27	0xb81d688d	-3.7529087e-05
28	0xb4638d48	-2.119242e-07
29	0xb6eedca8	-7.1186405e-06
30	0xb66a8c18	-3.4950262e-06
31	0x3815c2fe	3.570597e-05
32	0x3632d84f	2.6649975e-06
33	0xb774e3f2	-1.4596606e-05
34	0x3690dc90	4.3172113e-06
35	0x3815411d	3.558501e-05
36	0x3534ba64	6.732646e-07
37	0xb77ddb95	-1.5131101e-05
38	0x3786d0c7	1.6071264e-05
39	0x379bbcfe	1.8565446e-05

exp_avg_sq f4 [20, 2]
0	0x34346fc4	1.6804466e-07
1	0x344984a8	1.8767844e-07
2	0x330d1cd0	3.2855326e-08
3	0x34353167	1.6874911e-07
4	0x32745b4c	1.4223428e-08
5	0x33b18a3a	8.267348e-08
6	0x31c83876	5.827185e-09
7	0x322d3e98	1.00841575e-08
8	0x3300f91f	3.0028897e-08
9	0x32fbd220	2.93158e-08
10	0x340873a1	1.2708053e-07
11	0x3437391e	1.7063982e-07
12	0x33d92e56	1.01132784e-07
13	0x335775a7	5.0165593e-08
14	0x31583ff9	3.1468501e-09
15	0x34ac4325	3.208635e-07
16	0x3449be1c	1.8788745e-07
17	0x34782c24	2.3112858e-07
18	0x318dad4a	4.123341e-09
19	0x34741d78	2.2734991e-07
20	0x328b0ea2	1.6188384e-08
21	0x360d39f8	2.104438e-06
22	0x339d0aac	7.3128234e-08
23	0x342c1930	1.6027911e-07
24	0x330fda13	3.349312e-08
25	0x3355aa74	4.9747953e-08
26	0x3214818d	8.64419e-09
27	0x359fb2d8	1.1898474e-06
28	0x32b756ac	2.1343418e-08
29	0x35b7dfd7	1.3699708e-06
30	0x32f4d7fe	2.850356e-08
31	0x33a82571	7.82992e-08
32	0x31f77aa5	7.202589e-09
33	0x34e8d128	4.336555e-07
34	0x3384b7af	6.180141e-08
35	0x33d850b2	1.0072962e-07
36	0x320250f3	7.585402e-09
37	0x32851810	1.549418e-08
38	0x32b739e7	2.1330335e-08
39	0x34f28e3a	4.5179496e-07

exp_avg f4 [20]
0	0xb78475bf	-1.5790456e-05
1	0x36b8cdae	5.5075716e-06
2	0xb526d644	-6.2151616e-07
3	0xb60f4be5	-2.1352837e-06
4	0xb6bed086	-5.6867166e-06
5	0x36ad0b56	5.1571214e-06
6	0xb74fff72	-1.2397637e-05
7	0x362532ac	2.461641e-06
8	0xb68aa33e	-4.1317244e-06
9	0xb4ca5120	-3.7684458e-07
10	0xb713e7df	-8.8158695e-06
11	0xb5e7598c	-1.7236903e-06
12	0xb6d43c64	-6.3251227e-06
13	0xb6115770	-2.165758e-06
14	0xb5362cf2	-6.786569e-07
15	0x35a60bec	1.2371434e-06
16	0xb6094708	-2.0455936e-06
17	0xb52e2d70	-6.488617e-07
18	0x34badc98	3.4805703e-07
19	0xb4d02a90	-3.8773987e-07

exp_avg_sq f4 [20]
0	0x34374c3b	1.7070936e-07
1	0x33203b8c	3.730706e-08
2	0x32a9ee2b	1.9782496e-08
3	0x31cce289	5.9629355e-09
4	0x33011dd3	3.0062278e-08
5	0x342702bf	1.5554086e-07
6	0x33d2f947	9.82423e-08
7	0x31547101	3.0914296e-09
8	0x34608151	2.090867e-07
9	0x319c9c10	4.55794e-09
10	0x32ecd1a2	2.7569346e-08
11	0x33afdcbb	8.189223e-08
12	0x331c8682	3.6443915e-08
13	0x328d0844	1.641832e-08
14	0x32a86a0e	1.9606002e-08
15	0x330ef9f8	3.3289297e-08
16	0x32009575	7.484563e-09
17	0x3391fb59	6.7978085e-08
18	0x3210f923	8.43855e-09
19	0x32ebe17d	2.746014e-08

exp_avg f4 [20, 20]
0	0x359e4763	1.1792694e-06
1	0x3438eba2	1.7222058e-07
2	0x3579c5aa	9.304737e-07
3	0x35a7e680	1.2509554e-06
4	0x35a60130	1.2368309e-06
5	0x3480d974	2.4000076e-07
6	0x35abba1e	1.279466e-06
7	0x359dd16d	1.1758362e-06
8	0x346b5005	2.1915191e-07
9	0x359a3fce	1.1492464e-06
10	0x357c43e6	9.397612e-07
11	0x3433fba4	1.676222e-07
12	0x358e072e	1.0581914e-06
13	0x34a5a294	3.0851936e-07
14	0x35974a0a	1.1271925e-06
15	0x344d3e6a	1.9114819e-07
16	0x35a4413c	1.2237938e-06
17	0x3430f7aa	1.6481377e-07
18	0x359958cc	1.1425232e-06
19	0x342c5255	1.60487e-07
20	0xb720e9e6	-9.591202e-06
21	0xb5ed3f3d	-1.7676281e-06
22	0xb6e2a7c4	-6.7548553e-06
23	0xb72a20b6	-1.0140406e-05
24	0xb729146e	-1.0077942e-05
25	0xb62ab62e	-2.5438017e-06
26	0xb732cbc6	-1.06570715e-05
27	0xb7186092	-9.0823905e-06
28	0xb6274355	-2.4924132e-06
29	0xb715bb74	-8.924737e-06
30	0xb6defd7e	-6.645626e-06
31	0xb5fd9f4d	-1.8896332e-06
32	0xb709f7ec	-8.22356e-06
33	0xb66b3f10	-3.5054436e-06
34	0xb71d5eae	-9.379974e-06
35	0xb6093315	-2.0444324e-06
36	0xb723b15a	-9.75685e-06
37	0xb5f6e9f0	-1.8396513e-06
38	0xb714d273	-8.870486e-06
39	0xb5f4b351	-1.8231605e-06
40	0xb7a2e8df	-1.9420344e-05
41	0xb69fe150	-4.764799e-06
42	0xb781df0e	-1.5481866e-05
43	0xb7be7421	-2.2703842e-05
44	0xb7b61ef0	-2.1710497e-05
45	0xb68fd20b	-4.2861843e-06
46	0xb7b6e04a	-2.1800533e-05
47	0xb7c091f8	-2.2956156e-05
48	0xb6813394	-3.850504e-06
49	0xb7b71154	-2.1823369e-05
50	0xb7696df0	-1.3913479e-05
51	0xb6855eae	-3.974731e-06
52	0xb7945dde	-1.7686685e-05
53	0xb70cbcd4	-8.388615e-06
54	0xb7ac941a	-2.0572963e-05
55	0xb683a0bf	-3.9228175e-06
56	0xb7bbd02e	-2.2389078e-05
57	0xb6707148	-3.5828725e-06
58	0xb7b77438	-2.1869419e-05
59	0xb684c590	-3.956906e-06
60	0xb7174dac	-9.018386e-06
61	0xb6269037	-2.4819872e-06
62	0xb6cf37aa	-6.175561e-06
63	0xb72a3a63	-1.0146384e-05
64	0xb7255612	-9.854806e-06
65	0xb631c473	-2.6489404e-06
66	0xb72c3a6a	-1.02655995e-05
67	0xb71dfd5c	-9.416919e-06
68	0xb634a550	-2.6918315e-06
69	0xb71a264f	-9.188035e-06
70	0xb6be0e8d	-5.664135e-06
71	0xb628b3da	-2.5138638e-06
72	0xb7015f4c	-7.711187e-06
73	0xb69c36a2	-4.6555224e-06
74	0xb71e54f8	-9.437317e-06
75	0xb61e8503	-2.3621258e-06
76	0xb7246460	-9.798532e-06
77	0xb6186096	-2.2705985e-06
78	0xb7191fa0	-9.126874e-06
79	0xb623e8c8	-2.442439e-06
80	0x36a2ea48	4.85525e-06
81	0x358c76d3	1.0465395e-06
82	0x366b1762	3.503134e-06
83	0x36b41448	5.366779e-06
84	0x36b01aa0	5.2483083e-06
85	0x35a839a8	1.2533756e-06
86	0x36b7059c	5.454478e-06
87	0x36a949e3	5.045194e-06
88	0x35a04ecf	1.1943865e-06
89	0x36a386ed	4.873486e-06
90	0x365c2232	3.280246e-06
91	0x3587c88c	1.0116651e-06
92	0x368db6c1	4.223403e-06
93	0x3607d823	2.0242376e-06
94	0x36a5c9a2	4.9408563e-06
95	0x358d28c4	1.0517183e-06
96	0x36ae94c2	5.202922e-06
97	0x357f6982	9.5148437e-07
98	0x36a356a8	4.8678667e-06
99	0x3584ce74	9.894852e-07
100	0x3763aa18	1.3569857e-05
101	0x363df9d6	2.8308618e-06
102	0x3716459e	8.956906e-06
103	0x376b1e1f	1.4014105e-05
104	0x376b7b9a	1.403587e-05
105	0x3687c788	4.046542e-06
106	0x377d238a	1.508825e-05
107	0x37474798	1.18779935e-05
108	0x368e9491	4.249225e-06
109	0x37491c2b	1.1987092e-05
110	0x37193d8b	9.13384e-06
111	0x3660f1dc	3.3519382e-06
112	0x373e1ddd	1.1331836e-05
113	0x36b7a5d6	5.473131e-06
114	0x375c070d	1.31146635e-05
115	0x366122e0	3.3547913e-06
116	0x3760147e	1.3356212e-05
117	0x3655cb0c	3.1857662e-06
118	0x3745cf94	1.1790446e-05
119	0x3655fc6e	3.1886407e-06
120	0xb790e3a8	-1.7272148e-05
121	0xb6374355	-2.7308317e-06
122	0xb74d9b04	-1.2255045e-05
123	0xb793f6d4	-1.7638704e-05
124	0xb794b3ca	-1.7726696e-05
125	0xb694beb6	-4.4329454e-06
126	0xb79e962a	-1.8904993e-05
127	0xb78091b4	-1.5326637e-05
128	0xb694c73f	-4.433939e-06
129	0xb780806c	-1.531859e-05
130	0xb754e3b2	-1.2689199e-05
131	0xb655bd57	-3.1849684e-06
132	0xb7784537	-1.4798067e-05
133	0xb6b2493c	-5.313339e-06
134	0xb788678a	-1.6260678e-05
135	0xb66a8300	-3.494497e-06
136	0xb78e203a	-1.6942726e-05
137	0xb653a9f2	-3.1540371e-06
138	0xb77de314	-1.5132846e-05
139	0xb64ab1fa	-3.0203942e-06
140	0x368e89c5	4.2479683e-06
141	0x35555b74	7.9481765e-07
142	0x36273fc2	2.492205e-06
143	0x368b6732	4.1545363e-06
144	0x368f2e14	4.2670963e-06
145	0x35c5309a	1.4691789e-06
146	0x369f7364	4.7520025e-06
147	0x36553760	3.1771706e-06
148	0x35d24d40	1.5668702e-06
149	0x365bbc7c	3.2743255e-06
150	0x362e8c13	2.6009554e-06
151	0x358e9ce2	1.0625483e-06
152	0x3662ad89	3.3777635e-06
153	0x35e70d16	1.721465e-06
154	0x36860cd4	3.9950046e-06
155	0x359a07f6	1.1476211e-06
156	0x3681c084	3.8669114e-06
157	0x358f68a3	1.0684784e-06
158	0x3657a28a	3.2132107e-06
159	0x3587d230	1.0119456e-06
160	0xb7744208	-1.4558907e-05
161	0xb62b4873	-2.5523157e-06
162	0xb7396ae6	-1.10517485e-05
163	0xb7851090	-1.5862548e-05
164	0xb782ac96	-1.5577574e-05
165	0xb65e5dfe	-3.3135289e-06
166	0xb7873656	-1.6118556e-05
167	0xb77c7e59	-1.5049788e-05
168	0xb64a2c62	-3.012618e-06
169	0xb7738a16	-1.4516079e-05
170	0xb7322ab7	-1.0619572e-05
171	0xb61f7264	-2.375943e-06
172	0xb75859d4	-1.2895518e-05
173	0xb6a4b14c	-4.908221e-06
174	0xb7726a11	-1.444902e-05
175	0xb6334ac1	-2.671659e-06
176	0xb781a6ec	-1.5455727e-05
177	0xb61af864	-2.309237e-06
178	0xb7737efe	-1.4513496e-05
179	0xb61bfec3	-2.324509e-06
180	0xb78476f4	-1.5791018e-05
181	0xb6403703	-2.864225e-06
182	0xb739a2ee	-1.1064794e-05
183	0xb78c1fe8	-1.6704158e-05
184	0xb78b57b2	-1.6610928e-05
185	0xb68daa32	-4.221941e-06
186	0xb793806c	-1.7583567e-05
187	0xb77ae372	-1.4954117e-05
188	0xb689ba4f	-4.1046073e-06
189	0xb775d831	-1.4653474e-05
190	0xb7354037	-1.0803392e-05
191	0xb64c454c	-3.0438705e-06
192	0xb762b0b4	-1.3511792e-05
193	0xb6c276db	-5.795487e-06
194	0xb781d4a4	-1.5477017e-05
195	0xb661330d	-3.3557328e-06
196	0xb786aeab	-1.6055381e-05
197	0xb6489bbe	-2.9892976e-06
198	0xb774bc09	-1.4587314e-05
199	0xb645b6ee	-2.9461767e-06
200	0x36a6ab08	4.967096e-06
201	0x353ea72b	7.1023777e-07
202	0x368f3969	4.2684155e-06
203	0x36bed095	5.6867234e-06
204	0x36b81c91	5.486953e-06
205	0x3553b4d3	7.886676e-07
206	0x36b7a220	5.472699e-06
207	0x36c64faf	5.910136e-06
208	0x3509a23f	5.1272576e-07
209	0x36b8ca34	5.507167e-06
210	0x36830e0f	3.905741e-06
211	0x34d51720	3.9691167e-07
212	0x369c1c36	4.6524465e-06
213	0x35b43a02	1.3427928e-06
214	0x36a9bd40	5.058624e-06
215	0x35223cd1	6.04382e-07
216	0x36bd87b6	5.6484378e-06
217	0x34e0c9bc	4.1870032e-07
218	0x36bb265d	5.5775004e-06
219	0x34e3ac80	4.2407555e-07
220	0x376c9646	1.4101684e-05
221	0x360d3e3b	2.104686e-06
222	0x372a8326	1.0163325e-05
223	0x3774aea0	1.4584191e-05
224	0x37751845	1.4608789e-05
225	0x366b5816	3.5069002e-06
226	0x3781f816	1.5493522e-05
227	0x375969b8	1.29588225e-05
228	0x3661eae9	3.3664348e-06
229	0x3756224e	1.2763381e-05
230	0x372c0f7c	1.0255604e-05
231	0x361a8a7f	2.3028404e-06
232	0x374c1f24	1.2166598e-05
233	0x368efe5c	4.261541e-06
234	0x376136d0	1.3423807e-05
235	0x3634d1d5	2.6944228e-06
236	0x376b8f4e	1.4040457e-05
237	0x361cfe90	2.3393986e-06
238	0x3754dd22	1.2687671e-05
239	0x36146816	2.2114305e-06
240	0x36df7ac2	6.660209e-06
241	0x35a8893c	1.2556916e-06
242	0x369aebec	4.6170226e-06
243	0x36eb476a	7.0118595e-06
244	0x36ea3bfb	6.980726e-06
245	0x35f441e0	1.8198589e-06
246	0x36f8a45c	7.41011e-06
247	0x36d07b14	6.2132112e-06
248	0x35f25c5c	1.8057285e-06
249	0x36cd9c97	6.1277055e-06
250	0x3698e82c	4.5569814e-06
251	0x35b7e48f	1.3701082e-06
252	0x36be611a	5.6737454e-06
253	0x362796e5	2.4972771e-06
254	0x36da5606	6.5069207e-06
255	0x35c4dfd9	1.4668286e-06

exp_avg_sq f4 [20, 20]
0	0x3348e287	4.6772154e-08
1	0x317041cc	3.4961998e-09
2	0x334b3256	4.73104e-08
3	0x3340ea6c	4.491669e-08
4	0x333ffd49	4.4701014e-08
5	0x30633a8c	8.266532e-10
6	0x33521a7c	4.8918523e-08
7	0x321df416	9.1941015e-09
8	0x312f0475	2.5468385e-09
9	0x32e33271	2.6449216e-08
10	0x32b54929	2.1104443e-08
11	0x31db195c	6.376622e-09
12	0x334d9bbe	4.787193e-08
13	0x326a54b8	1.36398555e-08
14	0x33036e05	3.0600876e-08
15	0x30e751a1	1.6830662e-09
16	0x32dc5adc	2.5652689e-08
17	0x315d970b	3.224559e-09
18	0x334370ad	4.5504454e-08
19	0x3193810f	4.2929353e-09
20	0x3477a90e	2.306517e-07
21	0x33855fcf	6.2107226e-08
22	0x34997844	2.8585976e-07
23	0x3447f8a7	1.8623778e-07
24	0x345a1b4b	2.0312761e-07
25	0x3285914d	1.5549313e-08
26	0x34722b60	2.2553786e-07
27	0x331bb158	3.6250043e-08
28	0x334ecacd	4.814756e-08
29	0x33d82697	1.0065303e-07
30	0x34086e9c	1.2706226e-07
31	0x3400e4ec	1.200421e-07
32	0x34874faf	2.5203687e-07
33	0x33ccb742	9.532825e-08
34	0x340796cc	1.2627714e-07
35	0x3307f108	3.1651354e-08
36	0x33dbce08	1.0235459e-07
37	0x338256a0	6.069354e-08
38	0x345338eb	1.9671613e-07
39	0x338fe2de	6.700223e-08
40	0x3623fdb1	2.443656e-06
41	0x3508eaa7	5.100541e-07
42	0x36433f42	2.9094085e-06
43	0x3608ef07	2.0404711e-06
44	0x3612ef4d	2.1894987e-06
45	0x3409e67b	1.2842968e-07
46	0x36224de3	2.4185217e-06
47	0x34d33974	3.9343615e-07
48	0x34d5905b	3.9779374e-07
49	0x3595d9d9	1.1164767e-06
50	0x35b058f8	1.3138915e-06
51	0x3584f25d	9.905303e-07
52	0x3630de9c	2.635562e-06
53	0x3568b51b	8.669028e-07
54	0x35b92404	1.3794056e-06
55	0x348beb83	2.6062125e-07
56	0x3597d483	1.1312226e-06
57	0x35067d09	5.010084e-07
58	0x360f8ac4	2.1389433e-06
59	0x3513d483	5.507101e-07
60	0x3490494b	2.6875418e-07
61	0x33cd5efb	9.563333e-08
62	0x34b26be4	3.3233584e-07
63	0x3470a578	2.2411939e-07
64	0x34801514	2.3857194e-07
65	0x32cae602	2.362049e-08
66	0x348e7db3	2.654102e-07
67	0x33482a0d	4.6604374e-08
68	0x339bfb4a	7.263459e-08
69	0x3407f55c	1.2662116e-07
70	0x3418c62a	1.4228195e-07
71	0x3441f090	1.8062042e-07
72	0x349d1a24	2.926255e-07
73	0x3426b6d7	1.5526471e-07
74	0x3424adf8	1.533698e-07
75	0x334b8f85	4.739515e-08
76	0x3405c833	1.2459422e-07
77	0x33c4c426	9.1626404e-08
78	0x347af6e7	2.3372887e-07
79	0x33e456af	1.0632845e-07
80	0x340cd3dc	1.311559e-07
81	0x32b5236c	2.1087281e-08
82	0x34183f15	1.4179052e-07
83	0x34020f31	1.211272e-07
84	0x3403e398	1.2283124e-07
85	0x31b12ade	5.1562514e-09
86	0x3410c554	1.3482833e-07
87	0x32d6301b	2.4934755e-08
88	0x3287808c	1.5774525e-08
89	0x3397adb1	7.06308e-08
90	0x3387ee6b	6.329795e-08
91	0x3328575d	3.9195005e-08
92	0x3412f92a	1.3687955e-07
93	0x335c8b15	5.1349236e-08
94	0x33b112cc	8.245624e-08
95	0x322f8976	1.0217596e-08
96	0x3393c56a	6.88113e-08
97	0x32ab8fc5	1.9972399e-08
98	0x3404e55b	1.2376897e-07
99	0x32d1c026	2.4418181e-08
100	0x35d8b469	1.614576e-06
101	0x349c5b78	2.9123817e-07
102	0x35ef702c	1.7839534e-06
103	0x35c39ea5	1.4574804e-06
104	0x35c89116	1.4943387e-06
105	0x339973c9	7.145679e-08
106	0x35dd06e0	1.6467784e-06
107	0x349c83b5	2.9153094e-07
108	0x346c5386	2.2009598e-07
109	0x3560173b	8.348031e-07
110	0x3550f2f0	7.783956e-07
111	0x3513553a	5.488579e-07
112	0x35e3c10d	1.6969003e-06
113	0x352836ad	6.266444e-07
114	0x3585ec80	9.978103e-07
115	0x341ac452	1.4413789e-07
116	0x355b90d7	8.179463e-07
117	0x3495376f	2.7793746e-07
118	0x35c8a446	1.4948971e-06
119	0x34b093e7	3.2890168e-07
120	0x35beba2b	1.4210285e-06
121	0x34a013d2	2.9816744e-07
122	0x35e05023	1.6712623e-06
123	0x35a15fc8	1.2023311e-06
124	0x35ab9f93	1.2786935e-06
125	0x339fb68b	7.437219e-08
126	0x35bde524	1.4148286e-06
127	0x3479cb88	2.3263976e-07
128	0x3477779d	2.3047183e-07
129	0x3531cb04	6.6233065e-07
130	0x3546b53b	7.4024473e-07
131	0x351a85cf	5.756419e-07
132	0x35ccce26	1.5259182e-06
133	0x350bc9c0	5.207512e-07
134	0x355b7726	8.175724e-07
135	0x3422da97	1.5166948e-07
136	0x35329586	6.652775e-07
137	0x349c066a	2.906193e-07
138	0x35a85fd5	1.2544866e-06
139	0x34adbf52	3.2362965e-07
140	0x338b35dc	6.482489e-08
141	0x32278af3	9.752273e-09
142	0x33910d8f	6.754555e-08
143	0x3384be49	6.181342e-08
144	0x33843937	6.157136e-08
145	0x31229e58	2.366411e-09
146	0x3390eca6	6.7485686e-08
147	0x325d9520	1.28978e-08
148	0x31f6f83a	7.1877624e-09
149	0x331d6d80	3.6654e-08
150	0x32ffc860	2.9777027e-08
151	0x329853e4	1.7733278e-08
152	0x338f7a25	6.6811744e-08
153	0x32e30802	2.642992e-08
154	0x3335e694	4.2352056e-08
155	0x319f7af3	4.6414868e-09
156	0x3317bbba	3.5328164e-08
157	0x321c4341	9.095687e-09
158	0x338662c7	6.257829e-08
159	0x324840df	1.1656282e-08
160	0x353d4e6a	7.0522094e-07
161	0x34380b3e	1.7140425e-07
162	0x35673e7b	8.6145127e-07
163	0x351ad06d	5.767277e-07
164	0x3527e1e9	6.254109e-07
165	0x33387e04	4.295545e-08
166	0x3539e501	6.9251115e-07
167	0x33f377c3	1.1337354e-07
168	0x340ee30d	1.3307381e-07
169	0x34a8dee6	3.1454618e-07
170	0x34d08254	3.8837845e-07
171	0x34b23def	3.3200146e-07
172	0x354de7b2	7.670561e-07
173	0x34925776	2.7258255e-07
174	0x34d0e94b	3.8912762e-07
175	0x33bbb031	8.739915e-08
176	0x34ab83d5	3.1947152e-07
177	0x34342bc8	1.6779734e-07
178	0x352321af	6.077125e-07
179	0x344650bd	1.846956e-07
180	0x35b4a43c	1.3458844e-06
181	0x34b3ae39	3.3468112e-07
182	0x35d483d4	1.5833598e-06
183	0x359aef50	1.1543543e-06
184	0x35a31af7	1.2152294e-06
185	0x33b26896	8.307795e-08
186	0x35b495a8	1.3454601e-06
187	0x3475b2c3	2.2882436e-07
188	0x34898fc0	2.562283e-07
189	0x352d7d09	6.462947e-07
190	0x3538fc8a	6.8912834e-07
191	0x352b07f7	6.3714054e-07
192	0x35c1c1b7	1.4435999e-06
193	0x351e9f99	5.909183e-07
194	0x3553d772	7.891714e-07
195	0x34342d32	1.6780248e-07
196	0x352bf27a	6.4055314e-07
197	0x34ad4d36	3.227994e-07
198	0x35a0e56f	1.1987703e-06
199	0x34c69f3e	3.6996238e-07
200	0x344dceb2	1.9167308e-07
201	0x32d58b4f	2.4859814e-08
202	0x3463f2e7	2.122939e-07
203	0x34378eda	1.7095172e-07
204	0x343e61de	1.7730733e-07
205	0x31d61cc5	6.2314904e-09
206	0x3450a101	1.9430082e-07
207	0x33146acd	3.455607e-08
208	0x32a577ef	1.9263068e-08
209	0x33d13cd0	9.7433826e-08
210	0x33d2f17b	9.822812e-08
211	0x334dc4dc	4.7909325e-08
212	0x3458cb42	2.0190512e-07
213	0x3376f62e	5.7500237e-08
214	0x33f7aa40	1.1532802e-07
215	0x32582a44	1.2582465e-08
216	0x33d09245	9.712361e-08
217	0x32d0a43f	2.4289077e-08
218	0x343d8fa1	1.7654249e-07
219	0x32ed2d86	2.7611133e-08
220	0x3607bcc6	2.0226448e-06
221	0x34b4d889	3.3685163e-07
222	0x3618185a	2.266394e-06
223	0x35f0418a	1.7900468e-06
224	0x35f96c64	1.8583492e-06
225	0x33b34d74	8.349426e-08
226	0x36097516	2.0482744e-06
227	0x34bce276	3.51825e-07
228	0x348aa927	2.5827578e-07
229	0x35878ea5	1.0099799e-06
230	0x3586bec0	1.0039294e-06
231	0x352d0337	6.44522e-07
232	0x360f72ac	2.1375408e-06
233	0x353bc48c	6.994894e-07
234	0x35a39892	1.218885e-06
235	0x34364195	1.697393e-07
236	0x35865731	1.0009154e-06
237	0x34aee5f4	3.2577339e-07
238	0x35f7f66a	1.847465e-06
239	0x34c861ea	3.7324145e-07
240	0x34b162ad	3.3040615e-07
241	0x336668d7	5.36464e-08
242	0x34c14e28	3.6005918e-07
243	0x34a213a5	3.0189145e-07
244	0x34a5425d	3.078193e-07
245	0x32623862	1.3167751e-08
246	0x34b5b32a	3.3844236e-07
247	0x3382da55	6.093311e-08
248	0x332dc6a2	4.0460357e-08
249	0x343afc95	1.7414489e-07
250	0x342ad4d1	1.5909906e-07
251	0x33d81e51	1.0063798e-07
252	0x34b9a3d9	3.457815e-07
253	0x34057953	1.2430728e-07
254	0x345d55ac	2.0613396e-07
255	0x32e2cb73	2.640238e-08

exp_avg f4 [20]
0	0x35b3e824	1.3404101e-06
1	0xb738a3d7	-1.1005402e-05
2	0xb7d7c26a	-2.5720528e-05
3	0xb7422f97	-1.15743815e-05
4	0x36c73bf4	5.9376416e-06
5	0x378139d0	1.540492e-05
6	0xb79e5110	-1.8872815e-05
7	0x3695b7f7	4.4619624e-06
8	0xb7905fe6	-1.7210794e-05
9	0xb797a1b0	-1.8075894e-05
10	0x36ccd722	6.1047185e-06
11	0x37821bea	1.5510206e-05
12	0x36ffc346	7.622325e-06
13	0x3740d89c	1.1494525e-05
14	0x375a6606	1.3017567e-05
15	0xb691107a	-4.323255e-06
16	0x3631e797	2.6509858e-06
17	0xb73e4bb9	-1.1342513e-05
18	0xb7a7c547	-1.9999816e-05
19	0xb7c973e6	-2.4015037e-05

exp_avg_sq f4 [20]
0	0x3347047f	4.6337387e-08
1	0x34372286	1.7055763e-07
2	0x35fa18f5	1.8633715e-06
3	0x347f1261	2.3755412e-07
4	0x34070479	1.2574482e-07
5	0x35c8c7a7	1.4959268e-06
6	0x359817cb	1.1331807e-06
7	0x339022f0	6.7118776e-08
8	0x350cb0fb	5.2411605e-07
9	0x359b5d81	1.1575613e-06
10	0x342e4a98	1.623215e-07
11	0x35eb026a	1.7509567e-06
12	0x34a64e4b	3.0976875e-07
13	0x35857e03	9.945946e-07
14	0x35a7d959	1.2505726e-06
15	0x316add2e	3.4177208e-09
16	0x3248b486	1.16825785e-08
17	0x3424c120	1.5343949e-07
18	0x35f7c79b	1.8461027e-06
19	0x35dd60cd	1.6493956e-06

exp_avg f4 [1, 20]
0	0xb942a765	-0.00018563641
1	0xb986f8be	-0.000257438
2	0xb97486f0	-0.00023319921
3	0xb98a47ae	-0.00026374817
4	0xb901e339	-0.00012387046
5	0xb8deabb2	-0.00010617766
6	0xb984d5f2	-0.00025336404
7	0xb8ab90d0	-8.180889e-05
8	0xb978d47e	-0.00023730283
9	0xb98ae60c	-0.0002649281
10	0xb923f2e1	-0.00015635371
11	0xb902e519	-0.00012483112
12	0xb8edd7cc	-0.00011341236
13	0xb9007a4a	-0.00012252587
14	0xb9019b5e	-0.00012360277
15	0xb9880d95	-0.0002595006
16	0xb8fea4e7	-0.00012142379
17	0xb9859fe1	-0.00025486856
18	0xb986bec6	-0.0002570061
19	0xb9725d52	-0.00023113683

exp_avg_sq f4 [1, 20]
0	0x399621ee	0.0002863551
1	0x39048796	0.0001263901
2	0x390790ed	0.00012928592
3	0x398843be	0.00025990413
4	0x390cb7cd	0.00013419912
5	0x38f6c0ac	0.00011766082
6	0x3913597a	0.00014052345
7	0x3849f9f0	4.8154907e-05
8	0x38d1abdb	9.997907e-05
9	0x396eb1ca	0.0002276368
10	0x399cf5f3	0.00029937885
11	0x394d4e65	0.00019579528
12	0x39020d84	0.00012402801
13	0x3933499d	0.00017098193
14	0x3924bdb6	0.00015710932
15	0x397d685c	0.00024166837
16	0x39101b17	0.00013743002
17	0x3951548f	0.00019963294
18	0x399239f6	0.00027890474
19	0x38dd12cf	0.000105416046
