model_D_EX6.pth (torch, 12335 bytes, 15 tensors)

weight f4 [20, 2]
0	0xbd56f016	-0.052475058
1	0xbe6fc78b	-0.23415963
2	0x3cf08516	0.029360335
3	0x3eb68e07	0.35655233
4	0xbdc5d012	-0.09658827
5	0x3e607626	0.2192007
6	0x3e9ca585	0.3059503
7	0xbe835861	-0.25653365
8	0xbf4ab7b1	-0.7918654
9	0xbe5e1e28	-0.21691191
10	0x3e078f2d	0.13238211
11	0x3e520ba5	0.20512255
12	0x3e091041	0.13385107
13	0xbe73171d	-0.23739286
14	0xbeab94b4	-0.3351189
15	0x3e890af2	0.26766163
16	0x3e66a5ac	0.22524136
17	0x3e67ce17	0.22637211
18	0xbf411739	-0.7542606
19	0x3e97f295	0.29677263
20	0x3e8cdaa5	0.27510563
21	0x3e511b0a	0.20420471
22	0x3dd617ec	0.104537815
23	0x3ea4725d	0.32118502
24	0xbeccc0e8	-0.39990926
25	0x3e891120	0.26770878
26	0x3f57cec3	0.8429987
27	0x3d81048a	0.06299694
28	0x3ee6f2c1	0.45107082
29	0xbe8772e8	-0.26454854
30	0xbe9bf59d	-0.30460826
31	0x3f01ee20	0.50753975
32	0xbd7fe3d1	-0.062473122
33	0xbe531c84	-0.20616347
34	0xbda53745	-0.080671825
35	0x3e72e1b9	0.23718919
36	0x3ec79926	0.3898403
37	0x3e5599d7	0.20859466
38	0x3ec44ac8	0.38338304
39	0x3e4bdd1f	0.1990857

bias f4 [20]
0	0x3fbf2edd	1.4936177
1	0xbe8c857b	-0.27445588
2	0xbeb6c131	-0.35694268
3	0x3fb267f5	1.3937975
4	0x4006cbaf	2.1061819
5	0x3e8156e1	0.25261596
6	0x3edc945e	0.43081945
7	0xbfc53cf5	-1.5409228
8	0x3e5e8641	0.21730901
9	0xbfb5b5ca	-1.4196103
10	0xbf23fdb1	-0.6405898
11	0xbe91375f	-0.28362557
12	0xbfaf7f4b	-1.3710722
13	0x3e55738c	0.20844859
14	0x3fa79d0e	1.3094804
15	0x3c4d22c8	0.0125204995
16	0x3f2b26f6	0.66856325
17	0xbf8965a6	-1.0734146
18	0xbeb91e6b	-0.3615602
19	0xbf56a5b4	-0.8384659

weight f4 [20, 20]
0	0xbf33829c	-0.7012117
1	0x3e1abf83	0.15112118
2	0x3e321eb7	0.1739453
3	0xbf0f09c8	-0.558743
4	0xbeeb3878	-0.4594152
5	0x3e9d7528	0.30753446
6	0xbf5b9a3c	-0.8578222
7	0x3ed2ba88	0.41157937
8	0x3ef25178	0.4732778
9	0x3e9e69c7	0.30940077
10	0x3eabe72c	0.33574808
11	0x3e8a5b4b	0.27022776
12	0x3e91fe08	0.28514123
13	0x3e9a8005	0.30175796
14	0xbf2c981b	-0.67419595
15	0x3e35e14d	0.17761727
16	0xbf378d48	-0.71699953
17	0x3e99890d	0.29987374
18	0x3f1395cc	0.57650447
19	0x3ed362fc	0.41286457
20	0xbf2858d3	-0.65760535
21	0x3d9280bb	0.0715346
22	0x3ed7be22	0.42137247
23	0xbf6e7483	-0.9314653
24	0xbf8e3939	-1.1111213
25	0xbb5cc098	-0.003368413
26	0xbf80e9d1	-1.0071355
27	0x3f211590	0.62923527
28	0xbd7b9088	-0.061417133
29	0x3ee53bdc	0.44772232
30	0x3f0a47e4	0.54015946
31	0x3e29c5cc	0.1657936
32	0x3ec41795	0.38299242
33	0x3c94646f	0.018114297
34	0xbf4fcc89	-0.8117147
35	0x3e884d0d	0.26621285
36	0xbf889eef	-1.0673503
37	0x3f26e0e9	0.65186936
38	0x3dc20ba8	0.094748795
39	0x3ee171c0	0.44032097
40	0xbf6c3d85	-0.9228137
41	0x3e914df9	0.283798
42	0x3ef55161	0.4791365
43	0xbf412623	-0.75448817
44	0xbf4b741b	-0.7947404
45	0x3e5b5750	0.21420026
46	0xbf11c1ad	-0.5693615
47	0x3ee30ee5	0.443473
48	0x3c1d991c	0.009619024
49	0x3e0fb86a	0.14035192
50	0x3ee4fab6	0.44722527
51	0x3dd430b9	0.103608556
52	0x3ee7fb8e	0.45309108
53	0x3e389ac2	0.18027785
54	0xbf47e68c	-0.7808616
55	0x3d5db012	0.05412299
56	0xbf27d365	-0.6555694
57	0x3eec7524	0.4618312
58	0x3ee4c600	0.44682312
59	0x3ee1a59b	0.4407166
60	0xbf87b416	-1.0601833
61	0x3ee9324b	0.45546183
62	0x3edcd1fa	0.4312895
63	0xbf48c6d1	-0.7842837
64	0xbf8e0402	-1.1094973
65	0xbd9d3b56	-0.07677333
66	0xbf2d5484	-0.67707086
67	0x3f324e64	0.69650865
68	0xbe86dd85	-0.2634088
69	0x3f1288a7	0.57239765
70	0x3e955d2d	0.2917265
71	0x3d1535bc	0.0364282
72	0x3ed8169f	0.4220476
73	0xbddc78ef	-0.10765254
74	0xbf46048a	-0.77350676
75	0x3ecae92b	0.39631018
76	0xbf40988a	-0.75232756
77	0x3f447987	0.76747936
78	0x3e4b4f45	0.19854458
79	0x3eaead2b	0.34116492
80	0x3f4f07aa	0.8087107
81	0xbe48ffc5	-0.19628818
82	0xbe9da6f9	-0.30791453
83	0x3f4f74c2	0.81037533
84	0x3e79069f	0.24318932
85	0xbed9da3b	-0.4254931
86	0x3f4e6351	0.80620295
87	0xbe7fb7c8	-0.2497245
88	0xbe6c23e8	-0.23060572
89	0xbd95b28a	-0.07309444
90	0xbe312e40	-0.17302799
91	0xbec06a40	-0.37581062
92	0xbea78f1b	-0.32726368
93	0xbe4ce645	-0.20009716
94	0x3f01eaf4	0.50749135
95	0xbe811558	-0.25211596
96	0x3f37107b	0.7150952
97	0xbec6fef8	-0.388664
98	0xbeced4d5	-0.40396753
99	0xbeeb5ea4	-0.45970643
100	0xbf2b55e5	-0.6692794
101	0x3e3ea6bc	0.18618292
102	0x3e7df7bd	0.24801536
103	0xbf59db4c	-0.85100245
104	0xbf0f607f	-0.56006616
105	0x3e8a7714	0.27043974
106	0xbf249a04	-0.6429751
107	0x3f116da8	0.5680795
108	0x3e0661c4	0.13123232
109	0x3f13b821	0.57702833
110	0x3e708bbf	0.23490809
111	0x3e555a28	0.20835173
112	0x3e8993b6	0.26870507
113	0x3e43cf4d	0.19122048
114	0xbf1b9fd4	-0.60790753
115	0x3ebb6cce	0.3660645
116	0xbf7a8901	-0.978653
117	0x3efde222	0.49586588
118	0x3f05cfc0	0.52270126
119	0x3ee7e79c	0.4529389
120	0x3f4e7b16	0.80656564
121	0xbec8263a	-0.39091665
122	0xbd40df7a	-0.047088124
123	0x3f1af9e1	0.60537535
124	0xbd91c937	-0.07118457
125	0xbe714257	-0.23560463
126	0x3f2a4d58	0.6652427
127	0xbddded0b	-0.10836228
128	0xbd50dcc9	-0.050991807
129	0xbde93afc	-0.113882035
130	0xbf226276	-0.6343149
131	0xbec72425	-0.38894764
132	0xbe166887	-0.14688312
133	0xbecf6589	-0.40507153
134	0x3f510669	0.81650406
135	0xbe6da947	-0.23209105
136	0x3f3ece15	0.74533206
137	0xbe6d2420	-0.23158312
138	0xbebf2d25	-0.3733913
139	0xbe9c2cbf	-0.3050289
140	0xbf485076	-0.78247774
141	0x3eb8a487	0.36063024
142	0x3ee6a697	0.45048973
143	0xbf4830cc	-0.7819946
144	0xbf218a49	-0.6310163
145	0x3dd4d203	0.10391619
146	0xbf18c82a	-0.59680426
147	0x3eb1a686	0.3469736
148	0xbc4d7154	-0.012539227
149	0x3ebfb5c4	0.37443364
150	0x3e926bd3	0.28597888
151	0x3ed84a4d	0.42244187
152	0x3e8134b8	0.25235534
153	0x3e04ff7e	0.12988088
154	0xbf2c5845	-0.6732219
155	0x3ea26ddb	0.31724438
156	0xbf2e3a5b	-0.68057793
157	0x3ebfebe6	0.37484664
158	0x3e6dc744	0.23220545
159	0x3f1ad135	0.60475475
160	0xbf5eee89	-0.87082726
161	0x3ea2efbd	0.3182353
162	0x3dfb3b27	0.12267142
163	0xbf0f218d	-0.5591057
164	0xbf1dce21	-0.6164265
165	0x3e891581	0.2677422
166	0xbf3c49d5	-0.7355016
167	0x3f04d31f	0.51884645
168	0x3df90024	0.1215823
169	0x3eba1625	0.3634502
170	0x3ef545fb	0.47904953
171	0x3ecc9bfa	0.3996275
172	0x3ea082a4	0.3134967
173	0x3e03efd3	0.12884454
174	0xbef9ad6a	-0.48765117
175	0x3cb2d349	0.021829264
176	0xbf6e3c91	-0.93061167
177	0x3f0b6937	0.5445742
178	0x3e5ecf36	0.21758732
179	0x3eb348ad	0.35016385
180	0x3f007bdc	0.50188994
181	0xbeb0a85d	-0.3450345
182	0xbe4c17db	-0.19930975
183	0x3ef095e1	0.4698935
184	0x3d479918	0.048729986
185	0xbe1838ae	-0.14865372
186	0x3f6d3698	0.9266143
187	0xbdc5dfc1	-0.09661818
188	0xbcd44d44	-0.02591575
189	0xbe5cb2dd	-0.21552606
190	0xbf06d5b1	-0.5266982
191	0xbe1be01f	-0.15222214
192	0xbe9fa56d	-0.31180897
193	0xbe91128e	-0.2833447
194	0x3f0cd2c4	0.550091
195	0xbe680efa	-0.22661963
196	0x3f7fdf4c	0.999501
197	0xbe759652	-0.23983124
198	0xbec073f7	-0.37588474
199	0xbe7758c3	-0.24154954
200	0x3f78a299	0.97123104
201	0x3c2e4a0e	0.010637773
202	0xbeb16d53	-0.3465372
203	0x3f705b22	0.9388906
204	0x3f142d88	0.57881975
205	0xbcd502bd	-0.026002282
206	0x3f509c1c	0.81488204
207	0xbed731be	-0.42030138
208	0xbe9c7c2b	-0.30563483
209	0xbe748ed5	-0.23882611
210	0xbeb3df25	-0.35131183
211	0xbebb7781	-0.36614612
212	0xbe74c6d5	-0.23903973
213	0x3c95eeb9	0.018302308
214	0x3f75e687	0.9605488
215	0xbe9aac95	-0.30209795
216	0x3f7697e8	0.9632554
217	0xbf004925	-0.5011161
218	0xbea035be	-0.31291002
219	0xbf0a52f4	-0.54032826
220	0xbf1c9711	-0.6116801
221	0x3e51714c	0.20453376
222	0x3ebcc68f	0.36870238
223	0xbf1b449a	-0.6065155
224	0xbebfc986	-0.37458438
225	0x3e29b989	0.16574682
226	0xbf79fa8a	-0.9764792
227	0x3e8c52e9	0.27407005
228	0x3eb5af4a	0.35485297
229	0x3eb65044	0.35608113
230	0x3f19d983	0.6009752
231	0x3f027d99	0.50972897
232	0x3ee24eb9	0.44200686
233	0xbcfcb5c6	-0.030848395
234	0xbf34bd29	-0.70601135
235	0x3eb3fd2e	0.35154098
236	0xbf7b2b9d	-0.98113424
237	0x3f288ae5	0.65836936
238	0x3eb0fa26	0.34565848
239	0x3ec05cc5	0.37570778
240	0xbf745e68	-0.9545655
241	0x3d451db0	0.048124015
242	0x3dad4e4a	0.08462198
243	0xbf81eb36	-1.0149906
244	0xbeeefd9d	-0.46677867
245	0x3ec1d065	0.37854305
246	0xbf77ee51	-0.96848017
247	0x3df94874	0.121720225
248	0x3ec56404	0.38552868
249	0x3e380f9c	0.17974705
250	0x3f223c1c	0.6337297
251	0x3dcf79b9	0.10130639
252	0x3ee2b176	0.44276017
253	0x3ed16c9e	0.4090318
254	0xbf99f8a0	-1.2028999
255	0xbd0f4f41	-0.03498769

bias f4 [20]
0	0xbcadd98d	-0.0212219
1	0xbe65d4c5	-0.22444446
2	0x3c89374b	0.016749999
3	0xbea4565d	-0.3209714
4	0xbda77587	-0.081767134
5	0xbe48f983	-0.19626431
6	0xbd62f514	-0.055409506
7	0x3e5b879a	0.21438447
8	0x3e09a69b	0.13442461
9	0xbe5c32c1	-0.21503736
10	0x3cdec689	0.027194278
11	0x3dc2acc1	0.095056064
12	0xbe651279	-0.22370328
13	0x3e83d213	0.2574621
14	0xbe232197	-0.15930782
15	0xbe3a8b2d	-0.18217154
16	0xbe19e432	-0.15028456
17	0x3db81025	0.08987454
18	0xbd696f8c	-0.056991145
19	0x3e00177e	0.12508962

weight f4 [1, 20]
0	0x3f5d1e73	0.86374587
1	0x3f300840	0.6876259
2	0x3f3d0dc9	0.7384916
3	0x3f205e65	0.62644035
4	0xbeb1ab8b	-0.3470119
5	0x3f3251ef	0.6965627
6	0xbe796244	-0.24353892
7	0x3f496c96	0.78681314
8	0x3f4e7de8	0.8066087
9	0xbe429c1b	-0.19004862
10	0xbedb605c	-0.42846954
11	0x3f318563	0.69344157
12	0x3f3ba9b5	0.7330583
13	0x3f5ade2a	0.85495245
14	0xbee9c453	-0.45657596
15	0xbe178bf5	-0.14799483
16	0xbe8b72b5	-0.27235952
17	0x3ef3165a	0.4747799
18	0x3f4f7bf6	0.81048524
19	0x3f4c60ce	0.7983521

exp_avg f4 [20, 2]
0	0x3a59e751	0.0008312362
1	0xbbc5d0b7	-0.0060368436
2	0x3a449b05	0.00074999064
3	0xbb6dd8c2	-0.0036292528
4	0x3a0d0a90	0.0005380297
5	0x3ae85292	0.0017724803
6	0x3b24d47c	0.0025151065
7	0xbbd85d25	-0.0066029006
8	0xbb009483	-0.001961977
9	0xbab26588	-0.0013610581
10	0x3ad19374	0.0015989379
11	0xbb18183d	-0.0023207807
12	0xbabcb5ae	-0.0014397406
13	0xbbc8f379	-0.00613254
14	0xbabf2d5d	-0.0014585663
15	0x3b7c0e63	0.0038460724
16	0x3aa7575d	0.0012767125
17	0xbb2ffdf9	-0.002685426
18	0xbae61e2f	-0.0017556603
19	0x3b6cb710	0.0036119856
20	0x3b0cac76	0.00214651
21	0x3ba06856	0.0048952503
22	0x3aa64f9b	0.0012688519
23	0xbbaf3207	-0.00534654
24	0xba9d7829	-0.001201396
25	0x3b6c67ee	0.003607269
26	0x39a69162	0.00031770306
27	0xb989db42	-0.00026294036
28	0x3b41be06	0.0029562726
29	0xbbe21bb5	-0.0069002756
30	0xb9246cd1	-0.00015680796
31	0xbc30113a	-0.010746295
32	0xbb0d14be	-0.0021527256
33	0xbbcf88db	-0.006333453
34	0xb95147ea	-0.00019958583
35	0x3bf29588	0.0074030794
36	0x3b11e6d7	0.0022262835
37	0x3ae46644	0.0017425497
38	0x3b0a8d79	0.0021141453
39	0x3b797077	0.003806142

exp_avg_sq f4 [20, 2]
0	0x3a6fd1b2	0.00091483735
1	0x3acddb16	0.0015705551
2	0x390b0f88	0.00013261859
3	0x384f08f1	4.9360973e-05
4	0x392cdcb4	0.00016485417
5	0x3905bc77	0.00012754077
6	0x3a0eb86f	0.0005444353
7	0x3aba7032	0.0014224111
8	0x389c005f	7.438729e-05
9	0x3b2645fd	0.0025371306
10	0x3898712d	7.2690054e-05
11	0x3c0b2894	0.008493561
12	0x3a879b95	0.001034605
13	0x3a74e760	0.0009342339
14	0x395eefba	0.00021260875
15	0x3a0ab512	0.0005291264
16	0x37ab6129	2.0430032e-05
17	0x3af255cb	0.0018488703
18	0x38bcf998	9.011029e-05
19	0x39a39a49	0.00031204734
20	0x389b140a	7.3947085e-05
21	0x3be73099	0.007055354
22	0x39410ed9	0.00018411445
23	0x3b973054	0.0046139155
24	0x387e3fca	6.0617727e-05
25	0x3a2595ce	0.0006316573
26	0x38fe82b2	0.00012136008
27	0x3c479662	0.01218185
28	0x39fca590	0.0004818854
29	0x3aba5df8	0.0014218679
30	0x38e6f442	0.00011012751
31	0x39ec1d15	0.00045035096
32	0x3aad32c8	0.0013213987
33	0x3ab1c6d5	0.0013563285
34	0x39181655	0.00014504169
35	0x3b7c9242	0.0038539325
36	0x390752fc	0.00012905517
37	0x3c1ad0fb	0.009449239
38	0x38821927	6.203568e-05
39	0x3b990861	0.0046701883

exp_avg f4 [20]
0	0xbb40822d	-0.0029374466
1	0xba7648db	-0.00093950116
2	0x3985c3aa	0.00025513518
3	0xbb1110dd	-0.0022135295
4	0xbb77a934	-0.0037790062
5	0x3937bba0	0.00017522136
6	0xb93b2d7f	-0.00017850658
7	0x3aba6a29	0.0014222312
8	0x363b4698	2.7906262e-06
9	0x3a670bc1	0.0008813702
10	0x3abfa2cb	0.001462066
11	0xba8aff4c	-0.0010604649
12	0x3a612dfc	0.0008589921
13	0x39284639	0.00016047888
14	0xbafe52d4	-0.0019403347
15	0xbb03dbba	-0.002011998
16	0xbb040ee2	-0.0020150472
17	0x3ab54020	0.0013828315
18	0x3a3c5e39	0.0007185671
19	0x3ab4ee33	0.0013803899

exp_avg_sq f4 [20]
0	0x3a9c8b45	0.0011943361
1	0x3930404f	0.00016808625
2	0x395b85fe	0.00020935384
3	0x3a6ae4d0	0.00089604873
4	0x389c6e29	7.4591786e-05
5	0x38a64bba	7.929602e-05
6	0x3ab2a923	0.0013630729
7	0x39b556d8	0.00034587714
8	0x37dcd12e	2.632345e-05
9	0x395498fe	0.0002027489
10	0x38c3cf3c	9.336925e-05
11	0x3980b853	0.00024551395
12	0x3913cb53	0.00014094757
13	0x38dd4bea	0.00010552241
14	0x3a672f45	0.00088189944
15	0x3919e32d	0.00014675847
16	0x3ae4aa50	0.0017445777
17	0x3985ba86	0.00025506708
18	0x39389bff	0.0001760572
19	0x38ae6135	8.315073e-05

exp_avg f4 [20, 20]
0	0x395b0280	0.00020886399
1	0xbabd0d4a	-0.0014423516
2	0xba8f707f	-0.0010943561
3	0x3942e94a	0.00018588189
4	0x37e79bd2	2.7609905e-05
5	0xba7e8941	-0.00097097835
6	0x3a0c04f5	0.0005341315
7	0xba402038	-0.000732902
8	0xba781464	-0.00094634877
9	0xba1db00d	-0.00060153083
10	0xba569af0	-0.00081865396
11	0xbaa841b6	-0.0012836966
12	0xba473165	-0.0007598608
13	0xb9677474	-0.00022073259
14	0x39313ca1	0.00016902621
15	0xbb223bec	-0.0024754955
16	0x39b097cb	0.0003368243
17	0xba6c1567	-0.0009005875
18	0xba468a24	-0.0007573685
19	0xba3f5238	-0.00072983233
20	0x3af9d964	0.001906198
21	0x3a123e92	0.0005578782
22	0xb5ee0000	-1.7732382e-06
23	0x3aec20bc	0.0018015127
24	0x3b177425	0.002311
25	0x39d1661b	0.0003993966
26	0x3a8b7f1b	0.0010642739
27	0xba605ff3	-0.00085592194
28	0x39f00fcf	0.00045788146
29	0xba32ccec	-0.0006820697
30	0xb934ede4	-0.00017254759
31	0x39f2166c	0.00046174543
32	0xba3de473	-0.00072438194
33	0x398802dd	0.00025942075
34	0x3ae137b2	0.0017182736
35	0x3a6e0e12	0.0009081076
36	0x3aa88dfa	0.0012859695
37	0xba09fa8c	-0.00052634696
38	0x38c1641e	9.2216054e-05
39	0xb9a86a30	-0.00032122573
40	0x3a4eb1c0	0.0007884763
41	0x39c87f31	0.00038241738
42	0x3933cabc	0.00017146295
43	0x3a350595	0.0006905434
44	0x3a826358	0.000994782
45	0x39b013ed	0.00033584182
46	0x39ec6d1c	0.0004509472
47	0xb8b8136a	-8.77742e-05
48	0x39c87532	0.0003823429
49	0x38b52897	8.638313e-05
50	0x3927ac28	0.00015990494
51	0x39c6332b	0.00037803626
52	0xb747aa10	-1.190092e-05
53	0x39c80e20	0.00038157497
54	0x3a240964	0.0006257503
55	0x38f24ec6	0.00011554132
56	0x3a0cdc29	0.00053733826
57	0x3786e6b8	1.6081482e-05
58	0x399cc602	0.00029902166
59	0x38e6b3eb	0.00011000767
60	0x3ade4658	0.001695822
61	0x3a1128ca	0.0005537389
62	0x38335810	4.275894e-05
63	0x3ad10dbc	0.0015949528
64	0x3b07ea34	0.0020738961
65	0x39d024ec	0.0003970036
66	0x3a748b82	0.00093286496
67	0xba3d1c63	-0.0007214008
68	0x39ec4a04	0.00045068574
69	0xba11f047	-0.0005567115
70	0xb8f08174	-0.00011468204
71	0x39f41bef	0.0004656012
72	0xba1d88c4	-0.00060094544
73	0x3983f207	0.00025166592
74	0x3ac6db8f	0.0015171635
75	0x3a62f8c2	0.00086582836
76	0x3a9510be	0.0011372787
77	0xb9dff970	-0.0004271972
78	0x3901038d	0.00012303721
79	0xb9832636	-0.00025014736
80	0xb873ca1f	-5.8123955e-05
81	0x3a37c1ca	0.0007009773
82	0x3a1218da	0.0005573161
83	0xb837ea57	-4.3848846e-05
84	0x3664d548	3.4098794e-06
85	0x3a07a4b4	0.0005174384
86	0xb94b4bdc	-0.00019387848
87	0x39d2e599	0.00040225385
88	0x3a05b25e	0.0005100126
89	0x39b4e586	0.00034503284
90	0x39ede5fb	0.0004537551
91	0x3a27c4bf	0.0006399862
92	0x39d8b92b	0.0004133669
93	0x39666f50	0.00021975976
94	0xb814c402	-3.5468496e-05
95	0x3a908359	0.0011025473
96	0xb8f0ad12	-0.00011476329
97	0x39f9dfda	0.00047659763
98	0x39e3e08b	0.00043464112
99	0x39dba109	0.00041890916
100	0xb925cbdd	-0.00015811571
101	0xb98f1dc8	-0.00027297274
102	0xb9898f32	-0.00026237365
103	0xb985d98d	-0.00025529825
104	0xb8407752	-4.5887493e-05
105	0xb9a573a8	-0.00031557423
106	0xb910f302	-0.00013823438
107	0xb8e02f08	-0.000106899126
108	0xb999ee17	-0.00029359825
109	0x385a76f7	5.2086045e-05
110	0xb9683844	-0.00022146205
111	0xb9813002	-0.00024640566
112	0xb8a1c173	-7.713111e-05
113	0xb977f5c8	-0.00023647316
114	0xb99f8790	-0.00030427845
115	0xba3cd1d2	-0.00072028965
116	0xb90ed667	-0.00013622046
117	0xb9365ce0	-0.00017391471
118	0xb9585bbc	-0.00020633539
119	0xb95efea9	-0.00021266438
120	0xb9483026	-0.00019091423
121	0x3a1b0efd	0.0005915014
122	0x39feff5f	0.00048636922
123	0xb9461b9a	-0.00018893034
124	0xb90b5002	-0.00013285878
125	0x39d9d2a2	0.000415464
126	0xb98e6b06	-0.0002716409
127	0x39d7fdba	0.00041197037
128	0x39d62e14	0.00040851592
129	0x39c4b4a2	0.00037518615
130	0x39d2959c	0.0004016579
131	0x3a0e2437	0.00054222665
132	0x39dc8196	0.0004205822
133	0x391b70a6	0.00014823917
134	0xb941efd0	-0.00018495251
135	0x3a67ece5	0.0008847251
136	0xb958ec4d	-0.00020687394
137	0x39ed79c9	0.000452949
138	0x39c245f7	0.0003705469
139	0x39c5edd0	0.00037751952
140	0xb994deb5	-0.0002839469
141	0xba92a1e8	-0.0011187168
142	0xba69fb06	-0.000892565
143	0xb9bdf47a	-0.00036231038
144	0xb99daecb	-0.00030075604
145	0xba76e840	-0.0009418763
146	0xb7f4da03	-2.9188586e-05
147	0xba06ebf9	-0.0005146857
148	0xba7347ab	-0.0009280394
149	0xb9bab4c0	-0.00035611354
150	0xba43669f	-0.00074539514
151	0xba86c6b5	-0.0010282608
152	0xba08624b	-0.0005202635
153	0xba13968b	-0.00056300376
154	0xb9d0f071	-0.00039851994
155	0xbaf5c636	-0.0018751088
156	0xb90d6b64	-0.00013486814
157	0xba33a930	-0.0006853519
158	0xba4487a8	-0.0007497021
159	0xba343cdc	-0.0006875524
160	0x39634b26	0.00021676402
161	0xba1a282e	-0.0005880621
162	0xba066b54	-0.00051276875
163	0x390cc129	0.00013423398
164	0x398bfc31	0.00026700043
165	0xb9ec56e4	-0.00045078166
166	0x39834f5f	0.00025045403
167	0xb9c75f9c	-0.00038027472
168	0xb9dca83e	-0.0004208702
169	0xb95cef00	-0.0002106987
170	0xb9d3cd1e	-0.0004039788
171	0xba08bfc9	-0.00052165665
172	0xb9ba6b64	-0.00035556697
173	0xb90eab84	-0.0001360607
174	0x38b6ae25	8.710873e-05
175	0xbaa093d4	-0.0012251087
176	0x39573cf8	0.0002052671
177	0xb9e9dc28	-0.00044605252
178	0xb9b1e06a	-0.00033927272
179	0xb9c8cc76	-0.00038299308
180	0xb946a0f4	-0.00018942711
181	0x39fcb6ce	0.00048201386
182	0x39d110b9	0.00039876046
183	0xb947945d	-0.00019033389
184	0xb912a81b	-0.00013986269
185	0x39ae1831	0.0003320589
186	0xb9823785	-0.00024836898
187	0x39b7aaa8	0.0003503163
188	0x39ab0acd	0.0003262371
189	0x39a9627f	0.00032307577
190	0x39acc4d4	0.00032953045
191	0x39e7a570	0.00044183014
192	0x39bb4f65	0.00035726573
193	0x38e37c44	0.0001084735
194	0xb945050a	-0.00018789261
195	0x3a3b25bd	0.00071391073
196	0xb94d08bf	-0.00019553582
197	0x39c6a982	0.00037891796
198	0x399d9cf5	0.00030062316
199	0x39a2f25e	0.00031079625
200	0xba4db63b	-0.0007847284
201	0xba079198	-0.00051715365
202	0xb9748a0a	-0.00023321077
203	0xba3b4c80	-0.0007144883
204	0xba83b000	-0.0010046959
205	0xb9cb42db	-0.00038768988
206	0xb9c82a9b	-0.00038178716
207	0x390f1c10	0.00013647997
208	0xb9dd5193	-0.00042213182
209	0x37d4d2d4	2.5370544e-05
210	0xb921d50a	-0.0001543352
211	0xb9f75d1e	-0.0004718089
212	0x3887d7be	6.477487e-05
213	0xb99071d6	-0.00027550635
214	0xba2e5555	-0.00066502887
215	0xba1befe6	-0.00059485284
216	0xba0375d2	-0.000501481
217	0xb755da18	-1.2746568e-05
218	0xb990b79e	-0.00027602626
219	0xb8b0e548	-8.435041e-05
220	0xba86fa51	-0.0010297989
221	0xbaf3ffe8	-0.0018615695
222	0xbab74e36	-0.0013985101
223	0xba8e1519	-0.0010840028
224	0xba9a6153	-0.0011778272
225	0xbad2bd34	-0.0016078115
226	0xb9e166a8	-0.0004299183
227	0xba2d20d4	-0.0006604318
228	0xbad46f91	-0.0016207566
229	0xba0ec1cf	-0.000544575
230	0xba9be6d2	-0.0011894351
231	0xbae3447c	-0.0017339136
232	0xba3c4425	-0.0007181785
233	0xba93e0f2	-0.0011282249
234	0xba8f8091	-0.001094835
235	0xbb34d205	-0.0027591002
236	0xba260b04	-0.0006334039
237	0xba80dc67	-0.000983131
238	0xbaaa75ae	-0.0013005042
239	0xba8cafa1	-0.0010733494
240	0x3af9f2ec	0.0019069589
241	0x3a61f26a	0.00086191914
242	0x399571cc	0.0002850428
243	0x3aeb417f	0.0017948597
244	0x3b180cc2	0.0023200964
245	0x3a334bb5	0.00068395893
246	0x3a890b70	0.0010455679
247	0xba15f2a8	-0.00057200575
248	0x3a446314	0.00074915704
249	0xb9ca0638	-0.00038533076
250	0x38fcdde0	0.00012057624
251	0x3a498a72	0.00076881715
252	0xb9e2fa7a	-0.000432927
253	0x3a094c1e	0.00052374776
254	0x3adfb379	0.0017067037
255	0x3a96330f	0.0011459308

exp_avg_sq f4 [20, 20]
0	0x39f226f9	0.00046186874
1	0x3a85f486	0.0010219968
2	0x3a808faf	0.0009808446
3	0x3a04b1eb	0.0005061912
4	0x38e54ed8	0.00010934257
5	0x38fdefb7	0.000121086305
6	0x395b3ca3	0.00020908056
7	0x3ab76898	0.0013992963
8	0x398076b6	0.0002450251
9	0x3abfc83e	0.001463182
10	0x38a27567	7.74663e-05
11	0x3a2e2d44	0.00066443183
12	0x3a868c75	0.0010265248
13	0x38dcd818	0.00010530668
14	0x3a04e450	0.00050694216
15	0x3a4dc099	0.00078488287
16	0x39698cfe	0.00022273135
17	0x39d62f70	0.00040852604
18	0x398cc892	0.00026852317
19	0x38c84d13	9.551099e-05
20	0x394d8590	0.0001960008
21	0x390111e8	0.0001230907
22	0x39004c93	0.00012235557
23	0x3962827e	0.00021601652
24	0x3825e4b2	3.9552055e-05
25	0x37abd3a4	2.0483341e-05
26	0x38b15561	8.455921e-05
27	0x3977fee9	0.00023650717
28	0x3808bfc6	3.260353e-05
29	0x398534ab	0.00025406978
30	0x375c80b8	1.31429915e-05
31	0x38aa9df8	8.135656e-05
32	0x3937a6f1	0.0001751443
33	0x37f52395	2.9222845e-05
34	0x39634324	0.00021673419
35	0x38d0a6a2	9.949251e-05
36	0x38be4cd2	9.074215e-05
37	0x388e190f	6.775755e-05
38	0x380e7a6a	3.3969445e-05
39	0x3778c402	1.48275885e-05
40	0x39a810bf	0.00032055934
41	0x39f1f5be	0.00046150194
42	0x39e57891	0.00043768113
43	0x39b9bb5c	0.00035425543
44	0x38938dac	7.035895e-05
45	0x386ae29d	5.6000998e-05
46	0x391624c0	0.00014318805
47	0x3a27eca4	0.00064058066
48	0x38eaecb4	0.00011202079
49	0x3a306b6a	0.0006729873
50	0x3808dca4	3.2630414e-05
51	0x3997e6e5	0.00028972994
52	0x39f2dc68	0.00046322052
53	0x388f75ea	6.8407346e-05
54	0x39baac0a	0.00035604864
55	0x39b3349d	0.0003418074
56	0x391f2c01	0.00015179814
57	0x392b3339	0.00016326913
58	0x38ec09d6	0.00011255189
59	0x3820bd75	3.832342e-05
60	0x392dfe17	0.00016593222
61	0x3897559d	7.216188e-05
62	0x38960998	7.154344e-05
63	0x39400f16	0.00018316167
64	0x3817f897	3.6232723e-05
65	0x378a4baf	1.6486125e-05
66	0x38965a56	7.169384e-05
67	0x391eb13e	0.00015134082
68	0x37c516f9	2.3494928e-05
69	0x392b900f	0.00016361497
70	0x3731ded8	1.0601907e-05
71	0x38451ec3	4.699711e-05
72	0x38eaca92	0.00011195721
73	0x37e2b370	2.7024857e-05
74	0x3940e417	0.00018395517
75	0x38719a94	5.760284e-05
76	0x38a0fdc3	7.676661e-05
77	0x382e243c	4.151858e-05
78	0x37b31ad4	2.1350956e-05
79	0x373d4357	1.1280957e-05
80	0x387cb4d9	6.024991e-05
81	0x3a136732	0.0005622982
82	0x3a0617ee	0.000511526
83	0x38893afa	6.543654e-05
84	0x3816fb20	3.5996665e-05
85	0x38401bb0	4.5802153e-05
86	0x37e8c288	2.774714e-05
87	0x3a155edd	0.00056980347
88	0x3906750b	0.00012822838
89	0x3a18b368	0.00058250735
90	0x37d822c0	2.5765388e-05
91	0x39a961da	0.00032307097
92	0x39d45836	0.00040501513
93	0x383ac569	4.452971e-05
94	0x38895cdb	6.549965e-05
95	0x39c5395b	0.000376175
96	0x37f649b9	2.9359815e-05
97	0x38f08a82	0.00011469891
98	0x38e50d9f	0.00010922108
99	0x37fcca48	3.0134936e-05
100	0x39742c26	0.000232861
101	0x394f0b33	0.0001974523
102	0x39494e36	0.0001919799
103	0x3986a411	0.0002568071
104	0x3844cef3	4.6922778e-05
105	0x37f5bf54	2.929537e-05
106	0x38da589e	0.00010411556
107	0x39aab039	0.00032556223
108	0x38571db4	5.1287658e-05
109	0x39b5323f	0.00034560447
110	0x379b4535	1.8509667e-05
111	0x39069449	0.00012834476
112	0x397b7f21	0.00023984585
113	0x38273e78	3.987408e-05
114	0x39874ee8	0.00025807996
115	0x39209dee	0.00015317622
116	0x38e7e086	0.00011056759
117	0x38bff483	9.1531336e-05
118	0x385f5642	5.3247677e-05
119	0x37b46718	2.1505679e-05
120	0x38536cab	5.0407525e-05
121	0x3a49395d	0.00076760893
122	0x3a3863c7	0.0007033911
123	0x3868224c	5.534505e-05
124	0x381bd958	3.7157297e-05
125	0x3886c5b5	6.426444e-05
126	0x37b71246	2.182381e-05
127	0x3a50cabc	0.000796478
128	0x39345f3b	0.00017201614
129	0x3a55d15c	0.0008156502
130	0x381d26e7	3.7467948e-05
131	0x39ec9450	0.0004512393
132	0x3a1434cb	0.0005653619
133	0x386696c2	5.4976677e-05
134	0x3867b3ef	5.5242268e-05
135	0x3a09ddc2	0.000525918
136	0x37c37366	2.3299548e-05
137	0x3933cb2f	0.00017146462
138	0x39246763	0.00015678773
139	0x383a30b2	4.4391207e-05
140	0x39ff8ac4	0.0004874078
141	0x3a74c187	0.0009336699
142	0x3a676787	0.00088273775
143	0x3a0e7ef6	0.0005435789
144	0x38be1dc6	9.065452e-05
145	0x38ba8397	8.893682e-05
146	0x395de97c	0.00021163182
147	0x3aa68b98	0.0012706397
148	0x3955256a	0.00020327201
149	0x3aaef1da	0.0013347224
150	0x386234d8	5.3931813e-05
151	0x3a15c2a2	0.00057129015
152	0x3a700e71	0.00091574254
153	0x38d15e6a	9.9834826e-05
154	0x3a0f5c5d	0.00054687803
155	0x3a31e097	0.00067854807
156	0x396bae39	0.0002247625
157	0x39a3bb64	0.000312294
158	0x3956b766	0.00020476952
159	0x38870e22	6.439934e-05
160	0x3a053671	0.000508166
161	0x3a8b1f33	0.0010614156
162	0x3a81de89	0.000990824
163	0x3a140d2c	0.0005647715
164	0x38fb0408	0.000119693635
165	0x38ed0b79	0.000113031776
166	0x396c8756	0.0002255713
167	0x3aae7d0a	0.0013312411
168	0x3982cfc4	0.0002495033
169	0x3ab60709	0.0013887595
170	0x38872593	6.4443004e-05
171	0x3a2959e8	0.00064602355
172	0x3a799cad	0.00095219427
173	0x390c1274	0.00013358315
174	0x3a14fea0	0.0005683694
175	0x3a469a86	0.00075761264
176	0x3979f01f	0.00023835943
177	0x39a243a1	0.00030949435
178	0x397a56a3	0.00023874133
179	0x389db914	7.520817e-05
180	0x37c67709	2.365887e-05
181	0x3a077c26	0.0005168341
182	0x39f7c160	0.00047255587
183	0x37d8481b	2.5782783e-05
184	0x37cd10d8	2.4445748e-05
185	0x38349e7f	4.3062955e-05
186	0x372a6b7d	1.0157816e-05
187	0x3a0a6ff1	0.0005280963
188	0x38f5044a	0.00011683309
189	0x3a0d92d5	0.0005400603
190	0x37d747bd	2.5663403e-05
191	0x399e3645	0.00030176542
192	0x39c4c703	0.00037532308
193	0x38186675	3.6335045e-05
194	0x37d70a7f	2.5634885e-05
195	0x39b84f22	0.00035154173
196	0x373692f6	1.0882262e-05
197	0x38ecfa07	0.00011299928
198	0x38db2003	0.000104486964
199	0x37fd6730	3.0208e-05
200	0x388209d4	6.200714e-05
201	0x3994b00d	0.00028359928
202	0x3987798c	0.00025839766
203	0x388cbb20	6.710575e-05
204	0x37cd1642	2.4448269e-05
205	0x37c026fd	2.2906339e-05
206	0x37e7f15e	2.7649741e-05
207	0x399eea7f	0.00030310822
208	0x3887ce1d	6.475693e-05
209	0x39a34a0a	0.00031144946
210	0x376b0c5c	1.4009969e-05
211	0x39289560	0.00016077375
212	0x3963d60b	0.00021728144
213	0x37cb8eb1	2.4265932e-05
214	0x388c9524	6.7035e-05
215	0x39455c43	0.00018821754
216	0x37f9028a	2.9684295e-05
217	0x3883edd5	6.2908664e-05
218	0x385ff3c5	5.339437e-05
219	0x37878494	1.615499e-05
220	0x397e705d	0.00024265186
221	0x398333d8	0.00025024894
222	0x397adb72	0.00023923608
223	0x398c7910	0.0002679308
224	0x38592f4c	5.178088e-05
225	0x3819699d	3.6576403e-05
226	0x38e3d96c	0.000108647015
227	0x39c46683	0.0003746041
228	0x388a648f	6.599083e-05
229	0x39cf2a13	0.00039513464
230	0x37be35ac	2.2674758e-05
231	0x3927dec7	0.00016009352
232	0x398ee547	0.00027255176
233	0x384917b6	4.7944217e-05
234	0x398d3c5b	0.00026938584
235	0x39469925	0.00018939802
236	0x38f1a568	0.00011522585
237	0x38d20779	0.00010014972
238	0x388ad605	6.620217e-05
239	0x37dac2c3	2.6078318e-05
240	0x3862921b	5.401867e-05
241	0x38cbbc70	9.7148935e-05
242	0x38c5d55b	9.4334326e-05
243	0x38637797	5.4232394e-05
244	0x37ef25b8	2.8508584e-05
245	0x37a067db	1.9121848e-05
246	0x37d6cd8b	2.5606501e-05
247	0x390aa1aa	0.0001322093
248	0x3802f798	3.1225005e-05
249	0x390e022c	0.00013542984
250	0x37aa20b2	2.0280804e-05
251	0x38843d0a	6.30562e-05
252	0x38e05879	0.00010697632
253	0x37611ba7	1.3417483e-05
254	0x385e9850	5.3070777e-05
255	0x389dce7d	7.524805e-05

exp_avg f4 [20]
0	0xba1b5f33	-0.00059269666
1	0x3a899280	0.0010495931
2	0x3a26cad5	0.0006362622
3	0x3a7d66f4	0.00096665253
4	0x39c58e44	0.00037680764
5	0xb9c3b3e1	-0.0003732732
6	0x397462c2	0.00023306443
7	0xba701824	-0.00091588707
8	0xb987655d	-0.00025824728
9	0x392f1f97	0.00016701069
10	0xba23a708	-0.0006242846
11	0xbaef1110	-0.0018239338
12	0x3aadde87	0.0013265171
13	0xba858990	-0.0010188092
14	0x35ff6000	1.902692e-06
15	0x394edfea	0.00019729105
16	0xb9bf21ee	-0.00036455638
17	0x3987ea8f	0.00025923966
18	0x3a3e34d7	0.00072557986
19	0xbabfef87	-0.0014643528

exp_avg_sq f4 [20]
0	0x3a6fb0bc	0.0009143462
1	0x3908e3cb	0.0001305483
2	0x39f583a8	0.00046828133
3	0x38c35d69	9.3157236e-05
4	0x3a11ed9b	0.0005566717
5	0x39597c1e	0.0002074097
6	0x3a3fd4c3	0.0007317776
7	0x3a6651c6	0.0008785989
8	0x3a8c2ce8	0.0010694535
9	0x3a012869	0.0004926981
10	0x3993bae0	0.00028177258
11	0x398b5473	0.00026575066
12	0x38a4b0ab	7.8530364e-05
13	0x3ab953dd	0.0014139373
14	0x39e91426	0.00044456235
15	0x398a2d51	0.00026355174
16	0x3923b872	0.00015613603
17	0x390fbd3d	0.0001370804
18	0x3a511cbf	0.0007977001
19	0x3a8093ec	0.0009809709

exp_avg f4 [1, 20]
0	0xbd2ad8f9	-0.041710827
1	0xbd36aad0	-0.044596493
2	0xbd2b556c	-0.04182951
3	0xbd358532	-0.044316478
4	0x3c83bf6c	0.016082488
5	0xbd2af852	-0.041740723
6	0x3c7808f6	0.015138855
7	0xbd2bf04f	-0.041977223
8	0xbd2a2bd0	-0.04154569
9	0x3c733596	0.014844319
10	0x3c893431	0.01674852
11	0xbd30893f	-0.043099638
12	0xbd324973	-0.043527078
13	0xbd2c6e43	-0.04209734
14	0x3c834671	0.0160248
15	0x3c75e7c2	0.015008869
16	0x3c87205a	0.016494919
17	0xbd2b0ef6	-0.041762315
18	0xbd2b0bb2	-0.0417592
19	0xbd2d2cd0	-0.042279065

exp_avg_sq f4 [1, 20]
0	0x3e79e7a5	0.24404772
1	0x3ebcd3e3	0.36880407
2	0x3eb46016	0.35229558
3	0x3ee58ced	0.4483408
4	0x3d253117	0.04033002
5	0x3eb169a2	0.34650904
6	0x3dafbc6c	0.085808605
7	0x3ec3d539	0.38248613
8	0x3ec3b959	0.38227347
9	0x3d9c8138	0.07641834
10	0x3d379f67	0.044829752
11	0x3ebb86c4	0.36626256
12	0x3e194549	0.14967836
13	0x3ea058dc	0.31317794
14	0x3d2382d7	0.0399197
15	0x3de0d4de	0.10978101
16	0x3d474cde	0.04865729
17	0x3e014fe3	0.1262813
18	0x3eaef729	0.34172943
19	0x3ed08823	0.40728864
