model_D_1023.pth (torch, 12335 bytes, 15 tensors)

weight f4 [20, 2]
00000000: a017 803f bd90 673b 5922 13be 1e9f b83c
00000010: 2df0 9abf c17d f03b 99db 78bf 835b 5c3b
00000020: c344 9abf 3c29 463b 5795 d5bf 9cea 673d
00000030: c1e6 29bf bd5b 2bbb 484f efbf 679f 0cbd
00000040: 4bf4 613f 7b6b 1b3c b539 ef3f c48c a43d
00000050: 8eed 58bf 8752 07bb 5c01 08c0 482b 36bd
00000060: 4cd9 ef3f b00d 1a3d d0dd 953e dc0c 46bd
00000070: 2483 533f 983c 803d 5976 9b3f f2fb d3bb
00000080: c447 6abf 9e28 07bc 5871 5cbf 66fd 493b
00000090: e8f1 1440 be85 f53c e0a1 d43e 27cd 763d
1.000721 0.0035334073 -0.14368571 0.02253681 -1.2104546 0.00733921 -0.9721008 0.0033623881
-1.2052234 0.003023698 -1.66862 0.056620225 -0.6636773 -0.002614721 -1.869607 -0.034331705
0.88263386 0.009486075 1.8689486 0.080346614 -0.8473748 -0.0020648555 -2.125083 -0.04447487
1.8738189 0.03761071 0.29270792 -0.048352107 0.8262198 0.06261557 1.2145492 -0.006469243
-0.91515756 -0.00824943 -0.8611045 0.0030821203 2.3272648 0.029971 0.4152975 0.060254242

bias f4 [20]
00000000: ee61 2fbf aaee f0be 7f2d 44bf d3e3 67be
00000010: a95e 31be 87b1 823f 4c97 893e 4d4c 5b3f
00000020: a3fc 9ebf 7de4 30be 66a4 c33e 614f 2b40
00000030: db5c 2cbf 89d2 b53e dcaf db3d 46e7 c2bf
00000040: abc6 903f c965 b0be 114e d5bf f622 23be
-0.68508804 -0.47057086 -0.7663192 -0.22645502 -0.17321266 1.0210427 0.26873243 0.856633
-1.2420849 -0.17274661 0.38211364 2.67672 -0.67329186 0.35512188 0.10726902 -1.5226829
1.1310629 -0.34452656 -1.6664449 -0.15931305

weight f4 [20, 20]
00000000: bc5c 573e 4ab6 a73d 1d85 a7be c726 84be
00000010: 9ba5 2ebd 86f9 a2bc af21 663d faf6 253e
00000020: eae5 fa3e 48e4 03be f54f b3bd 1f86 d73e
00000030: b0f7 1a3e d83b 66be 942e 86be be05 dc3e
00000040: 8554 d5bc 9914 953d 1e1f 55be b20e 7ebe
00000050: b462 24bf 6ba8 0bbe e6b0 b43e 8eaf 3a3e
00000060: c2d9 823e 02f6 063e bc33 3abd 98c3 c5bd
00000070: 98c6 d0be 067a 5dbc 7808 403e d5d9 52bf
00000080: 25b4 c53c 0abc d33e a17e 613e eb9c 05bf
00000090: 55c5 963d 4f62 993e accf adb9 e2c5 fb3d
000000a0: 7b39 9f3e 21c0 28be 4240 95be 609e 8ebd
000000b0: aa2a 5dbe 51e0 943d 13bd f3bd f80b 563d
000000c0: 94be d43e 3ae3 e33d 39ff ccbd 63ff ff3e
000000d0: f526 0e3e 0652 c7be bcf4 a33c 8375 6b3e
000000e0: 76a7 bd3d c4e3 15be 8c93 95bd 63ca 2abe
000000f0: 29bb dc3d b23f 183d e469 39be 5ab8 c93d
00000100: 2989 ecbc bd90 52be 76df 42bd c9f1 513e
00000110: 1949 543e 2647 13bd a720 b33d d261 bb3e
00000120: aa4a 0cbe ec9f 3ebe 2a66 fb3d 8eac aa3e
00000130: 6dc8 22be 1321 8ebe b6c4 063e fd75 69be
00000140: 608f 1f3f ed65 373e 03f0 8bbb 13b2 8cbd
00000150: 29fa a5be 6a0f a6be 8e4c 49be e55d a83e
00000160: 3dc7 7d3e ed73 60bd e627 15be e6cd ce3e
00000170: 67d0 92be 9f5f 8abd d881 163d 8a76 183f
00000180: 0f2e e33d 71ea 283d 7071 83be a8bb 49be
00000190: 9c50 ad3e 8e8f 14be 1e11 b53d a76f 88bc
000001a0: d560 72be bcb1 8ebe 31b2 65bd 606f 863d
000001b0: f094 cd3e 40d0 90bc f5da 69be 7abc 603e
000001c0: 1ee1 293d 3291 b0be 7955 34be 6bad 1d3f
000001d0: c9dc 1cbe afbd 58bc b56c 16bc f32b 2ebe
000001e0: dff5 4cbf c7d6 22bd 632b 743e 9daf 3f3e
000001f0: 980f 9b3e ea35 473e 8cfc 753e b462 ffbe
00000200: b465 23bf 99d6 a73d 3746 64bd 9d41 85bf
00000210: a6f4 4e3e b558 1c3f 14e5 c5bd 6fd5 f1be
00000220: 4b3f 733e ba79 593e 9044 b13e 3cea 0e3e
00000230: b0d4 003f efbf 22bc 513d ec3c e92f 4cbe
00000240: a6e9 e6bd 69c7 a8be 5001 d23c dc39 853e
00000250: 27e5 e53e d13a 0bbd 35f9 a6be 9423 663e
00000260: eebe 02be cce5 c4be c301 da3b 942d fc3e
00000270: 760a 40bd c741 1abd ea07 55bd 75ac 48be
00000280: f907 f9be 7bbd 14be 6cf1 7439 6d92 3c3c
00000290: 5e61 a73d 647c 7b3e 5f58 db3d 2434 a2be
000002a0: a0c4 24bf 8577 a63e e338 4d3d e05c 30bf
000002b0: 1595 d63c 0d3f 143f f197 243e c670 04bf
000002c0: 8ce2 003e 0a65 093d ac99 7a3e 3c1f bd3d
000002d0: ef22 77bf d338 9b3d 13f5 f73e d174 203e
000002e0: 49d2 843e 3860 543e 2827 2f3e a548 5dbf
000002f0: 7cee 8bbf c610 cd3e cc5c 173d dc06 cebf
00000300: 266f 813e 6ad0 3f3f 9ef6 f73d ec92 81bf
00000310: 1bb5 c83e d4db 2b3d 0204 f53e 42c2 af3c
00000320: 2862 093f c1f8 3a3c 5eb4 65bd 0173 af3b
00000330: e5e1 bb38 cfcb 43bb dfab 6bbe 8e59 a53e
00000340: e76c f53e 1395 a73d fe86 9e3d 4fb5 463e
00000350: 1382 3cbe e622 b7be 9b6e 91be 171d 903e
00000360: 24e7 a2be c9c6 62bd 7d63 c4bd c683 b33d
00000370: d974 c13e c4bb 453e f346 aebd 0a57 75be
00000380: 7d3e 22be 4d1c a8be 64e6 9c3d 26ec a53d
00000390: 0a85 0e3f 5e0d 65be 9f05 76be 9148 e73e
000003a0: edcc 4cbe 63ab f0bd a393 32be 0f4b cd3e
000003b0: 41dd 9fbd 59d1 9ebd 094e 253a 0e02 bebc
000003c0: f7b1 4e3e 4ef4 8bbd 128f 7abe 35c5 c0bd
000003d0: eb81 e9bd 3f46 9f3c fb12 bc3c cf59 d53d
000003e0: a08e 3f3e 2d2b 183e fc5d 61be b23f 5f3e
000003f0: 662e 34bd fed0 9d3c c1b1 f9bd 0a49 e13d
0.21031469 0.08189066 -0.32718745 -0.25810835 -0.042638402 -0.019894373 0.056184467 0.16207495
0.49003536 -0.12880051 -0.08755485 0.42094514 0.15133548 -0.22483766 -0.2620741 0.4297313
-0.026041279 0.07279319 -0.20812652 -0.24810293 -0.6421311 -0.13638465 0.35291213 0.18231031
0.2555676 0.13179782 -0.045459494 -0.09656447 -0.40776515 -0.013517862 0.1875323 -0.82363635
0.024133751 0.413544 0.22020961 -0.5219256 0.07361857 0.29957816 -0.0003315186 0.122936025
0.31098542 -0.16479541 -0.29150587 -0.069638014 -0.21598306 0.072693475 -0.119012974 0.052257508
0.4155165 0.111273244 -0.10009617 0.49999532 0.13882048 -0.38929766 0.02001416 0.22994046
0.09260456 -0.14637667 -0.07303533 -0.16678767 0.107778855 0.03717012 -0.181068 0.098496154
-0.028873997 -0.20563026 -0.04757639 0.2050239 0.2073101 -0.035956524 0.08746462 0.36598068
-0.13700357 -0.18615693 0.122753456 0.33334774 -0.15896769 -0.2775961 0.13160977 -0.22798915
0.6232815 0.17909975 -0.004270555 -0.068699025 -0.3241742 -0.32433635 -0.1965811 0.32884136
0.24783035 -0.054798055 -0.14566001 0.40391463 -0.28674623 -0.067565195 0.036744922 0.59555876
0.11092769 0.041239206 -0.25672483 -0.19700491 0.33850563 -0.14507887 0.088411555 -0.016654802
-0.23669751 -0.27869976 -0.05607814 0.06564212 0.40152693 -0.017677426 -0.22837432 0.21946898
0.041474454 -0.34485775 -0.1761073 0.6159274 -0.15318598 -0.013228818 -0.009181191 -0.17008953
-0.8006267 -0.03975561 0.23844676 0.18719335 0.30285335 0.1945416 0.2402212 -0.49879992
-0.6382706 0.08195228 -0.055731025 -1.0410649 0.20210513 0.61072856 -0.09662834 -0.4723315
0.23754613 0.21237841 0.34622622 0.13956541 0.50324535 -0.009933456 0.028837832 -0.19940151
-0.11275034 -0.32964638 0.025635391 0.26020706 0.44901392 -0.03399164 -0.32612005 0.2247451
-0.12768146 -0.3845657 0.006653042 0.49253523 -0.046884976 -0.037660386 -0.0520095 -0.19597037
-0.48638895 -0.14525406 0.0002335959 0.01150952 0.08172868 0.2455917 0.10710215 -0.31680405
-0.64362526 0.3251306 0.05010308 -0.68891716 0.026194135 0.5790871 0.16073586 -0.5173458
0.12586421 0.033543624 0.24472684 0.09234473 -0.9653768 0.07579198 0.48429164 0.15669562
0.25941685 0.2073983 0.1710478 -0.8643897 -1.0932155 0.4005186 0.036953732 -1.6095843
0.25280112 0.7492739 0.12107585 -1.0122962 0.39200673 0.04195769 0.4785462 0.021454934
0.536654 0.011411847 -0.056080215 0.0053542857 8.958931e-05 -0.0029876118 -0.23014782 0.32294887
0.47934648 0.081827305 0.077405915 0.19405101 -0.18408994 -0.35768813 -0.28404698 0.28147194
-0.3181697 -0.055365358 -0.095892884 0.08765368 0.3778446 0.19309908 -0.08509626 -0.23958984
-0.1584415 -0.32834092 0.07661131 0.08101682 0.5567175 -0.2236838 -0.24025582 0.4517255
-0.20000048 -0.117514394 -0.17439131 0.40096328 -0.07805873 -0.07754774 0.00063058786 -0.02319434
0.20185076 -0.06833707 -0.2446864 -0.09412614 -0.11401733 0.019442676 0.02295827 0.1041752
0.18706751 0.1486022 -0.22008508 0.21801642 -0.04398956 0.019264694 -0.12192107 0.11000259

bias f4 [20]
00000000: 4050 8ebd f2c9 273e 0961 24be 5b6c f5bd
00000010: 7e0d f53c 2317 81be 0af6 f3bd 96fb 85bd
00000020: e819 03be 0cfd 25be 3e58 cb3b a546 29bd
00000030: 0b04 b93d 9fdc c0bd cfc9 8cbd f497 8b3e
00000040: 34e2 303e 4ba8 53be 3441 043d 649d 5d3e
-0.069489 0.1638563 -0.16052641 -0.11983558 0.02991366 -0.25212964 -0.119121626 -0.06542127
-0.12802851 -0.16209811 0.0062055876 -0.041327138 0.09033974 -0.0941708 -0.068744294 0.2726437
0.1727379 -0.20669667 0.032288745 0.21642071

weight f4 [1, 20]
00000000: c097 50be 28d2 aa3e 52ab 0ebe c55a 73bd
00000010: f428 68be 148a 4ebe ab5b 5f3e 8f00 0abe
00000020: ef75 813e 6114 533e d89a 32be cfd8 38be
00000030: 3257 2ebd dc97 e6bd 664a 903e c1b6 693e
00000040: e7cc 703e bf57 883e 2c25 333e 155d 443e
-0.20370388 0.33363461 -0.13932541 -0.059412736 -0.22671872 -0.2016986 0.21812312 -0.13476776
0.2528529 0.20613243 -0.1744188 -0.18051456 -0.042563625 -0.112594336 0.28181762 0.22823621
0.23515664 0.26629445 0.17494649 0.19176133

exp_avg f4 [20, 2]
00000000: 5d0f 9a38 2869 31ba bd18 9236 02f0 d237
00000010: 4984 c2b6 e40c 9e39 341a 67b7 0f10 5939
00000020: 9f39 57b7 b46e 9039 7f8d 75b7 d067 83b9
00000030: e715 51b7 c590 b638 737e 8837 0e61 93b9
00000040: 8adb 8838 f910 d1b9 15b5 01b7 f0e9 f4b7
00000050: 9e42 64b7 a68b e938 6051 f8b5 6cd8 39ba
00000060: ede4 beb6 ae2f 6338 b84a 92b7 d885 28b9
00000070: dc8a 25b7 a061 8136 cef2 d038 b903 063a
00000080: 4524 8fb7 85fd ee38 e18b 38b7 ea9f 2439
00000090: 08eb 3bb5 2187 9139 1776 75b7 0068 65b3
7.346154e-05 -0.00067676837 4.354019e-06 2.5145713e-05 -5.7970506e-06 0.00030145713 -1.3774774e-05 0.00020700715
-1.2828415e-05 0.000275483 -1.4636083e-05 -0.00025063613 -1.246247e-05 8.705402e-05 1.6271346e-05 -0.00028110336
6.525878e-05 -0.00039876232 -7.731161e-06 -2.9196002e-05 -1.36053695e-05 0.00011136317 -1.8501123e-06 -0.00070894393
-5.6890917e-06 5.4165423e-05 -1.743935e-05 -0.00016071589 -9.867097e-06 3.8558646e-06 9.963439e-05 0.0005112249
-1.7063818e-05 0.00011395946 -1.0999823e-05 0.00015699831 -7.0004944e-07 0.00027757234 -1.4630633e-05 -5.3412805e-08

exp_avg_sq f4 [20, 2]
00000000: e612 8834 3313 1e3a 9853 7931 a70e ac36
00000010: 78d7 d832 b9c3 1138 da57 a832 0ad4 1238
00000020: b46c bc32 7473 1638 dc1d c132 046c ac37
00000030: 5f21 7332 5054 e837 d44a 1032 c123 5f37
00000040: 80f6 9a34 178e 293a d620 1730 9405 5c34
00000050: 3600 4d32 bd78 cd37 d9ec 8a33 37e8 0f39
00000060: 04ce b130 333f 9135 c7d0 cb33 9995 d638
00000070: 1388 9531 4f21 ed34 a800 ab34 f7d4 1a3a
00000080: 5272 9232 227b 1e38 7311 6632 866f c937
00000090: 6796 a631 be0c 0837 8599 4433 5811 2a38
2.5345724e-07 0.00060300826 3.6281786e-09 5.127705e-06 2.5243693e-08 3.4752975e-05 1.9597724e-08 3.500659e-05
2.1935513e-08 3.587031e-05 2.2481736e-08 2.0554296e-05 1.4152049e-08 2.7695816e-05 8.398917e-09 1.330016e-05
2.8864088e-07 0.00064680114 5.498014e-10 2.0491126e-07 1.19326184e-08 2.4494128e-05 6.469208e-08 0.0001372405
1.2936998e-09 1.0821735e-06 9.4909005e-08 0.0001023218 4.3519406e-09 4.4168925e-07 3.185171e-07 0.0005906368
1.7048624e-08 3.7784812e-05 1.33917295e-08 2.4013e-05 4.8483346e-09 8.1091985e-06 4.577443e-08 4.054731e-05

exp_avg f4 [20]
00000000: 76a5 0738 0fa3 1f36 2d42 cf36 34f2 86b5
00000010: 1c39 b435 f870 aab7 03c9 b2b6 3f5c 5537
00000020: 47d4 3b38 e238 40b6 4ac9 b5b6 b318 9cb8
00000030: c80f 96b6 b49a dbb6 4e4c 16b6 7851 8838
00000040: 51fa 29b7 f07d 59b5 7a94 1bb6 380a 8fb6
3.2340606e-05 2.378776e-06 6.1767846e-06 -1.0054268e-06 1.3427666e-06 -2.0318184e-05 -5.3282142e-06 1.2717267e-05
4.4781973e-05 -2.864334e-06 -5.4176535e-06 -7.44326e-05 -4.4721855e-06 -6.5447184e-06 -2.2396157e-06 6.50016e-05
-1.0131466e-05 -8.102206e-07 -2.3183225e-06 -4.2629217e-06

exp_avg_sq f4 [20]
00000000: fb4d 4c34 cfe1 2331 9b40 2e32 158c 3a32
00000010: 15ac 3e32 12f7 3032 1c5c 1a32 dc1a 2732
00000020: aff9 5e34 823a 0530 dd0f 0432 de1d b333
00000030: 22e2 7530 0195 6f33 578a a730 424f 4f34
00000040: 6d23 5132 940e fd31 8d24 a531 66d1 d632
1.902735e-07 2.384798e-09 1.0142823e-08 1.0858476e-08 1.10985825e-08 1.0300726e-08 8.984923e-09 9.7267865e-09
2.0766196e-07 4.846826e-10 7.687018e-09 8.34077e-08 8.9451835e-10 5.5782042e-08 1.2190168e-09 1.9307211e-07
1.2173456e-08 7.3649264e-09 4.8062874e-09 2.5008102e-08

exp_avg f4 [20, 20]
00000000: 18fd d036 5bdf 2a36 d768 95b5 101e a7b4
00000010: 4528 afb5 ace2 6e36 3a49 1936 260b 73b6
00000020: 9d2d 5636 fcfe 7237 382d d935 c4e2 b7b5
00000030: 3aed 4c37 7ccd aa36 be33 1937 dc0f 9636
00000040: a872 8836 8093 da33 2eef 2637 0e84 d036
00000050: 303b 40b7 6276 84b6 3ee6 2136 3c5e a635
00000060: 55f9 4236 464b 91b6 367e 53b6 0cb8 e236
00000070: 412c d5b6 7eec cdb7 70f2 fcb5 dcb6 7c36
00000080: 44be b0b7 f03a 0eb7 5fb6 84b7 8b50 18b7
00000090: cc5d c3b6 d85f 0135 f6b2 95b7 e392 3ab7
000000a0: c86e 9836 d482 0436 d5b9 24b5 e001 dfb3
000000b0: 5e3a 4eb5 64a4 2036 6eb3 dd35 6e69 2fb6
000000c0: b85a 2536 1c10 2e37 4e2e a035 9ce1 a1b5
000000d0: aa72 1437 1fa6 6a36 3791 e136 627d 6236
000000e0: f1f5 3f36 d006 3734 943f f536 a434 9f36
000000f0: 5f61 fe35 4a32 6335 aeb8 93b4 50af 0fb3
00000100: dc78 aeb4 a741 9a35 20ed 4335 0fba 8cb5
00000110: 597c 8635 298d 9236 344f 1035 8020 d0b4
00000120: 4ca7 7836 b8b7 ca35 3634 3c36 65a3 b435
00000130: 6c55 a935 3880 b433 dc91 4b36 a2d6 0236
00000140: 672d fd36 821e 5c36 8b8a a2b5 f815 a8b4
00000150: 1812 c0b5 92a9 9336 0426 2f36 ed41 86b6
00000160: 86b9 8b36 1c64 8b37 fc1b f635 d497 fcb5
00000170: 1424 6d37 b120 ba36 6716 3637 a418 b936
00000180: 2282 9736 c07d 2634 64b4 4537 14b8 0137
00000190: 1448 eb36 1aa6 6036 68fa 3cb5 3876 0035
000001a0: c85e 10b5 83af be36 857c 6436 fb55 11b6
000001b0: 55a0 7b36 6fd5 7937 3d4f 3a36 3080 bb34
000001c0: 0e51 5737 4e27 d136 51e9 2837 f07b 9e36
000001d0: 6308 ba36 20d3 6335 0b3a 3137 92e2 ef36
000001e0: d001 e5b6 23e3 1eb6 6606 ae35 9caf 2c35
000001f0: e3e1 d735 5642 4eb6 70ae 04b6 2f5d 8236
00000200: 9769 7bb6 e828 72b7 80df a3b5 530b 5036
00000210: 3ae1 50b7 1bfd a8b6 c1a1 1eb7 7050 b8b6
00000220: f4b4 70b6 f058 5234 19b3 33b7 e71d e1b6
00000230: c664 a936 849b 1736 afb0 2fb5 00a8 7f32
00000240: bcdc 38b5 8da9 4e36 aeb7 0236 62b7 10b6
00000250: 3cc5 3f36 08ee 3237 6413 c535 3868 12b5
00000260: 7c4a 1a37 9ca0 8336 f05b f036 32ae 7636
00000270: 1b09 5a36 4883 9e34 57cb 0037 7403 ae36
00000280: cc9a 0ab7 42c2 77b6 9047 7a35 c05d d1b3
00000290: 2a70 9135 e9e6 aab6 ba90 61b6 16c9 8336
000002a0: c21c 95b6 6260 9bb7 80a2 2bb6 5c07 ca35
000002b0: e2bb 83b7 e5a8 e0b6 80f2 4bb7 9044 cbb6
000002c0: 4053 beb6 acb9 19b5 900d 58b7 9e35 10b7
000002d0: cc05 cab6 4a91 d2b5 eecd 9835 70a7 1535
000002e0: c477 ad35 5814 51b6 8e2a f4b5 4e45 fc35
000002f0: c948 5eb6 5546 34b7 3e9a 98b5 57a3 4d36
00000300: 2248 1cb7 de7c a3b6 05c8 f9b6 ccdd b1b6
00000310: e08a 56b6 00ff 3b34 6655 0db7 0b4f b3b6
00000320: 518d cc36 1b2b 3b36 64f0 2eb5 808f 5933
00000330: 20b8 55b5 3442 6236 d6c7 1c36 d8ab 4fb6
00000340: 0330 6536 de33 6337 0297 eb35 a4b8 abb5
00000350: 14a6 4237 d872 9c36 528e 1637 126b 9736
00000360: 8d98 8336 c02a d134 583c 2137 adf1 d836
00000370: 8c08 cf36 b4c0 2636 856a 98b5 2818 aeb4
00000380: cc9e a9b5 2cc4 6436 3ad9 1036 aa3c 58b6
00000390: 2f8b 5f36 0d8d 6237 f63f cb35 c04f 90b5
000003a0: baed 4137 24bb a336 af8b 1237 efa0 9636
000003b0: d65a 7e36 405d 9033 ad0a 2137 07b6 cc36
000003c0: 6452 b235 9661 1535 6a57 74b4 60d0 64b3
000003d0: 0f50 8db4 2649 5035 c219 0535 630f 47b5
000003e0: a6ff 3835 2e3b 4d36 6e42 bf34 6452 8ab4
000003f0: f372 2d36 5cdc 9135 a21c 0236 4816 7e35
6.228347e-06 2.5461984e-06 -1.1131877e-06 -3.1128047e-07 -1.3050236e-06 3.5596704e-06 2.28414e-06 -3.621631e-06
3.1915035e-06 1.4483692e-05 1.618092e-06 -1.370056e-06 1.2214581e-05 5.0903163e-06 9.131558e-06 4.4721946e-06
4.0664636e-06 1.0178246e-07 9.950059e-06 6.2142562e-06 -1.14578725e-05 -3.947688e-06 2.4124888e-06 1.239539e-06
2.9053383e-06 -4.3300997e-06 -3.1514915e-06 6.7567507e-06 -6.3530465e-06 -2.454803e-05 -1.8846022e-06 3.7657364e-06
-2.1069434e-05 -8.477582e-06 -1.582055e-05 -9.078659e-06 -5.8223723e-06 4.8195716e-07 -1.784552e-05 -1.1120664e-05
4.5428496e-06 1.9745685e-06 -6.136518e-07 -1.0384588e-07 -7.6825916e-07 2.3937546e-06 1.6518004e-06 -2.61384e-06
2.4639721e-06 1.0374959e-05 1.1934405e-06 -1.2061096e-06 8.848185e-06 3.4965412e-06 6.7224278e-06 3.3749607e-06
2.8604375e-06 1.7045681e-07 7.3089705e-06 4.7446974e-06 1.8952813e-06 8.463727e-07 -2.7515256e-07 -3.3454228e-08
-3.2497962e-07 1.1493001e-06 7.2988223e-07 -1.0484963e-06 1.0019968e-06 4.3675723e-06 5.3759436e-07 -3.8766666e-07
3.705226e-06 1.5103642e-06 2.8044574e-06 1.3458599e-06 1.2616342e-06 8.405226e-08 3.0334259e-06 1.9496442e-06
7.545273e-06 3.2800313e-06 -1.2110262e-06 -3.1308423e-07 -1.4310381e-06 4.400682e-06 2.609916e-06 -4.001186e-06
4.1641206e-06 1.6616708e-05 1.8336573e-06 -1.8819651e-06 1.4134701e-05 5.5470377e-06 1.0853261e-05 5.516298e-06
4.5153e-06 1.5505702e-07 1.17841155e-05 7.731858e-06 7.0119368e-06 3.3475285e-06 -7.0399847e-07 4.7855747e-07
-5.3782105e-07 5.6828735e-06 3.4047127e-06 -2.165673e-06 3.749524e-06 1.489125e-05 2.7762283e-06 3.4924733e-07
1.2833871e-05 6.233261e-06 1.00679035e-05 4.723195e-06 5.5442083e-06 8.4871317e-07 1.0563536e-05 7.1491313e-06
-6.824943e-06 -2.3676046e-06 1.2965872e-06 6.433054e-07 1.608449e-06 -3.0735005e-06 -1.9771069e-06 3.88515e-06
-3.7463376e-06 -1.4433848e-05 -1.2209493e-06 3.1001007e-06 -1.2450206e-05 -5.0362555e-06 -9.455195e-06 -5.4929915e-06
-3.5868115e-06 1.959013e-07 -1.0710931e-05 -6.7090036e-06 5.048324e-06 2.2591275e-06 -6.544969e-07 1.4881152e-08
-6.886655e-07 3.0795084e-06 1.9478425e-06 -2.1564415e-06 2.8576023e-06 1.0665048e-05 1.4683287e-06 -5.4540897e-07
9.1964575e-06 3.9228016e-06 7.1632603e-06 3.6758252e-06 3.2489831e-06 2.9525313e-07 7.676738e-06 5.186006e-06
-8.261482e-06 -3.691894e-06 9.3236395e-07 -9.749374e-08 1.0835986e-06 -5.0932763e-06 -3.3611855e-06 3.9275137e-06
-4.443894e-06 -1.8522322e-05 -2.5575573e-06 1.5052315e-06 -1.5703907e-05 -6.695382e-06 -1.2156204e-05 -6.057853e-06
-5.672133e-06 -5.726713e-07 -1.2877761e-05 -8.595553e-06 -6.020744e-06 -1.5688504e-06 1.1384816e-06 5.575048e-07
1.2924361e-06 -3.1155269e-06 -1.8191802e-06 1.8795633e-06 -3.3122944e-06 -1.07452115e-05 -1.1369773e-06 3.0642457e-06
-9.315119e-06 -4.872315e-06 -7.4440636e-06 -5.3008316e-06 -3.196932e-06 1.75085e-07 -8.424138e-06 -5.3438175e-06
6.096125e-06 2.7890262e-06 -6.5169866e-07 5.0654762e-08 -7.961662e-07 3.371516e-06 2.3362131e-06 -3.094543e-06
3.4151606e-06 1.3542331e-05 1.7552813e-06 -1.279423e-06 1.1601969e-05 4.662532e-06 8.973833e-06 4.5126153e-06
3.9218635e-06 3.8960388e-07 9.610398e-06 6.4654364e-06 6.1700757e-06 2.4848096e-06 -1.1355884e-06 -3.2427602e-07
-1.2637697e-06 3.4088835e-06 2.1584115e-06 -3.222182e-06 3.3310605e-06 1.3503491e-05 1.5143294e-06 -1.0752046e-06
1.15590465e-05 4.8795646e-06 8.734801e-06 4.4890835e-06 3.7901823e-06 6.7224846e-08 9.5988335e-06 6.1008645e-06
1.3286012e-06 5.564883e-07 -2.2756072e-07 -5.3274903e-08 -2.6321547e-07 7.7592483e-07 4.9583844e-07 -7.415567e-07
6.891736e-07 3.0581828e-06 3.5624856e-07 -2.576445e-07 2.5845918e-06 1.0867475e-06 1.9388176e-06 9.4654797e-07

exp_avg_sq f4 [20, 20]
00000000: f728 e032 f0dc 3b35 6ea9 2035 a26d 3b35
00000010: c51a 3735 7d5e 4735 777f 3f35 9f8e 5732
00000020: cbfa af32 c88c 6135 fb26 4435 e96c 2f32
00000030: 603b 5f35 11d2 1a32 688b 7333 3a64 cd32
00000040: ae2d 4935 1f2a 2135 b6bd 5a35 b978 1334
00000050: 4e35 6a33 eb8e 3435 7e9b 1935 504d 2e35
00000060: d1e4 2c35 ffff 4335 9d89 3135 0b93 6232
00000070: ac9b 3133 58fe 5c35 f1ab 3635 bd4e 6d32
00000080: 48f0 5935 d796 6f32 67cb f033 e23b 2933
00000090: 6a44 3b35 afe7 1635 d591 5535 517e 5534
000000a0: 206d 6832 2d61 d234 3052 b534 44a1 d234
000000b0: 5955 ce34 fe62 e034 db44 d734 ed01 f631
000000c0: 2ec9 3432 d35e fc34 d793 dc34 3729 c431
000000d0: e9cc f934 bba6 a731 dab7 0033 c804 5d32
000000e0: 2ee4 e134 c396 b534 d3df f434 69c3 a033
000000f0: e81e 2d31 3bfc c233 377d a633 a4fb c333
00000100: 75e9 be33 57c1 ce33 ceb7 c833 92cb de30
00000110: 2888 0931 671e ea33 5752 cd33 bbde a730
00000120: 56d5 e733 a951 8a30 f43f c631 267a 3231
00000130: 0db9 d233 e48c a833 c00a e333 f23c 8032
00000140: 29c9 f932 54f6 1b35 7891 0335 bfe1 1935
00000150: c462 1635 251c 2635 dbbf 1d35 91d4 4132
00000160: 5d6e c032 3a76 3d35 008f 2135 9be0 2532
00000170: 8043 3b35 f6ff 1832 7665 8133 29e5 d132
00000180: bf05 2635 7376 0435 5b2a 3735 5f61 0334
00000190: 426c c132 71be 1535 9b94 fe34 21e6 1435
000001a0: 5243 1135 527b 1e35 a348 1835 3a56 2632
000001b0: c374 9632 7c1c 3435 aad5 1b35 c051 0632
000001c0: f235 3235 1177 ff31 6abc 4a33 2661 ab32
000001d0: 84ff 1f35 7930 0035 d69c 2e35 6613 e633
000001e0: 43bd af32 d72b 0e34 3ccc de33 76d0 fe33
000001f0: 6f87 fc33 1790 1a34 5afa 0234 f519 5431
00000200: b042 8632 bc7e 3634 64dc 0634 0cc4 8531
00000210: e6df 3234 1475 9c31 4b79 2e33 566f 6532
00000220: ccf0 0b34 6ed0 db33 ebfa 2d34 67d0 6f33
00000230: 1ef4 2a32 3341 6e34 ca81 4934 7a42 6c34
00000240: 10af 6634 46cb 7d34 8405 7234 afcd 8d31
00000250: 18b0 0432 3d75 9034 cdcf 7734 5171 6c31
00000260: 20d6 8e34 c669 5931 0d5a b632 a326 1232
00000270: 5ea4 7e34 f242 4b34 dbc8 8b34 e6e6 3d33
00000280: 010a ed32 ecf8 4834 dab9 2234 7cbe 3634
00000290: 5ee3 3634 dfcf 5f34 28da 3b34 5db7 a731
000002a0: 3b4d b932 6a96 8134 c9ed 4134 cf04 c331
000002b0: 73e0 7d34 0299 e031 152b 7533 29b0 9e32
000002c0: 4009 4834 95b5 1e34 5d29 7734 c5ce b033
000002d0: 85ee 6f32 52f8 fa32 1f23 8932 ddd1 9632
000002e0: e7be 9932 232e 1133 40a1 a132 cf1f 5630
000002f0: bedd 3a32 841c 4133 a546 a732 82d7 ea30
00000300: 7d27 3933 f323 2c31 668b f332 3ebe 0632
00000310: 73a9 b832 db69 8532 0c47 3033 3244 0433
00000320: 65c4 ab32 3bff 0b35 4982 f134 f01b 0c35
00000330: b16d 0935 5138 1635 a030 0f35 f4fe 2f32
00000340: 323c 8532 9616 2935 5fe9 1235 1c45 0e32
00000350: 3648 2735 e2b0 f331 070d 4033 e9c3 a032
00000360: f377 1635 7d31 f134 e5fa 2335 4a9b e633
00000370: 4481 9332 40a4 b234 c2c5 9534 01be af34
00000380: e96f ab34 9ebf bd34 405e b434 d477 da31
00000390: e851 6532 b95e d934 2e8e b834 98f7 ba31
000003a0: 22cb d634 6ac8 b331 5a04 1933 83e5 7232
000003b0: c7dd bd34 4e49 9734 d7fc d134 ffaf 9633
000003c0: 0f61 a330 29d0 2733 73ea 0c33 1214 2833
000003d0: 2303 2333 9598 3133 e4d0 2c33 d5d2 4b30
000003e0: 2ff6 8230 a967 4b33 0389 3033 7440 1930
000003f0: 1d4a 4933 d2b6 0030 4438 3831 c5a7 a430
2.609566e-08 6.9984435e-07 5.98512e-07 6.9822465e-07 6.821177e-07 7.4270775e-07 7.133853e-07 1.2547075e-08
2.0486729e-08 8.4023895e-07 7.3072414e-07 1.0211104e-08 8.3160376e-07 9.011743e-09 5.6704636e-08 2.3910719e-08
7.494481e-07 6.003847e-07 8.1487394e-07 1.373436e-07 5.453085e-08 6.72632e-07 5.722321e-07 6.4932556e-07
6.4407965e-07 7.3015684e-07 6.613789e-07 1.3188365e-08 4.1352607e-08 8.2326505e-07 6.805049e-07 1.3813119e-08
8.1188455e-07 1.3945928e-08 1.12128696e-07 3.9402842e-08 6.9762484e-07 5.62165e-07 7.9560897e-07 1.9883124e-07
1.35289895e-08 3.9186253e-07 3.3773676e-07 3.9232884e-07 3.843259e-07 4.1795278e-07 4.009697e-07 7.1597612e-09
1.0523122e-08 4.7007651e-07 4.108576e-07 5.7090364e-09 4.6528956e-07 4.8792947e-09 2.9969534e-08 1.286498e-08
4.2075538e-07 3.382357e-07 4.5611395e-07 7.4861255e-08 2.5192382e-09 9.0797094e-08 7.752754e-08 9.126168e-08
8.89003e-08 9.627791e-08 9.3466596e-08 1.6210484e-09 2.001352e-09 1.0902004e-07 9.561034e-08 1.2214153e-09
1.0795581e-07 1.0064031e-09 5.769829e-09 2.5971842e-09 9.8125476e-08 7.8487375e-08 1.05724666e-07 1.4928876e-08
2.9078892e-08 5.8100454e-07 4.901299e-07 5.7325445e-07 5.602308e-07 6.1880775e-07 5.8766244e-07 1.1282411e-08
2.240193e-08 7.058003e-07 6.0185266e-07 9.655333e-09 6.9761154e-07 8.905763e-09 6.025486e-08 2.4435012e-08
6.184818e-07 4.93462e-07 6.823445e-07 1.2235749e-07 2.2517387e-08 5.5783954e-07 4.7419311e-07 5.546918e-07
5.4114673e-07 5.903904e-07 5.6730113e-07 9.682077e-09 1.7515395e-08 6.7096676e-07 5.805292e-07 7.818414e-09
6.638867e-07 7.435013e-09 4.720315e-08 1.9951198e-08 5.960394e-07 4.775425e-07 6.504828e-07 1.0713738e-07
2.0458748e-08 1.324073e-07 1.03748306e-07 1.18657155e-07 1.17593e-07 1.4394787e-07 1.2198271e-07 3.0864815e-09
1.5629979e-08 1.6996177e-07 1.25599e-07 3.8930974e-09 1.6658996e-07 4.553508e-09 4.0622847e-08 1.3354869e-08
1.3032985e-07 1.0235895e-07 1.6203164e-07 5.5836065e-08 9.950808e-09 2.2189197e-07 1.8766801e-07 2.2003397e-07
2.1484107e-07 2.3636412e-07 2.2540013e-07 4.1270236e-09 7.72345e-09 2.6907392e-07 2.3079265e-07 3.4406933e-09
2.6605358e-07 3.1637781e-09 2.1228539e-08 8.5071035e-09 2.371539e-07 1.8930203e-07 2.603691e-07 4.4214993e-08
2.759498e-08 1.8717009e-07 1.5155038e-07 1.7019369e-07 1.7032787e-07 2.0844116e-07 1.7495097e-07 4.8811857e-09
2.1571955e-08 2.4137563e-07 1.8061031e-07 5.6757936e-09 2.3644115e-07 6.536653e-09 5.708269e-08 1.847373e-08
1.8629817e-07 1.4780956e-07 2.3018715e-07 8.23325e-08 1.3965864e-08 2.9216753e-08 1.596487e-08 1.7557733e-08
1.7898357e-08 3.3802404e-08 1.8816195e-08 7.789795e-10 1.0877043e-08 4.496225e-08 1.9473484e-08 1.7086992e-09
4.3109583e-08 2.504973e-09 2.8352314e-08 7.843083e-09 2.1497476e-08 1.5531375e-08 4.104281e-08 3.079567e-08
1.999633e-08 5.2152944e-07 4.4984543e-07 5.219472e-07 5.11961e-07 5.5961306e-07 5.334241e-07 1.024431e-08
1.5510611e-08 6.2990273e-07 5.472884e-07 8.2812015e-09 6.231743e-07 7.09234e-09 4.4715332e-08 1.8715541e-08
5.6053904e-07 4.4925756e-07 6.108733e-07 1.07384565e-07 1.7171836e-08 3.327459e-07 2.78973e-07 3.2734536e-07
3.1932657e-07 3.5343413e-07 3.359619e-07 6.358258e-09 1.3348178e-08 4.048832e-07 3.437612e-07 5.4414606e-09
4.0008405e-07 5.23237e-09 3.5627046e-08 1.4138439e-08 3.5365358e-07 2.8179278e-07 3.911325e-07 7.016933e-08
1.1887397e-09 3.9072038e-08 3.280952e-08 3.9133802e-08 3.7954248e-08 4.1349796e-08 4.0236856e-08 7.415058e-10
9.528714e-10 4.73589e-08 4.1102805e-08 5.575267e-10 4.6866365e-08 4.682593e-10 2.6807507e-09 1.1980253e-09

exp_avg f4 [20]
00000000: c4e0 0437 514f 5fb7 d2fe c136 90fb 2436
00000010: 5914 1e37 5caf 2737 4b94 06b7 d2f7 dc36
00000020: 18bb 37b7 98f8 eeb6 48fc 0437 6ce2 0137
00000030: 7b63 e435 2fb9 a136 dd49 34b7 b80e c5b6
00000040: 97db 23b7 817f 95b6 b2e4 aab6 6207 02b7
7.920145e-06 -1.3310303e-05 5.781513e-06 2.4584333e-06 9.422271e-06 9.994805e-06 -8.02155e-06 6.585361e-06
-1.0951211e-05 -7.121893e-06 7.926552e-06 7.741717e-06 1.7016276e-06 4.819732e-06 -1.0746034e-05 -5.872771e-06
-9.766684e-06 -4.4553894e-06 -5.0930184e-06 -7.750323e-06

exp_avg_sq f4 [20]
00000000: 686c 8035 4df0 7935 cbdd 0f35 42d6 0534
00000010: e8c5 5835 aedd 4c35 0499 4f34 0605 a534
00000020: 84d4 9334 8c7b 5633 9636 4135 27a7 f834
00000030: f7ee 6933 a85e c234 f228 ef34 3ac6 4333
00000040: aa9c be34 dc51 3a33 d755 5633 e2ab de33
9.568294e-07 9.310941e-07 5.35944e-07 1.2464537e-07 8.075426e-07 7.631851e-07 1.9334044e-07 3.07373e-07
2.753551e-07 4.9938123e-08 7.1977536e-07 4.631522e-07 5.4466877e-08 3.6204187e-07 4.454701e-07 4.558226e-08
3.5504246e-07 4.338095e-08 4.990383e-08 1.0368946e-07

exp_avg f4 [1, 20]
00000000: 331b 8ab8 03f3 b1b8 dc84 c7b8 7d88 94b8
00000010: 6d46 93b8 d675 8ab8 678b e5b8 1033 97b8
00000020: b109 ffb8 c023 0cb9 d10f 95b8 3b9d 84b8
00000030: b6f7 a3b8 4598 9fb8 89d9 c5b8 4d3c f6b8
00000040: d198 f1b8 f0f5 35b9 776c f3b8 e1ed feb8
-6.585419e-05 -8.485282e-05 -9.5138064e-05 -7.082613e-05 -7.022624e-05 -6.6023014e-05 -0.000109455366 -7.209752e-05
-0.00012161153 -0.00013364758 -7.10782e-05 -6.323537e-05 -7.8185854e-05 -7.610073e-05 -9.434211e-05 -0.00011741426
-0.0001152024 -0.00017353124 -0.00011607346 -0.00012155972

exp_avg_sq f4 [1, 20]
00000000: 648d bb38 ab9a 9f38 ed6f dd38 f6d5 be38
00000010: bea4 8638 8b68 6638 06b6 0839 4d2e 9738
00000020: ef58 2c38 00f9 b338 068d 1239 6d45 6238
00000030: d3f7 6538 08f4 9e38 5246 8c38 e85d 5738
00000040: 4752 2039 f550 6838 b29c fa38 2012 1439
8.943191e-05 7.61052e-05 0.00010558949 9.099759e-05 6.4203035e-05 5.4933636e-05 0.0001303778 7.208865e-05
4.109082e-05 8.581765e-05 0.0001397618 5.3947257e-05 5.482866e-05 7.5794815e-05 6.6888184e-05 5.134745e-05
0.0001528944 5.5388507e-05 0.00011950116 0.00014121132
