model_D2.pth (torch, 12335 bytes, 15 tensors)

weight f4 [20, 2]
-1.3348962 0.003234234 -1.3269144 0.016552545 1.9178725 0.033195946 -1.7176511 -0.023407284
-0.9615807 0.005401086 -0.28004828 0.19194086 -0.84474057 -0.04357387 0.5868389 0.03531487
-0.5283421 0.03836954 0.886834 0.0034347635 1.1422738 -0.009012061 -1.5794234 -0.02768326
0.8126517 -0.000592951 -0.9281593 -0.025252227 -1.0229096 -0.028226225 0.3854647 0.009929456
0.23645021 -0.034024544 0.33032277 0.505128 -0.67481154 -0.0054009287 0.09101158 0.4480611
00000000: e1dd aabf 71f5 533b 55d8 a9bf 3499 873c
00000010: d97c f53f 79f8 073d fedb dbbf a2c0 bfbc
00000020: 272a 76bf 98fb b03b 7d62 8fbe 258c 443e
00000030: eb40 58bf 847a 32bd 133b 163f 53a6 103d
00000040: 6e41 07bf 6129 1d3d 8e07 633f c519 613b
00000050: 0736 923f 53a7 13bc 8c2a cabf 01c8 e2bc
00000060: f109 503f 4570 1bba d99b 6dbf c2dd cebc
00000070: b4ee 82bf af3a e7bc a15b c53e 28af 223c
00000080: 0120 723e 525d 0bbd 1120 a93e 1250 013f
00000090: 73c0 2cbf 46fa b0bb 4764 ba3d 4468 e53e

bias f4 [20]
-0.8033399 1.1292362 -1.675362 0.909833 -0.02324619 -0.5028068 0.8281644 0.4902502
0.17042217 -1.1928191 0.23795836 1.0083266 -0.4113206 -0.1125493 0.2495159 -0.08065398
1.2018737 0.12996449 0.704397 -0.42083573
00000000: afa7 4dbf d08a 903f 4372 d6bf d1ea 683f
00000010: cb6e bebc f2b7 00bf 9502 543f 1302 fb3e
00000020: 2683 2e3e 4cae 98bf 5bab 733e d910 813f
00000030: 9d98 d2be 3f80 e6bd 1981 7f3e ea2d a5bd
00000040: ffd6 993f 6915 053e 5d53 343f c877 d7be

weight f4 [20, 20]
-0.0553424 -0.24800749 -0.16095394 0.08298554 -0.026794076 -0.20465165 -0.11308333 0.012401955
0.24521594 0.2877281 0.04623422 0.091055125 0.39898086 0.13693559 0.029992444 0.10114863
-0.07379268 0.08279504 -0.11468524 0.05701786 -0.45601994 -0.6435753 -0.23188129 0.2847665
-0.3712063 0.06037082 0.25664508 0.06634536 0.098468244 0.4932569 0.093882054 0.42453218
0.15955551 0.25763243 -0.041694358 0.46528623 -0.34624955 0.033768203 -0.3075788 0.08373586
0.2948577 0.22864471 0.1972202 -0.20842928 -0.016441867 -0.21339862 -0.03285488 -0.14700693
-0.27855378 -0.38741764 -0.2709588 -0.43704793 -0.26521516 -0.112248875 0.022379579 -0.04032049
0.06452093 0.023454072 0.20544818 0.14796694 0.5767348 0.5288553 0.4215683 -0.959663
0.34526062 -0.079836555 -0.24633445 0.19931598 0.0038987296 -0.62345594 -0.6008978 -0.8353403
-0.4969072 -0.40139216 -0.3198035 -0.42142472 0.64659196 -0.061133232 0.61647016 -0.021909112
0.35286778 0.27981415 -0.018803386 -0.11251092 0.14521131 -0.18155335 -0.29600742 0.024536721
0.13578928 -0.19781384 -0.05952645 -0.34986156 -0.051619977 0.044146854 -0.13026601 -0.24712
0.3722248 -0.17673625 0.312069 -0.20828451 -0.35594797 -0.51713 -0.20114684 0.3715795
-0.4515019 0.18960583 0.15718369 0.114899725 -0.030423202 0.40399018 0.1263312 0.5072346
0.39073443 0.17525417 0.12909403 0.2063628 -0.47272202 0.059597854 -0.38129038 -0.0029056675
0.4222937 0.49469608 0.44377062 -0.496701 0.23070441 -0.18429631 0.08158539 0.011649869
-0.20777874 -0.57766944 -0.30682367 -0.47948843 -0.4766758 0.029004717 -0.16172431 -0.35563186
0.21070391 -0.10503424 0.02088819 0.28060377 -0.30336344 -0.57339746 -0.46796548 1.3511586
-0.6982562 -0.35587928 0.5500876 -0.029361567 -0.015620115 1.0303121 0.63879526 1.3815565
0.7448368 0.4828193 0.7880488 0.35146722 -0.46848077 -0.015558666 -0.77403545 0.023360267
0.30320403 0.22030799 0.3400707 -0.5027809 0.14910258 -0.16846597 -0.16563986 -0.011612756
-0.15649348 -0.633023 -0.48113233 -0.35993057 -0.46155125 -0.19063537 0.0023626247 -0.09235548
0.4568318 0.13238612 0.48142436 0.09784982 -0.5646518 -0.7262199 -0.44773242 0.7448674
-0.77696735 -0.10254178 0.02940195 -0.22928526 0.2890408 0.87909335 0.38840103 0.54317063
0.7858432 0.38312542 0.5303906 0.49194637 -0.55963504 -0.28767136 -0.8131557 -0.1711453
-0.4219992 -0.5632253 -0.12612864 0.382152 -0.09760079 0.09541548 0.06694768 -0.21780384
0.0043426096 0.5669922 0.18646318 0.2555906 0.23490249 0.34152985 0.07199853 0.30758792
-0.28973398 -0.03170487 -0.1909122 0.0364598 0.11998453 0.49290618 0.23771258 -0.17461775
0.24986567 -0.13168481 -0.024721326 0.019975808 0.08955501 -0.5456311 -0.3214981 -0.28827012
-0.21685967 -0.032718204 -0.05873878 -0.060310367 0.10068891 -0.1673226 0.4777883 -0.18605451
0.20955226 0.25970024 0.38625112 -0.46646264 0.19397469 0.05390306 -0.20049025 -0.051589757
0.04820552 -0.6983812 -0.33899313 -0.3190374 -0.36271295 -0.1131524 -0.30970362 -0.30468184
00000000: b6ae 62bd adf5 7dbe 1cd1 24be 53f4 a93d
00000010: 407f dbbc 3490 51be 3c98 e7bd 9231 4b3c
00000020: e319 7b3e 1951 933e 1860 3d3d 1c7b ba3d
00000030: 3847 cc3e d838 0c3e b7b2 f53c 0327 cf3d
00000040: 9e20 97bd 7290 a93d 18e0 eabd 8f8b 693d
00000050: 727b e9be 5ac1 24bf 4a72 6dbe eacc 913e
00000060: c10e bebe 6547 773d fc66 833e 13e0 873d
00000070: b8a9 c93d 2b8c fc3e 3c45 c03d 485c d93e
00000080: 8562 233e 66e8 833e b4c7 2abd ff39 ee3e
00000090: 9f47 b1be 8750 0a3d f87a 9dbe b57d ab3d
000000a0: 97f7 963e d721 6a3e 18f4 493e 7c6e 55be
000000b0: 18b1 86bc 2b85 5abe d792 06bd fc88 16be
000000c0: 9a9e 8ebe 9b5b c6be 1dbb 8abe bfc4 dfbe
000000d0: 48ca 87be bde2 e5bd 6155 b73c 1927 25bd
000000e0: 8d23 843d c122 c03c 0261 523e a584 173e
000000f0: e4a4 133f 1063 073f cdd7 d73e 79ac 75bf
00000100: 00c6 b03e 5981 a3bd 193f 7cbe 7d19 4c3e
00000110: d481 7f3b cf9a 1fbf 70d4 19bf ddd8 55bf
00000120: 9f6a febe 4683 cdbe 49bd a3be fbc4 d7be
00000130: 0d87 253f d766 7abd fdd0 1d3f bd7a b3bc
00000140: 16ab b43e cd43 8f3e 8f09 9abc 206c e6bd
00000150: 46b2 143e 1fe9 39be 498e 97be 3c01 c93c
00000160: 580c 0b3e b68f 4abe 02d2 73bd 0e21 b3be
00000170: 786f 53bd 55d3 343d 7464 05be 060d 7dbe
00000180: 4094 be3e 59fa 34be 82c7 9f3e 8948 55be
00000190: d03e b6be a262 04bf 70f9 4dbe ab3f be3e
000001a0: 422b e7be 0828 423e c3f4 203e 8c50 eb3d
000001b0: 143a f9bc cdd7 ce3e f75c 013e 20da 013f
000001c0: 580e c83e d475 333e 3a31 043e c550 533e
000001d0: 9f08 f2be e11c 743d 7e38 c3be 036d 3ebb
000001e0: e136 d83e ce48 fd3e e735 e33e 984f febe
000001f0: c73d 6c3e 2cb8 3cbe 3e16 a73d 18df 3e3c
00000200: f3c3 54be 25e2 13bf fe17 9dbe 827f f5be
00000210: da0e f4be 4d9b ed3c 0f9b 25be 6115 b6be
00000220: c4c2 573e 311c d7bd b61d ab3c 4cab 8f3e
00000230: 7452 9bbe 2dca 12bf 2c99 efbe c4f2 ac3f
00000240: ebc0 32bf cf35 b6be 8ad2 0c3f ab87 f0bc
00000250: 83eb 7fbc 44e1 833f 1688 233f d8d6 b03f
00000260: a0ad 3e3f 1734 f73e 91bd 493f 83f3 b33e
00000270: b6dc efbe c6e9 7ebc 3027 46bf 085e bf3c
00000280: 8f3d 9b3e 6b98 613e bf1d ae3e 40b6 00bf
00000290: 59ae 183e 5882 2cbe 7f9d 29be 6e43 3ebc
000002a0: d43f 20be cc0d 22bf fa56 f6be d248 b8be
000002b0: 7250 ecbe eb35 43be 44d6 1a3b df24 bdbd
000002c0: dce5 e93e 3a90 073e 417d f63e 7d65 c83d
000002d0: 058d 10bf 8ce9 39bf 2f3d e5be a1af 3e3f
000002e0: 55e7 46bf 6d01 d2bd 5cdc f03c c1c9 6abe
000002f0: 28fd 933e 430c 613f 80dc c63e 3b0d 0b3f
00000300: 052d 493f 0429 c43e aec7 073f 65e0 fb3e
00000310: 3e44 0fbf a949 93be f92a 50bf b740 2fbe
00000320: 4710 d8be 892f 10bf de27 01be 6da9 c33e
00000330: ece2 c7bd 3169 c33d de1b 893d f807 5fbe
00000340: 734c 8e3b 6726 113f 34f0 3e3e c5dc 823e
00000350: 478a 703e 00dd ae3e f773 933d 2a7c 9d3e
00000360: 0358 94be f7dc 01bd 7d7e 43be df56 153d
00000370: 73ba f53d 335e fc3e ed6a 733e ffce 32be
00000380: c9dc 7f3e 62d8 06be 6184 cabc 4ea4 a33c
00000390: 9e68 b73d 7bae 0bbf 669b a4be 2498 93be
000003a0: 7610 5ebe 8603 06bd 1398 70bd 0108 77bd
000003b0: fd35 ce3d 9e56 2bbe aba0 f43e 1385 3ebe
000003c0: de94 563e 6ef7 843e b5c2 c53e 31d4 eebe
000003d0: 4da1 463e 74c9 5c3d 514d 4dbe c84f 53bd
000003e0: 2773 453d 1cc9 32bf 8290 adbe df58 a3be
000003f0: 83b5 b9be 72bc e7bd 7991 9ebe 42ff 9bbe

bias f4 [20]
-0.04372897 -0.05808957 0.10901616 0.07062138 0.08543774 0.001743737 0.20198758 -0.05074761
0.14007689 0.22963507 0.15162443 0.1335859 -0.06717168 -0.15458716 -0.18926585 -0.23963211
-0.04917373 0.02183763 -0.16074567 -0.123454675
00000000: 261d 33bd 54ef 6dbd dd43 df3d f1a1 903d
00000010: fbf9 ae3d 1b8e e43a d5d5 4e3e badc 4fbd
00000020: 5170 0f3e 7525 6b3e 6f43 1b3e beca 083e
00000030: 4e91 89bd 194c 1ebe e8ce 41be 1f62 75be
00000040: 656a 49bd d4e4 b23c 839a 24be ced5 fcbd

weight f4 [1, 20]
-0.14138141 -0.17251149 0.09173146 0.17370678 0.22130147 -0.21999544 0.39887616 -0.22612175
0.2897129 -0.33394876 -0.3075378 0.122627884 0.29258966 -0.23456974 0.10674214 0.24165367
0.2292556 0.24402472 0.25385764 0.206314
00000000: 4ac6 10be daa6 30be b4dd bb3d 31e0 313e
00000010: da9c 623e 7c46 61be 7f39 cc3e 768c 67be
00000020: 4055 943e 55fb aabe 9875 9dbe 5424 fb3d
00000030: 50ce 953e 0d33 70be a09b da3d 0f74 773e
00000040: fbc1 6a3e 9ee1 793e a1f9 813e fa43 533e

exp_avg f4 [20, 2]
7.378893e-07 0.0020873738 0.00023988808 0.0049697226 3.39879e-05 0.0013253877 -3.073235e-05 -0.0021696342
6.74745e-05 0.0044737128 -2.8478046e-06 4.1751755e-06 1.1496004e-05 -0.0005087836 3.39451e-06 0.00012537836
-4.6495217e-05 -0.00067444966 -0.0002342381 -0.008663684 -3.25005e-05 -0.0041821226 -2.6119438e-05 -0.0021637448
-0.000135465 -0.006020227 -9.670623e-06 -0.00090554124 -4.736058e-06 -0.000986169 -9.267069e-05 -0.0037280135
0.00013907654 0.004005868 4.857971e-06 -6.088301e-07 0.00013083807 0.005250553 2.3918228e-06 -1.1820428e-06
00000000: 5e13 4635 52cc 083b 778a 7b39 0ed9 a23b
00000010: 3b8e 0e38 a2b8 ad3a 9ce6 00b8 6c30 0ebb
00000020: 1981 8d38 3998 923b e91c 3fb6 7c18 8c36
00000030: f6de 4037 e45f 05ba 3dcd 6336 ff77 0339
00000040: dc03 43b8 8dcd 30ba d09d 75b9 20f2 0dbc
00000050: 2551 08b8 300a 89bb 111b dbb7 9dcd 0dbb
00000060: 9c0b 0eb9 5345 c5bb 023f 22b7 d861 6dba
00000070: 6eea 9eb6 5742 81ba 3358 c2b8 b051 74bb
00000080: 13d5 1139 a843 833b a701 a336 7c6e 23b5
00000090: 9431 0939 d50c ac3b 3483 2036 aea6 9eb5

exp_avg_sq f4 [20, 2]
1.6842156e-07 0.00027038433 6.1679236e-07 0.00086026965 5.2146163e-08 4.440602e-05 1.1324806e-07 0.00011646785
2.265604e-07 0.00044707 7.679249e-09 1.6541758e-09 1.3878368e-08 2.575188e-06 1.5636391e-09 1.693288e-07
1.2579003e-08 9.421778e-06 1.1820864e-06 0.0017203001 2.9185546e-07 0.00043818378 1.51855e-07 0.00010477672
6.886541e-07 0.0008758246 6.0832335e-08 1.3583548e-05 5.2836437e-08 1.5725567e-05 3.335413e-07 0.0003362511
1.655779e-07 0.00028292427 4.3492645e-09 2.6307115e-10 2.7980667e-07 0.00055917294 3.8901327e-09 1.0297831e-09
00000000: 5ed7 3434 5fc2 8d39 a691 2535 b883 613a
00000010: 50f7 5f33 9a40 3a38 c832 f333 3340 f438
00000020: 7344 7334 b864 ea39 b2ed 0332 2359 e330
00000030: b56d 6e32 65d1 2c36 a9e7 d630 bfd0 3534
00000040: 0a1b 5832 3a12 1e37 2ea8 9e35 b17b e13a
00000050: 4fb0 9c34 08bc e539 960d 2334 93bb db38
00000060: f3db 3835 9897 653a eea2 8233 e5e4 6337
00000070: 47ee 6233 66ea 8337 9111 b334 dc4a b039
00000080: b5c9 3134 7455 9439 8970 9531 f99f 902f
00000090: 5638 9634 7695 123a f8a9 8531 4688 8d30

exp_avg f4 [20]
2.5577376e-05 4.5786877e-05 0.00017410464 -0.00017792343 4.2435146e-05 3.5055702e-06 -3.4755933e-05 4.7035064e-06
-1.21086705e-05 -8.7147484e-05 -3.498652e-05 -0.00019351274 -6.656305e-05 -3.7634316e-05 -5.540051e-05 -5.0955692e-05
5.443474e-05 4.7831475e-07 6.2458945e-05 4.5190953e-07
00000000: ff8e d637 490b 4038 dc8f 3639 f590 3ab9
00000010: 64fc 3138 3d41 6b36 e6c6 11b8 d0d2 9d36
00000020: 5826 4bb7 f3c2 b6b8 7dbe 12b8 aee9 4ab9
00000030: c497 8bb8 8ad9 1db8 d85d 68b8 42b9 55b8
00000040: db50 6438 8a65 0035 64fc 8238 f99d f234

exp_avg_sq f4 [20]
8.020544e-08 3.0973354e-07 3.441417e-08 6.984314e-08 1.3980988e-07 5.9742113e-09 4.4664143e-09 1.057055e-09
6.9275683e-09 5.980122e-07 1.3373695e-07 7.3542644e-08 2.9336047e-07 1.6383744e-08 1.4665921e-08 1.3220073e-07
1.06853264e-07 4.198772e-09 1.8961273e-07 3.1903424e-09
00000000: 683d ac33 7449 a634 c8ce 1333 acfc 9533
00000010: a61e 1634 b845 cd31 ff76 9931 d147 9130
00000020: 8907 ee31 1687 2035 5599 0f34 7fee 9d33
00000030: 287f 9d34 3cbc 8c32 67f5 7b32 0ff3 0d34
00000040: 3477 e533 ca44 9031 5a98 4b34 193d 5b31

exp_avg f4 [20, 20]
-3.0536341e-06 -1.109299e-05 -2.4854668e-05 -6.123099e-06 -7.0443857e-06 -4.1391173e-05 -4.4136286e-06 -4.011683e-05
-3.141242e-05 -3.0427682e-05 -3.3289358e-05 -7.1957575e-06 -3.163041e-05 -9.639089e-07 -2.0649968e-06 -3.2896678e-05
-1.2289918e-05 -4.2730397e-05 -9.006108e-06 -4.147278e-05 -3.6776826e-06 -1.2851684e-05 -2.825653e-05 -7.2545467e-06
-8.290035e-06 -4.8038204e-05 -5.1889206e-06 -4.6788296e-05 -3.6857688e-05 -3.565848e-05 -3.847922e-05 -8.553978e-06
-3.6859976e-05 -9.827202e-07 -2.3099024e-06 -3.8539674e-05 -1.3404509e-05 -4.976378e-05 -1.0222889e-05 -4.8174225e-05
2.0257557e-06 6.95331e-06 1.3566889e-05 4.3386513e-06 4.4528706e-06 2.4232872e-05 3.1776874e-06 2.348774e-05
1.865072e-05 1.7674247e-05 1.9374138e-05 5.021277e-06 1.8404999e-05 9.053202e-07 1.6620249e-06 1.9275365e-05
7.2001844e-06 2.5018307e-05 5.5814735e-06 2.4195797e-05 6.20649e-06 1.8255898e-05 2.6471826e-05 1.27898775e-05
1.1947063e-05 4.9426948e-05 9.5322985e-06 4.905038e-05 3.991327e-05 3.5459227e-05 3.96086e-05 1.4029519e-05
3.7464037e-05 4.1942044e-06 6.1544106e-06 4.0209117e-05 1.6682723e-05 5.157038e-05 1.435425e-05 4.9368722e-05
4.7548447e-06 1.7476705e-05 3.8374386e-05 9.590051e-06 1.1057877e-05 6.438932e-05 7.0449637e-06 6.231978e-05
4.898098e-05 4.7070047e-05 5.167575e-05 1.132545e-05 4.9016387e-05 1.5566443e-06 3.3005579e-06 5.1061394e-05
1.899926e-05 6.634067e-05 1.416154e-05 6.438887e-05 -4.8462653e-06 -1.6784477e-05 -3.5750567e-05 -9.598971e-06
-1.0817258e-05 -6.146069e-05 -6.8372265e-06 -5.9710062e-05 -4.720221e-05 -4.527663e-05 -4.8992897e-05 -1.1257422e-05
-4.6877612e-05 -1.437903e-06 -3.1694913e-06 -4.9110848e-05 -1.721873e-05 -6.354483e-05 -1.3319783e-05 -6.1540646e-05
9.9833915e-06 3.2274944e-05 6.05758e-05 2.0303502e-05 2.097105e-05 0.00010908354 1.4311275e-05 0.00010606136
8.473499e-05 7.955478e-05 8.631181e-05 2.3184732e-05 8.258341e-05 4.193716e-06 7.635408e-06 8.715148e-05
3.1366297e-05 0.000112935726 2.534402e-05 0.00010914306 -1.3933035e-05 -3.250091e-05 -2.248758e-05 -3.0002546e-05
-2.2178992e-05 -6.0533268e-05 -2.0837242e-05 -6.097628e-05 -5.3656262e-05 -4.1672032e-05 -4.6796806e-05 -3.0820058e-05
-4.455459e-05 -1.2622571e-05 -1.6500402e-05 -5.0455223e-05 -2.4310673e-05 -6.3258645e-05 -2.45101e-05 -5.9748934e-05
6.8509416e-06 2.2916667e-05 4.617748e-05 1.3949032e-05 1.4855731e-05 8.120181e-05 9.978278e-06 7.874272e-05
6.2388004e-05 5.936361e-05 6.4612424e-05 1.6127244e-05 6.1653554e-05 2.6465539e-06 5.0764284e-06 6.468062e-05
2.3630073e-05 8.3786814e-05 1.8348379e-05 8.110287e-05 -5.7552093e-06 -2.2086402e-05 -6.164517e-05 -9.3427e-06
-1.4191196e-05 -9.273935e-05 -6.8580803e-06 -9.223611e-05 -7.182128e-05 -7.2442504e-05 -7.649903e-05 -1.1698808e-05
-7.403762e-05 4.324766e-07 -1.5482094e-06 -7.70612e-05 -2.3818062e-05 -9.634708e-05 -1.7139164e-05 -9.3031886e-05
-6.9550147e-06 -2.3390461e-05 -4.8244532e-05 -1.38479545e-05 -1.5163756e-05 -8.425675e-05 -9.726628e-06 -8.193278e-05
-6.475449e-05 -6.198088e-05 -6.6955756e-05 -1.6089842e-05 -6.4160624e-05 -2.2166448e-06 -4.6629934e-06 -6.730297e-05
-2.376006e-05 -8.751774e-05 -1.8525625e-05 -8.470089e-05 2.7317697e-06 9.460521e-06 1.9530065e-05 5.3725425e-06
6.1013507e-06 3.3289383e-05 4.0478308e-06 3.2819942e-05 2.582737e-05 2.4730294e-05 2.6881704e-05 6.329756e-06
2.568809e-05 8.7790943e-07 1.860536e-06 2.6950758e-05 9.593424e-06 3.4938996e-05 7.5284484e-06 3.365748e-05
9.019092e-06 2.5747131e-05 3.873056e-05 1.959805e-05 1.697738e-05 7.642861e-05 1.3467875e-05 7.457216e-05
6.0759972e-05 5.5658835e-05 6.0377686e-05 2.1346443e-05 5.7835536e-05 5.7666875e-06 8.730014e-06 6.159129e-05
00000000: 09ed 4cb6 071c 3ab7 fe7e d0b7 0575 cdb6
00000010: d05e ecb6 6f9b 2db8 c818 94b6 1e43 28b8
00000020: d4c0 03b8 f33e ffb7 2da0 0bb8 1673 f1b6
00000030: e5aa 04b8 a85f 81b5 6094 0ab6 8afa 09b8
00000040: cc30 4eb7 6a39 33b8 f018 17b7 0ff3 2db8
00000050: 1bce 76b6 909d 57b7 7008 edb7 156c f3b6
00000060: 6e15 0bb7 a17c 49b8 7d1c aeb6 8d3e 44b8
00000070: a497 1ab8 0090 15b8 bf64 21b8 0e83 0fb7
00000080: 199a 1ab8 02e6 83b5 d203 1bb6 a9a5 21b8
00000090: eee3 60b7 74b9 50b8 f982 2bb7 ae0e 4ab8
000000a0: 38f2 0736 7a50 e936 589d 6337 bb94 9136
000000b0: de69 9536 b247 cb37 4140 5536 8a07 c537
000000c0: 1e74 9c37 2843 9437 a585 a237 717c a836
000000d0: 6f64 9a37 2105 7335 be12 df35 88b1 a137
000000e0: 1d99 f136 68de d137 7e48 bb36 14f8 ca37
000000f0: 5841 d036 3e24 9937 d00f de37 1b94 5637
00000100: 3f70 4837 c84f 4f38 e9ec 1f37 72bb 4d38
00000110: 8c68 2738 0eba 1438 6921 2638 5360 6b37
00000120: b422 1d38 f1bb 8c36 fc81 ce36 36a6 2838
00000130: e0f1 8b37 464d 5838 09d3 7037 4311 4f38
00000140: ce8b 9f36 f09a 9237 2ff4 2038 f5e4 2037
00000150: 3885 3937 c108 8738 c763 ec36 adb1 8238
00000160: ed70 4d38 146d 4538 6abe 5838 7002 3e37
00000170: f296 4d38 e4ed d035 277f 5d36 c12a 5638
00000180: 9a60 9f37 6020 8b38 5a97 6d37 8308 8738
00000190: 1a9d a2b6 64cc 8cb7 e1f2 15b8 440b 21b7
000001a0: c57b 35b7 75e4 80b8 546b e5b6 3171 7ab8
000001b0: fdfa 45b8 69e7 3db8 b97d 4db8 42de 3cb7
000001c0: 749e 44b8 f9fd c0b5 72b3 54b6 5ffc 4db8
000001d0: f170 90b7 5f43 85b8 0878 5fb7 620f 81b8
000001e0: 577e 2737 f55e 0738 c512 7e38 7051 aa37
000001f0: fdea af37 c8c3 e438 751a 7037 426d de38
00000200: c0b3 b138 a6d6 a638 4d02 b538 d57c c237
00000210: a130 ad38 bfb7 8c36 d419 0037 18c5 b638
00000220: 4e8f 0338 e8d7 ec38 de99 d437 bce3 e438
00000230: eec1 69b7 9651 08b8 b6a3 bcb7 faad fbb7
00000240: 060d bab7 1ae5 7db8 a3cb aeb7 c8c0 7fb8
00000250: f90c 61b8 01c9 2eb8 b047 44b8 c944 01b8
00000260: 20e0 3ab8 88c5 53b7 586a 8ab7 e29f 53b8
00000270: c6ee cbb7 baa9 84b8 0a9b cdb7 ee9a 7ab8
00000280: 24e1 e536 2b3d c037 b1ae 4138 a306 6a37
00000290: e13c 7937 e44a aa38 6168 2737 ad22 a538
000002a0: 4ed6 8238 31fd 7838 8880 8738 fe48 8737
000002b0: 004c 8138 739b 3136 3056 aa36 25a5 8738
000002c0: 3239 c637 b4b6 af38 d8ea 9937 c615 aa38
000002d0: df1c c1b6 3046 b9b7 8047 81b8 97be 1cb7
000002e0: b916 6eb7 0f7d c2b8 761e e6b6 e26e c1b8
000002f0: c29e 96b8 46ec 97b8 1b6e a0b8 ff45 44b7
00000300: a544 9bb8 222f e834 12cc cfb5 eb9b a1b8
00000310: e6cc c7b7 f20d cab8 13c6 8fb7 1d1a c3b8
00000320: 1f5f e9b6 a236 c4b7 2c5a 4ab8 8354 68b7
00000330: d667 7eb7 00b3 b0b8 8d2f 23b7 54d3 abb8
00000340: cdcc 87b8 bbfb 81b8 996a 8cb8 acf8 86b7
00000350: f98d 86b8 abc1 14b6 cf76 9cb6 0225 8db8
00000360: 5750 c7b7 bb89 b7b8 7a67 9bb7 72a1 b1b8
00000370: 7253 3736 a1b8 1e37 7fd4 a337 ca45 b436
00000380: 34ba cc36 34a0 0b38 9ad2 8736 25a8 0938
00000390: dba7 d837 e773 cf37 0580 e137 3164 d436
000003a0: c17c d737 7aa9 6b35 88b7 f935 5014 e237
000003b0: 71f3 2037 768b 1238 e19c fc36 722b 0d38
000003c0: b550 1737 8bfb d737 9f72 2238 7e66 a437
000003d0: a56a 8e37 4c48 a038 15f4 6137 a063 9c38
000003e0: 86d8 7e38 3873 6938 0c3e 7d38 2311 b337
000003f0: 6f94 7238 787f c136 2077 1237 922a 8138

exp_avg_sq f4 [20, 20]
5.5639653e-08 7.3933e-08 6.911149e-08 1.3144712e-08 4.9401137e-08 7.49049e-08 3.4211975e-08 7.6218896e-08
6.3783965e-08 3.6264257e-08 1.03174514e-07 1.5258575e-08 5.92895e-08 1.078027e-08 1.4670924e-08 5.3529238e-08
4.8303544e-08 7.7536605e-08 4.4796224e-08 7.49113e-08 1.6846695e-08 3.3045737e-08 4.856115e-08 3.3836736e-09
1.671426e-08 5.4968197e-08 6.206039e-09 5.453785e-08 4.0787135e-08 2.1000751e-08 4.3372236e-08 3.8575783e-09
2.9968817e-08 2.218487e-09 3.0053484e-09 3.2910567e-08 1.7117264e-08 5.7198303e-08 1.6755312e-08 5.6165092e-08
7.062747e-09 1.1687179e-08 1.8316449e-08 1.8282991e-09 7.210543e-09 1.9439051e-08 4.118817e-09 2.1642796e-08
1.666884e-08 6.8743278e-09 1.6214965e-08 1.9606854e-09 1.0321457e-08 1.2743956e-09 1.7859328e-09 1.1599106e-08
1.0327827e-08 2.2076735e-08 8.412545e-09 1.988014e-08 4.369239e-09 1.7207885e-08 3.998462e-08 1.3595741e-09
6.6417924e-09 4.590257e-08 9.684693e-10 4.6535245e-08 3.3100243e-08 1.5323112e-08 2.6521887e-08 1.3936859e-09
2.0816666e-08 5.062454e-10 6.8074224e-10 2.6305505e-08 1.0250927e-08 4.900716e-08 9.270519e-09 4.7286804e-08
1.8968603e-07 2.3826921e-07 2.3488408e-07 3.78203e-08 1.6997556e-07 2.500347e-07 9.6794565e-08 2.5556156e-07
2.2245266e-07 1.0678809e-07 3.0218638e-07 4.3797296e-08 1.7283023e-07 3.0329222e-08 4.212347e-08 1.559774e-07
1.7475729e-07 2.5888136e-07 1.5840118e-07 2.4933286e-07 3.7222502e-08 6.583677e-08 8.894531e-08 7.163246e-09
3.5367872e-08 1.001331e-07 1.415499e-08 9.868287e-08 7.6019546e-08 4.0541188e-08 8.681315e-08 8.321187e-09
5.818016e-08 4.9344107e-09 6.7684085e-09 6.0535505e-08 3.51317e-08 1.0310782e-07 3.4015997e-08 1.0185351e-07
3.3274904e-07 4.67843e-07 5.00514e-07 6.1898284e-08 2.970123e-07 5.3562496e-07 1.4433199e-07 5.451991e-07
4.5096155e-07 2.2599798e-07 5.701073e-07 7.177163e-08 3.4434422e-07 4.661064e-08 6.49347e-08 3.2503766e-07
2.9503582e-07 5.585687e-07 2.7579915e-07 5.397466e-07 8.481936e-09 2.883616e-08 6.135595e-08 2.071156e-09
1.1085439e-08 7.1264296e-08 1.2776579e-09 7.059113e-08 5.0046218e-08 2.4761437e-08 4.3189957e-08 2.173555e-09
3.3247563e-08 7.3535966e-10 1.002276e-09 4.058253e-08 1.4134669e-08 7.475509e-08 1.3852911e-08 7.316826e-08
1.12683885e-07 1.731837e-07 2.1534753e-07 2.1420341e-08 1.03093164e-07 2.3157446e-07 4.6383292e-08 2.3780235e-07
1.8888761e-07 9.505844e-08 2.2032549e-07 2.4639235e-08 1.3968267e-07 1.5278287e-08 2.1360576e-08 1.3937512e-07
1.0934781e-07 2.450298e-07 9.9836896e-08 2.3511173e-07 2.4692033e-08 7.390146e-08 1.5152095e-07 5.8494405e-09
2.8984992e-08 1.7203521e-07 5.2473217e-09 1.7352681e-07 1.2206573e-07 6.6003e-08 1.17581884e-07 6.546824e-09
8.8130804e-08 2.7441953e-09 3.6962404e-09 1.0168201e-07 3.9428343e-08 1.8280977e-07 3.5680863e-08 1.7750688e-07
1.9701288e-07 2.7793502e-07 2.7849566e-07 3.536436e-08 1.74499e-07 3.0192433e-07 8.295542e-08 2.9730748e-07
2.4737145e-07 1.2975397e-07 3.2901804e-07 4.15425e-08 1.9893415e-07 2.7081681e-08 3.74695e-08 1.8502519e-07
1.5862236e-07 3.062478e-07 1.5534587e-07 3.0364063e-07 1.0699392e-08 1.8538085e-08 2.9393316e-08 2.3937072e-09
1.0726838e-08 3.1801843e-08 4.7495714e-09 3.3989178e-08 2.6108985e-08 1.1087613e-08 2.4315565e-08 2.5884423e-09
1.612413e-08 1.5470937e-09 2.1634412e-09 1.8348599e-08 1.4048193e-08 3.504369e-08 1.2016918e-08 3.249566e-08
1.2032791e-07 1.8144385e-07 2.0595405e-07 1.9596941e-08 1.0803656e-07 2.2420036e-07 4.2443602e-08 2.2764684e-07
1.8461171e-07 8.788674e-08 2.0402234e-07 2.2379679e-08 1.2816595e-07 1.3857173e-08 1.9445725e-08 1.2887443e-07
00000000: 72f8 6e33 19c5 9e33 726a 9433 0ed3 6132
00000010: 202d 5433 67db a033 77f0 1233 c8ad a333
00000020: 9bf9 8833 f9c0 1b33 ca90 dd33 f611 8332
00000030: 7fa5 7e33 2134 3932 680b 7c32 05e8 6533
00000040: 4f76 4f33 3382 a633 f865 4033 ecde a033
00000050: 46b6 9032 2cee 0d33 8d91 5033 3786 6831
00000060: 0c93 8f32 2c16 6c33 e53c d531 003d 6a33
00000070: ee2d 2f33 2465 b432 4748 3a33 9e8b 8431
00000080: 10b7 0033 0974 1831 a686 4e31 8d59 0d33
00000090: 4309 9332 33aa 7533 52ed 8f32 2c3a 7133
000000a0: 94ac f231 c2c8 4832 4c56 9d32 8e47 fb30
000000b0: 9bc0 f731 edfa a632 7f85 8d31 03e9 b932
000000c0: 2b2f 8f32 3a33 ec31 1649 8b32 bebc 0631
000000d0: 3f52 3132 cf26 af30 ed74 f530 6845 4732
000000e0: 436e 3132 41a3 bd32 c486 1032 e4c4 aa32
000000f0: 3c20 9631 8ad0 9332 8ebb 2b33 c3db ba30
00000100: d335 e431 6926 4533 fc1a 8530 0bde 4733
00000110: 1a2a 0e33 e19f 8332 3fd2 e332 f78b bf30
00000120: 55d0 b232 da27 0b30 fa1e 3b30 6bf6 e132
00000130: 0e1c 3032 f17b 5233 2c44 1f32 6418 4b33
00000140: 80ac 4b34 f1d6 7f34 7234 7c34 dc6f 2233
00000150: 8782 3634 823c 8634 60dd cf33 1d34 8934
00000160: 52db 6e34 6053 e533 2e3c a234 a31b 3c33
00000170: 3693 3934 5543 0233 3feb 3433 be7a 2734
00000180: eba4 3b34 62fc 8a34 fc14 2a34 0cdc 8534
00000190: 93de 1f33 2662 8d33 3402 bf33 9420 f631
000001a0: 63e7 1733 c108 d733 4e2e 7332 7beb d333
000001b0: 3040 a333 821f 2e33 096e ba33 f8f4 0e32
000001c0: c3e1 7933 898b a931 8d8f e831 bfff 8133
000001d0: b6e3 1633 206c dd33 fc18 1233 8fba da33
000001e0: aea4 b234 da2b fb34 0f5b 0635 f1ec 8433
000001f0: 0f75 9f34 dec7 0f35 adf9 1a34 cc59 1235
00000200: af1b f234 daa9 7234 7a09 1935 df20 9a33
00000210: 4fde b834 f130 4833 3b72 8b33 d680 ae34
00000220: 6a65 9e34 8cf0 1535 8c11 9434 1be3 1035
00000230: f3b7 1132 63b3 f732 cac2 8333 2954 0e31
00000240: 4772 3e32 f609 9933 9799 af30 e297 9733
00000250: 66f2 5633 fab2 d432 dc7f 3933 955d 1531
00000260: 15cc 0e33 5622 4a30 74c0 8930 f74c 2e33
00000270: efd4 7232 0c89 a033 bffd 6d32 ad20 9d33
00000280: 9ffc f133 5ff4 3934 473a 6734 d4ff b732
00000290: 1164 dd33 b4a6 7834 f836 4733 9d56 7f34
000002a0: 08d1 4a34 ee22 cc33 9c92 6c34 40a6 d332
000002b0: aefb 1534 4f3d 8332 677c b732 24a7 1534
000002c0: 98d2 ea33 a48c 8334 ea65 d633 0573 7c34
000002d0: 5b1a d432 c2b3 9e33 c3b1 2234 39fc c831
000002e0: acfa f832 aeb8 3834 ee4b b431 b052 3a34
000002f0: 2c11 0334 88bd 8d33 5381 fc33 79f2 e031
00000300: 6c42 bd33 6594 3c31 f300 7e31 475c da33
00000310: ec57 2933 5e4a 4434 863f 1933 b898 3e34
00000320: 7d8a 5334 1937 9534 2784 9534 86e3 1733
00000330: eb5d 3b34 2a18 a234 3925 b233 a19d 9f34
00000340: 79ce 8434 8052 0b34 e5a3 b034 766c 3233
00000350: 9a9a 5534 3fa1 e832 27ee 2033 56ab 4634
00000360: c851 2a34 616a a434 26cd 2634 0d04 a334
00000370: 6cd0 3732 ae3d 9f32 967c fc32 8b7e 2431
00000380: 2249 3832 7f96 0833 ac31 a331 7ffb 1133
00000390: 4446 e032 d67b 3e32 7ede d032 5ce0 3131
000003a0: 5681 8a32 85a1 d430 a9ab 1431 ff9c 9d32
000003b0: 9b58 7132 f282 1633 f772 4e32 5b91 0b33
000003c0: 7c33 0134 e8d2 4234 3824 5d34 2156 a832
000003d0: ba01 e833 babb 7034 3c4b 3633 166f 7434
000003e0: ae39 4634 3fbc bc33 3c11 5b34 6f3d c032
000003f0: fd9d 0934 7e10 6e32 9a09 a732 bc60 0a34

exp_avg f4 [20]
-3.9959617e-05 -4.646916e-05 2.3614597e-05 5.1113704e-05 6.211837e-05 -5.9409722e-05 0.00010661521 -6.8719164e-05
7.888306e-05 -9.035111e-05 -8.162746e-05 3.2758828e-05 7.6948265e-05 -6.396457e-05 2.911221e-05 6.814534e-05
6.8316396e-05 6.517982e-05 7.379882e-05 5.679528e-05
00000000: 509a 27b8 e1e7 42b8 f617 c637 ec62 5638
00000010: 8c45 8238 b42e 79b8 9b96 df38 521d 90b8
00000020: 056e a538 e27a bdb8 692f abb8 8666 0938
00000030: 495f a138 b824 86b8 ff35 f437 40e9 8e38
00000040: 1645 8f38 26b1 8838 71c4 9a38 7837 6e38

exp_avg_sq f4 [20]
1.0165229e-07 6.200854e-08 2.7910115e-08 5.2133203e-08 3.31432e-07 1.1283697e-07 6.70058e-07 7.764657e-08
2.859924e-07 1.9349528e-07 3.5659812e-07 4.1650992e-08 2.7080682e-07 2.1105039e-07 6.8687385e-08 3.3065675e-07
8.139118e-08 2.0715385e-07 1.2641719e-07 2.6333902e-07
00000000: f04b da33 8e29 8533 febe ef32 10e9 5f33
00000010: abef b134 c850 f233 09de 3335 a7be a633
00000020: 7f8a 9934 94c3 4f34 7972 bf34 c0e3 3233
00000030: 6863 9134 179d 6234 4a81 9333 1e85 b134
00000040: 46c9 ae33 046e 5e34 4bbd 0734 0a61 8d34

exp_avg f4 [1, 20]
0.00076782156 0.0008335247 0.0003518979 0.00028265078 0.00042466362 0.0008404723 0.00034203264 0.0010957501
0.00036641498 0.0008651149 0.00082927314 0.00038369972 0.0003189609 0.00080726825 0.00039727488 0.00043717484
0.00011509152 0.0003594993 0.0002472038 0.00041788706
00000000: a247 493a e580 5a3a f07e b839 bf30 9439
00000010: 63a5 de39 2453 5c3a d852 b339 469f 8f3a
00000020: 631b c039 e1c8 623a 9463 593a 4e2b c939
00000030: 353a a739 db9e 533a 5549 d039 9d34 e539
00000040: 4a5d f138 2e7b bc39 229b 8139 da17 db39

exp_avg_sq f4 [1, 20]
4.8422644e-05 5.2549844e-05 2.6804728e-05 3.9826722e-05 4.626345e-05 4.5731565e-05 3.97976e-05 6.700533e-05
3.8756032e-05 3.9421837e-05 5.259279e-05 3.6715952e-05 2.1367376e-05 4.185698e-05 2.8965502e-05 4.397924e-05
5.4048036e-05 2.698987e-05 3.8141538e-05 3.4008277e-05
00000000: 6b19 4b38 f768 5c38 b7da e037 9e0b 2738
00000010: 000b 4238 e5cf 3f38 59ec 2638 3685 8c38
00000020: f98d 2238 e058 2538 1497 5c38 74ff 1938
00000030: 173e b337 978f 2f38 f1fa f237 5976 3838
00000040: a3b1 6238 4e68 e237 2afa 1f38 1ca4 0e38
